netw.pt (torch, 241291 bytes, 12 tensors)

c1.0.weight f4 [3, 2, 3, 3]
0	0xbef3261e	-0.4749002
1	0x3f15765a	0.58383715
2	0xbd60c030	-0.054870784
3	0xbe882ac8	-0.2659514
4	0x3cd0fed6	0.02551214
5	0xbf466ebf	-0.77512735
6	0x3f013928	0.5047784
7	0x3e0e32d7	0.13886581
8	0x3f4ad92e	0.7923764
9	0xbd7c1768	-0.06154576
10	0xbcfe2691	-0.03102425
11	0xbda96bc0	-0.08272505
12	0xbbe2804d	-0.0069122673
13	0xbd8d044f	-0.068855874
14	0xbe8a635c	-0.2702893
15	0xbd08e4f1	-0.03342146
16	0xbdba369f	-0.090924494
17	0x3d16a7ed	0.03678124
18	0xbf97e435	-1.1866518
19	0xbfbc451f	-1.4708594
20	0xbf366243	-0.71243685
21	0x3ed142c8	0.40871263
22	0x3edb79bc	0.42866313
23	0xbe64fc47	-0.22361861
24	0xbee00ff7	-0.4376218
25	0xbdcbca1c	-0.09950659
26	0x3eb48404	0.3525697
27	0x3ce08dbb	0.027411332
28	0x3cbc0483	0.02295137
29	0x3d307c6e	0.043087415
30	0x3d83de72	0.064389125
31	0x3d013e43	0.031553518
32	0x3d84761d	0.06467841
33	0x3c1e3fbc	0.00965875
34	0x3ca1bdc7	0.019743813
35	0xbc937145	-0.017998347
36	0x3ed128ed	0.40851536
37	0xbf61c0b2	-0.88184655
38	0x3f1c38d2	0.610242
39	0xbd95bb92	-0.07311167
40	0xbf2eb531	-0.68245226
41	0xbf51ba73	-0.81925124
42	0x3eec375d	0.4613599
43	0x3efda6bc	0.4954127
44	0xbf0f01c5	-0.55862075
45	0x3d3d6737	0.04624101
46	0x3d79cdd7	0.06098732
47	0xbd28af67	-0.0411829
48	0x3e1e46e9	0.15456738
49	0x3cb54d33	0.022131538
50	0xbe171c9a	-0.14757004
51	0x3d54cf32	0.05195541
52	0x3e3699b8	0.17832077
53	0xbd895367	-0.06705361

c1.0.bias f4 [3]
0	0xbf055bc8	-0.5209317
1	0x3e0bb297	0.13642345
2	0xbe573ef6	-0.21020111

c1.2.weight f4 [2, 3, 3, 3]
0	0xbda72942	-0.08162166
1	0xbc7990e4	-0.0152322985
2	0xbed02be9	-0.406585
3	0x3d68fb28	0.056880146
4	0xbe4b0805	-0.19827278
5	0xbed284df	-0.41116998
6	0xbf0e868b	-0.55674046
7	0x3ee27965	0.44233242
8	0xbf949067	-1.1606568
9	0x3ca9abd9	0.020711826
10	0x3ce5dcad	0.028059328
11	0x3dd39990	0.10332024
12	0x3d8329a9	0.064044304
13	0xbdaee1f6	-0.085391924
14	0xbddf8f3b	-0.10915991
15	0x3e47d4ff	0.19514845
16	0x3e0190e3	0.12652926
17	0xbec73186	-0.3890497
18	0x3caf2e7d	0.021384472
19	0xbe57dae3	-0.21079592
20	0xbeb4d043	-0.3531514
21	0xbe187d12	-0.1489146
22	0xbe8c0da3	-0.27354154
23	0xbdb09931	-0.08622969
24	0xbf3361db	-0.7007119
25	0x3ef3dd58	0.4762981
26	0x3d982b68	0.07430154
27	0xbf7494b1	-0.95539385
28	0x3d9673e2	0.07346322
29	0xbf28aeb1	-0.6589156
30	0xbe46858e	-0.19386885
31	0xbd99f21d	-0.075168826
32	0x3dad70c9	0.08468778
33	0xbed695be	-0.4191112
34	0x3e1c08cc	0.1523773
35	0x3ec0e753	0.37676486
36	0xbea3cdb3	-0.31992874
37	0xbe9c77fb	-0.30560288
38	0xbdad22fe	-0.0845394
39	0x3e719485	0.23591812
40	0xbe89dbab	-0.26925406
41	0xbe80b095	-0.2513472
42	0xbf195de2	-0.5990888
43	0xbd48f865	-0.049065012
44	0x3e25f824	0.1620794
45	0xbeb2adf2	-0.34898335
46	0x3ec958bd	0.39325514
47	0x3e8b8200	0.2724762
48	0x3e3f2010	0.18664575
49	0x3ea3227d	0.3186225
50	0x3e40dd75	0.18834479
51	0x3ebb3559	0.3656414
52	0x3e34f375	0.17670996
53	0xbf54c0d9	-0.8310676

c1.2.bias f4 [2]
0	0xbdda1d90	-0.1065017
1	0xbc92ef70	-0.017936438

c1.5.weight f4 [3, 2, 3, 3]
0	0x3e3e32ba	0.18574038
1	0x3e2070ac	0.15667981
2	0x3d29fc0d	0.04150014
3	0x3ec85d05	0.39133468
4	0xbe587701	-0.21139146
5	0xbd32d3f0	-0.04365915
6	0x3dec714c	0.11545047
7	0xbe1910cb	-0.14947812
8	0xbf09388b	-0.536019
9	0xbebd76af	-0.3700461
10	0x3d5172ee	0.051134996
11	0xbd57b2da	-0.0526608
12	0xbe91ae6d	-0.2845339
13	0x3e907189	0.2821162
14	0x3e8b8d7e	0.27256387
15	0xbe967d2d	-0.29392377
16	0x3e24376f	0.16036771
17	0x3de82a01	0.113361366
18	0x3e10872b	0.14114062
19	0x3e67eee7	0.22649728
20	0xbc802647	-0.015643252
21	0x3e09e4c8	0.1346618
22	0x3e402ca5	0.1876703
23	0xbef57478	-0.4794042
24	0x3e1009a2	0.14066175
25	0xbda01c2f	-0.078178756
26	0xbeaa3a48	-0.3324759
27	0xbdc57284	-0.09640983
28	0xbe683110	-0.22674966
29	0x3dff0bdf	0.12453436
30	0xbec362db	-0.38161358
31	0x3d9a6452	0.07538666
32	0x3eab4643	0.33452043
33	0xbe47b9f6	-0.19504532
34	0x3c551647	0.0130058
35	0x3e404fbb	0.18780415
36	0x3e1c7a14	0.15280944
37	0x3e512494	0.2042411
38	0xbe2b520b	-0.16730516
39	0x3e908f2b	0.28234228
40	0xbdfb10ae	-0.12259041
41	0xbef53cc1	-0.47897914
42	0x3df3c935	0.119036116
43	0xbe4aa16f	-0.19788145
44	0x3dec3806	0.11534123
45	0xbeba8a6a	-0.36433727
46	0x3da010d0	0.07815707
47	0x3e281628	0.16414702
48	0xbea40bbe	-0.3204021
49	0x3e6f0fda	0.2334589
50	0x3e3a35cb	0.18184583
51	0xbcc70064	-0.024292178
52	0x3e3df549	0.185506
53	0xbdf66666	-0.1203125

c1.5.bias f4 [3]
0	0xbc00e50e	-0.007867111
1	0xbc36da32	-0.01116042
2	0xbc26c6e1	-0.010179252

d1.0.weight f4 [200, 192]
0	0x3eccd8dd	0.40009204
1	0xbec3328e	-0.38124508
2	0xbdf2c4b3	-0.11853924
3	0x3d99c421	0.07508112
4	0x3f0a30af	0.53980535
5	0x3e80d29b	0.2516068
6	0x3ea66988	0.3250239
7	0x3ed052c0	0.40688133
8	0x3d8c2e02	0.06844713
9	0xbee3766a	-0.4442628
10	0x3e800e45	0.25010887
11	0xbe186755	-0.14883168
12	0x3e981ebf	0.29710957
13	0x3eefb2e7	0.4681618
14	0x3dbcbf1a	0.09216137
15	0x3e4a9539	0.19783486
16	0xbec6b837	-0.3881242
17	0xbe1cb6d8	-0.15304124
18	0x3cc9074f	0.024539618
19	0x3db59643	0.08866551
20	0x3dfa6cbe	0.12227772
21	0x3c5e65bd	0.013574061
22	0xbe661739	-0.22469796
23	0x3ca3a4e5	0.019976089
24	0xbf214366	-0.62993467
25	0xbebafd13	-0.36521205
26	0xbd22e623	-0.039770257
27	0xbedfaadb	-0.4368504
28	0xbed72aaf	-0.42024752
29	0xbf305b03	-0.6888887
30	0xbe30a92f	-0.17252038
31	0xbe9de313	-0.30837306
32	0xbd167fbb	-0.036742907
33	0xbd25c0f6	-0.040467225
34	0xbebae586	-0.36503237
35	0xbd1ee2d2	-0.03879053
36	0xbcaeb8f5	-0.021328429
37	0xbf2bc1ca	-0.67092574
38	0xbe7c76b3	-0.24654655
39	0xbdf18aeb	-0.117940746
40	0xbeaceb8d	-0.3377346
41	0xbed208de	-0.4102239
42	0xbeedcbca	-0.4644454
43	0xbebbeac7	-0.36702558
44	0xbda2763a	-0.07932706
45	0xbbfa6411	-0.0076413234
46	0xbf186e5c	-0.59543395
47	0xbdfcf1d6	-0.12350814
48	0xbd77a673	-0.060461473
49	0x3c68fdd6	0.014220675
50	0xbe377382	-0.17915156
51	0xbe8ef952	-0.2792459
52	0xbeece7c4	-0.46270573
53	0xbcbadd99	-0.022810744
54	0x3d9a5fd7	0.07537811
55	0x3d40ff0b	0.047118228
56	0xbe9c1be3	-0.30490026
57	0x3e92f509	0.28702572
58	0x3e814d65	0.2525436
59	0xbde8403a	-0.11340375
60	0x3c94aae4	0.018147893
61	0xbbb85cac	-0.0056262817
62	0xbd977881	-0.07396031
63	0x3ec97107	0.39344046
64	0x3d8d20d7	0.06891029
65	0x3d4ff804	0.050773636
66	0xbec5e760	-0.38653088
67	0xbe82b4bd	-0.25528517
68	0x3e287bec	0.16453522
69	0x3edb5589	0.42838696
70	0xbe9f36ea	-0.31096584
71	0x3f1fb33e	0.62382877
72	0xbe690962	-0.22757486
73	0xbe392a37	-0.1808251
74	0xbc830adf	-0.015996395
75	0xbe3bbf88	-0.18334782
76	0x3f0a37c5	0.5399135
77	0xbe7fe6c6	-0.24990377
78	0xbd2a4085	-0.041565437
79	0x3e8e389b	0.27777562
80	0xbe705c22	-0.23472646
81	0xbe5716e1	-0.21004821
82	0xbf02830d	-0.5098122
83	0xbe4da913	-0.20084028
84	0xbe271697	-0.16317211
85	0xbf1817a9	-0.594111
86	0x3d01b415	0.03166588
87	0x3de1cec3	0.11025765
88	0x3dbfcc59	0.09365148
89	0xbe6a4e2f	-0.22881387
90	0xbf07df67	-0.5307526
91	0xbdc72f8a	-0.09725864
92	0xbeebc108	-0.4604571
93	0xbdd4b4f6	-0.10386078
94	0xbe26fec7	-0.16308127
95	0xbf2d9ac2	-0.67814267
96	0x3cbc476d	0.022983277
97	0xbf1081ea	-0.56448233
98	0xbf31adcb	-0.6940581
99	0xbe82f766	-0.25579375
100	0xbd965f69	-0.07342417
101	0xbe897bbb	-0.2685221
102	0xbf2871e2	-0.6579877
103	0x3e45da6c	0.19321603
104	0xbf4729e3	-0.7779829
105	0x3cd9e7fd	0.026599878
106	0xbe6829d4	-0.22672206
107	0xbe4997f0	-0.19686866
108	0x3e77ad10	0.24187112
109	0xbe2ab0ad	-0.16668959
110	0xbdd6a639	-0.10480923
111	0x3e47a07e	0.19494817
112	0xbe9452a3	-0.28969297
113	0x3d53ff2c	0.051757023
114	0xbe4fe82b	-0.20303409
115	0x3cee6392	0.029100213
116	0xbe5c75a0	-0.21529245
117	0xbf092f17	-0.5358748
118	0x3e8ad731	0.27117303
119	0x3e11950a	0.1421701
120	0xbd8744b0	-0.06604898
121	0x3cab87c1	0.020938756
122	0xbd103431	-0.035206024
123	0x3e9a1587	0.3009455
124	0xbd7563e8	-0.05990973
125	0xbc9d4f3c	-0.019202821
126	0x3ea1bb30	0.31588125
127	0xbe5f9c20	-0.218369
128	0xbe818771	-0.25298646
129	0xbecfc175	-0.40577284
130	0xbd6549b1	-0.05597848
131	0x3e7f6156	0.24939474
132	0xbd17cfb7	-0.037063327
133	0x3e84b592	0.25919777
134	0x3e1d43dc	0.15357918
135	0xbedbf939	-0.4296358
136	0xbd2bab74	-0.041911557
137	0xbe882091	-0.26587346
138	0xbc2aea3e	-0.010431824
139	0x3e93591b	0.2877892
140	0x3e457265	0.1928192
141	0x3e8d1a58	0.2755916
142	0xbee321b2	-0.44361645
143	0x3e68e34e	0.2274296
144	0xbde9115d	-0.11380265
145	0xbdd79ec8	-0.10528332
146	0x3dfea5e3	0.12433984
147	0xbe836ee8	-0.25670552
148	0x3e68d213	0.22736387
149	0xbee242d4	-0.4419161
150	0xbeb49925	-0.3527309
151	0x3e0b1894	0.13583595
152	0xbe8eb6a8	-0.2787373
153	0x3ee21c51	0.4416223
154	0xbec720c1	-0.38892177
155	0xbe901f18	-0.28148723
156	0xbe917e0c	-0.2841648
157	0xbf00da09	-0.50332695
158	0x3dec8ad4	0.11549917
159	0xbebf7387	-0.37392828
160	0x3ea37f47	0.31933042
161	0xbe1ab871	-0.15109421
162	0xbefed7e1	-0.49774078
163	0xbe054700	-0.13015366
164	0xbf372764	-0.7154448
165	0xbde75b13	-0.11296668
166	0xbe8644b3	-0.26224288
167	0xbdf80c46	-0.12111716
168	0x3d9affc0	0.07568312
169	0xbf4ed618	-0.8079543
170	0x3d1be1f6	0.03805729
171	0xbf0d2686	-0.5513691
172	0xbdaaf497	-0.08347433
173	0x3d8c7960	0.06859088
174	0xbf12c695	-0.5733426
175	0x3e48e2d3	0.19617777
176	0xbe9b4620	-0.3032694
177	0xbd759738	-0.059958667
178	0xbf1d5653	-0.61459845
179	0x3d5a1071	0.053238336
180	0x3ec7cbb1	0.39022592
181	0xbdd049cf	-0.10170328
182	0xbead2905	-0.33820358
183	0x3e1271fb	0.14301293
184	0xbefc20c1	-0.4924374
185	0x3c92d793	0.01792506
186	0xbeaa3df8	-0.33250403
187	0x3c55d410	0.013051048
188	0x3d7b530b	0.061358493
189	0xbb396a7e	-0.0028292234
190	0x3ef5edf2	0.480331
191	0x3e5fe1eb	0.21863525
192	0x3e2dc55a	0.16969815
193	0xbea6abeb	-0.32553038
194	0xbc044a22	-0.008074315
195	0x3dd4875d	0.10377381
196	0x3d983e1c	0.074337214
197	0x3d13e134	0.036103442
198	0x3cd03bdc	0.025419168
199	0xbeaffa5c	-0.34370697
200	0xbed130ca	-0.40857536
201	0xbd7c4184	-0.061585918
202	0xbea46034	-0.32104647
203	0xbc3dcdca	-0.0115847085
204	0xbe98f5a3	-0.29874906
205	0x3e3a8a39	0.1821679
206	0xbf1a0c76	-0.60175264
207	0x3e97252d	0.2952055
208	0xbe190339	-0.14942636
209	0x3ebd5e19	0.36985853
210	0x3ec58b41	0.38582805
211	0xbf2f1f33	-0.6840698
212	0x3e4c3cab	0.19945018
213	0xbdfdf86b	-0.124008976
214	0xbe19f18f	-0.15033554
215	0xbe62535a	-0.22102109
216	0xbe40b213	-0.1881793
217	0xbd9740a5	-0.07385377
218	0xbec0bfe4	-0.376464
219	0x3d920717	0.071302585
220	0xbdb9877d	-0.090590455
221	0xbd1a0257	-0.037599888
222	0xbe653aff	-0.22385786
223	0x3eabb239	0.3353441
224	0xbeb20a45	-0.3477346
225	0xbd3a5dcd	-0.04549961
226	0xbe9d11bb	-0.3067759
227	0xbe016754	-0.12637073
228	0x3f33560f	0.7005319
229	0xbe1e7b6b	-0.15476768
230	0x3ee28ff0	0.4425044
231	0xbe49899e	-0.19681403
232	0x3c2212c1	0.009892167
233	0xbd38a994	-0.045083597
234	0xbc8cd7a1	-0.017192664
235	0x3e98e933	0.29865417
236	0xbf1abc85	-0.6044391
237	0xbeb93200	-0.3617096
238	0x3e10f4f5	0.14155944
239	0xbee144c7	-0.43997785
240	0x3d8eb417	0.06967943
241	0xbe5ce54f	-0.2157185
242	0xbf08683f	-0.53284067
243	0xbe93f13c	-0.28894985
244	0xbe702934	-0.23453218
245	0x3e2b3d75	0.16722663
246	0xbf031d4a	-0.51216567
247	0x3e248919	0.16067924
248	0x3df0e677	0.11762708
249	0x3e737f44	0.23779017
250	0xbe99626a	-0.29957896
251	0xbf1d0e9d	-0.61350423
252	0xbe377e3f	-0.17919253
253	0x3e3956af	0.18099473
254	0xbe34c24c	-0.17652243
255	0xbe9487b7	-0.29009792

d1.0.bias f4 [200]
0	0xbcdc236c	-0.02687236
1	0x3b5baacf	0.0033518558
2	0x3d42d803	0.047569286
3	0x3de66e90	0.11251557
4	0xbd1fd9ef	-0.039026197
5	0x3cd94c92	0.02652577
6	0xbd6fa2c4	-0.058504835
7	0x3de54a35	0.111957945
8	0x3e0ff3d0	0.14057851
9	0xbe7e6c5f	-0.24846028
10	0xb98f70a4	-0.0002735901
11	0x3d8f6eb3	0.07003536
12	0xbbe81745	-0.007082852
13	0xbcdc28d6	-0.02687494
14	0x3c608533	0.013703632
15	0x3b91bf7d	0.004447876
16	0x3de09630	0.10966146
17	0x3ddb5715	0.10709969
18	0x3e31dd4e	0.17369577
19	0x3d081719	0.033225153
20	0xbc08f1af	-0.008358403
21	0x3e83fbf5	0.25778165
22	0x3de90586	0.11378007
23	0x3e26b39e	0.16279456
24	0x3dbbb529	0.09165413
25	0xbed6124e	-0.4181084
26	0x3dba18d7	0.09086769
27	0xbf3a5eab	-0.728007
28	0xbd8c4e04	-0.06850818
29	0x3d091acd	0.033472825
30	0x3d7ef676	0.062246762
31	0xbd34bdcc	-0.044126317
32	0xbd030b2d	-0.03199308
33	0x3e06df47	0.13171111
34	0xbc62e6e3	-0.013848993
35	0xbd161d47	-0.036649015
36	0x3e4afc8b	0.198229
37	0x3e5e29b6	0.21695599
38	0x3d9b2d5f	0.07577013
39	0xbd056d1b	-0.032574754
40	0xbd86bd0d	-0.06579027
41	0xbd841027	-0.06448393
42	0x3d1dfca6	0.038571022
43	0x3e1c2196	0.15247187
44	0x3d21632d	0.039401222
45	0x3e1d40a6	0.15356693
46	0xbe2ae290	-0.16687989
47	0xbd917335	-0.07102052
48	0x3db28317	0.0871641
49	0xbd5bd81f	-0.053672906
50	0x3e4bf5c0	0.19917965
51	0xbc4e62b0	-0.012596771
52	0x3d9239e2	0.071399465
53	0xbd407836	-0.046989642
54	0xbc8afcdb	-0.016966274
55	0xbcf1bd69	-0.029509263
56	0xbdf40365	-0.1191471
57	0x3c793dd8	0.015212499
58	0xbd6f73dc	-0.0584601
59	0xbcf76f55	-0.030204454
60	0xbd64db9a	-0.05587349
61	0xbe8a9506	-0.2706682
62	0x3da5cdbb	0.080958806
63	0x3e0baadc	0.13639396
64	0x3c915577	0.017740948
65	0x3e11a38c	0.14222544
66	0x3e0e2ccf	0.1388428
67	0x3d13f3c2	0.036121137
68	0x3da79e5e	0.08184503
69	0xbd50e9f2	-0.051004358
70	0xbd2473f8	-0.04014966
71	0xbd0484c9	-0.032353196
72	0xbdbfac94	-0.093590885
73	0xbd1a5029	-0.037674103
74	0xbd417f6e	-0.047240667
75	0x3d73e1c0	0.059541464
76	0x3e1e6a0c	0.15470141
77	0x3c218abd	0.009859738
78	0x3e373e66	0.17894897
79	0xbd937ba2	-0.072013155
80	0xbc69e013	-0.014274615
81	0x3d331fe8	0.0437316
82	0x3df8c863	0.12147596
83	0xbd54492b	-0.05182759
84	0xbf062b21	-0.5240956
85	0x3b989770	0.0046567246
86	0xbca4f72a	-0.020137388
87	0x3d16a578	0.036778897
88	0x3cecdd0d	0.028913999
89	0x3e1289a4	0.14310318
90	0xbd58ca1e	-0.05292713
91	0xbdc514ec	-0.09623131
92	0x3ddd0b72	0.10793199
93	0xbd447cdc	-0.047970638
94	0x3e2ee0be	0.1707792
95	0xbd9fc7ac	-0.07801756
96	0xbd20f3e6	-0.0392951
97	0xbf86b745	-1.052468
98	0x3d2210b3	0.039566707
99	0xbd9711c6	-0.07376437
100	0x3e041f1e	0.12902495
101	0x3da29831	0.079391845
102	0x3dc1fbb8	0.0947184
103	0xbd82c04e	-0.063843355
104	0x3e241a80	0.16025734
105	0x3d21e532	0.03952522
106	0x3dad583f	0.08464097
107	0x3d9f1e57	0.07769459
108	0x3d83dd69	0.06438715
109	0x3e4cf0cb	0.2001373
110	0x3e2a8e61	0.16655876
111	0x3c4cb20e	0.012493623
112	0x3d646ed1	0.055769745
113	0x3d884d9f	0.0665543
114	0x3d1cb2e9	0.03825656
115	0xbc7e6618	-0.015527271
116	0x3d90a906	0.07063489
117	0x3e4b77d3	0.19869928
118	0x3da54030	0.080688834
119	0x3d812e1f	0.06307625
120	0x3dbaf282	0.09128286
121	0x3d0a46d7	0.033758964
122	0xbda65135	-0.08120958
123	0xbc24c99f	-0.010057836
124	0xbdad85f0	-0.08472812
125	0x3e160808	0.14651501
126	0x3e1a2b39	0.1505555
127	0x3cc6bff8	0.02426146
128	0x3d2e73af	0.042590793
129	0x3d134bc7	0.03596094
130	0xbccacbbe	-0.024755355
131	0x3e1d1536	0.15340123
132	0x3e12f346	0.14350614
133	0x3e0adb69	0.13560261
134	0x3d8a4606	0.06751637
135	0x3e108042	0.14111426
136	0xbd30bc73	-0.04314847
137	0xbc456f68	-0.012050487
138	0xbd524fec	-0.05134575
139	0x3d963eb6	0.0733618
140	0xbde351cf	-0.11099588
141	0xbbaab89b	-0.005209995
142	0xbe4bb682	-0.1989384
143	0xbdb2b81c	-0.08726522
144	0xbd733d15	-0.059384424
145	0x3dd7ba19	0.10533542
146	0x3ddd36a5	0.10801438
147	0x3d935769	0.071944065
148	0x3d13d3cf	0.03609067
149	0xbde0d6bf	-0.109784596
150	0x3ccbe8b7	0.02489124
151	0x3d0110e4	0.03151025
152	0xbb337c41	-0.0027387294
153	0xbeabd652	-0.3356195
154	0x3cbc3002	0.02297211
155	0xbda87b0a	-0.08226593
156	0xbdcc3bc0	-0.09972334
157	0xbd56fa43	-0.052484762
158	0xbcdc1ea7	-0.026870085
159	0x3dd8a0f1	0.10577572
160	0x3d96914f	0.07351934
161	0x3b9c8d13	0.0047775595
162	0xbd1339bc	-0.03594373
163	0xbcaf2f54	-0.021384872
164	0x3dbe6b93	0.09297862
165	0xbf2a10d7	-0.66431946
166	0xbee71478	-0.45132804
167	0x3dc91905	0.09819225
168	0xbd848703	-0.06471064
169	0x3d0b779e	0.034049623
170	0x3bec7546	0.0072161285
171	0x3e1dd635	0.15413745
172	0xbd78b7ad	-0.060722042
173	0x3e25a444	0.16175944
174	0x3d9897aa	0.074508026
175	0xbcd33e3d	-0.025786513
176	0x3c543f8a	0.012954602
177	0x3d6e14d6	0.05812534
178	0x3c503bab	0.012709538
179	0x3dcca212	0.0999185
180	0x3e253afc	0.16135782
181	0x3e321c84	0.1739369
182	0x3e29b747	0.16573821
183	0x3c2ff424	0.01073936
184	0xbb62e62b	-0.0034622054
185	0x3d532660	0.05155027
186	0x3e4ac298	0.19800794
187	0xbd92b3ea	-0.07163222
188	0x3e3e2f30	0.18572688
189	0x3e8be78d	0.27325097
190	0xbceaddf3	-0.028670287
191	0x3cc86b68	0.024465278
192	0xbcdf86ac	-0.027285896
193	0x3e23ed98	0.16008604
194	0xbd4e86a8	-0.050421387
195	0x3cd70070	0.026245326
196	0xbef9cd12	-0.4878927
197	0x3e568047	0.20947371
198	0xbf2417fe	-0.6409911
199	0x3e0091d3	0.12555628

d1.2.weight f4 [100, 200]
0	0xbe2736f3	-0.16329555
1	0x3e7a57b2	0.24447516
2	0x3de9f08f	0.11422836
3	0xbedecc2b	-0.43515143
4	0xbe2e79c7	-0.17038642
5	0x3abf28f8	0.0014584353
6	0x3daaece6	0.08345966
7	0xbcbb0a10	-0.022831947
8	0xbe82e9d2	-0.25569016
9	0x3cbf325e	0.023339447
10	0xbebf7731	-0.37395623
11	0x3ccd39e1	0.025052013
12	0xbb6bb257	-0.0035964453
13	0x3d0c76e5	0.034293074
14	0xbe9a05f3	-0.30082664
15	0x3ed4b3b2	0.41543347
16	0x3e9462df	0.28981683
17	0xbce84574	-0.02835343
18	0x3d3c4586	0.04596474
19	0xbe9921af	-0.2990851
20	0x3ec70127	0.38868067
21	0x3eb2cf26	0.34923667
22	0x3e621f5a	0.22082272
23	0x3de845d1	0.113414414
24	0x3e1ad15a	0.15118924
25	0xbe941320	-0.2892084
26	0x3e923949	0.2855933
27	0xbe259e38	-0.16173637
28	0x3e5604ab	0.20900218
29	0x3d503fce	0.0508421
30	0xbd44d1d8	-0.048051685
31	0xbdf873fa	-0.12131496
32	0x3c22af0a	0.009929428
33	0x3dd5129f	0.10403942
34	0xbd5357a1	-0.05159724
35	0x3e3f2084	0.18664747
36	0xbe874912	-0.26422936
37	0x3d87631f	0.06610703
38	0xbe406521	-0.18788578
39	0xbcc6e980	-0.024281263
40	0x3cd351e0	0.025795877
41	0xbdd36d26	-0.10323553
42	0xbc9d4a4c	-0.019200467
43	0xbe96974b	-0.29412302
44	0x3e537f33	0.20653991
45	0xbe60f351	-0.21967818
46	0x3c66e951	0.014093713
47	0x3daa25e4	0.08308008
48	0xbe7af118	-0.24506032
49	0xbdbd881e	-0.09254478
50	0x3c943789	0.018092887
51	0xbe47b60f	-0.19503044
52	0x3e792995	0.24332269
53	0xbc8c845b	-0.017152956
54	0x3e450a41	0.19242193
55	0xbd624878	-0.055244893
56	0x3c8e3ecc	0.017363928
57	0xbe3a101b	-0.18170206
58	0x3d07c195	0.0331436
59	0xbce0ffa8	-0.027465656
60	0x3de0ef06	0.1098309
61	0xbe96c68f	-0.29448363
62	0xbd73b04f	-0.059494313
63	0xbee36838	-0.4441545
64	0x3d293d14	0.041318014
65	0x3e506598	0.20351255
66	0xbe87c29f	-0.26515672
67	0xbeab91c2	-0.33509642
68	0x3d9505d7	0.072765045
69	0xbe2bb8df	-0.16769741
70	0x3e9977f2	0.29974324
71	0xbd7209f3	-0.05909152
72	0x3e5335c9	0.20625986
73	0xbec636d1	-0.38713697
74	0x3d4f2944	0.050576463
75	0xbdcf6137	-0.10125964
76	0xbe94cd17	-0.2906272
77	0xbb43bafa	-0.0029866085
78	0xbcdcc6d6	-0.026950281
79	0xbd9a2d9a	-0.07528229
80	0x3eb83784	0.35979855
81	0xbd8c7fff	-0.06860351
82	0xbee55c94	-0.44797194
83	0xbd6c47bb	-0.057685595
84	0x3e3b3155	0.18280537
85	0x3a6db67d	0.00090680254
86	0xbea256ef	-0.3170695
87	0xbc85e5ec	-0.016344987
88	0xbd5bc58d	-0.053655196
89	0xbea4fec6	-0.32225627
90	0xbde8617b	-0.11346718
91	0x3e5b4b44	0.2141543
92	0xbe1f4e34	-0.15557176
93	0x3e327eb9	0.17431153
94	0xbeb8d73e	-0.36101717
95	0x3ce6aa83	0.028157478
96	0xbe7255d1	-0.23665549
97	0xbe082e18	-0.13298833
98	0x3de8deb4	0.11370602
99	0xbde338f8	-0.1109485
100	0xbe900dc6	-0.28135508
101	0xbd577940	-0.052605867
102	0xbe0dad01	-0.13835527
103	0x3dbf913b	0.093538724
104	0x3d7c3ba2	0.061580308
105	0xbd49e496	-0.049290262
106	0x3ddd9e2f	0.10821187
107	0x3e814210	0.25245714
108	0xbf2b2c9f	-0.6686496
109	0xbd21e31c	-0.03952323
110	0x3bb9ece6	0.0056739924
111	0x3d14d687	0.0363374
112	0xbe86a9ca	-0.26301414
113	0xbe9fac74	-0.3118626
114	0xbeed1c90	-0.46310854
115	0x3e08ffd7	0.13378845
116	0xbd377a26	-0.044794224
117	0xbe91e26b	-0.28493056
118	0xbec6044a	-0.38675147
119	0xbb6c5ae9	-0.003606493
120	0xbf47fae3	-0.781172
121	0xbe1103cd	-0.14161606
122	0xbd6cbe9f	-0.057798978
123	0x3ecf9f80	0.40551376
124	0x3ea3ca96	0.31990498
125	0xbe0d5f52	-0.13805893
126	0xbe55800c	-0.20849627
127	0xbdf59a28	-0.119922936
128	0x3e9084d9	0.28226355
129	0xbe56f294	-0.20990974
130	0xbe22ce8f	-0.15899108
131	0xbf30e050	-0.69092274
132	0xbf00a7cd	-0.50256044
133	0xbf21fda3	-0.63277644
134	0xbdf34524	-0.11878422
135	0x3d81cd4f	0.06337988
136	0xbe190961	-0.14944984
137	0x3e1e1706	0.1543847
138	0xbe9d8db5	-0.30772176
139	0xbd4ef683	-0.05052806
140	0xbe283188	-0.16425145
141	0x3d991c3e	0.0747609
142	0x3daf2c60	0.08553386
143	0x3d8c5501	0.06852151
144	0xbe4a7e24	-0.19774681
145	0xbe1cdeec	-0.15319413
146	0xbe87d9a1	-0.26533225
147	0xbecf9775	-0.4054524
148	0xbd4bcfab	-0.049758594
149	0x3d8633a7	0.06552821
150	0x3daada37	0.083424024
151	0x3ea09a4a	0.31367713
152	0x3e20a9df	0.156898
153	0xbe6e39bf	-0.23264216
154	0xbd243c73	-0.04009671
155	0xbd2ed75c	-0.04268585
156	0xbe962f5a	-0.29333
157	0xbe11a4e9	-0.14223064
158	0xbe391fc3	-0.18078522
159	0x3df31532	0.11869277
160	0xbeaaea48	-0.33381867
161	0x3eca819e	0.39552015
162	0xbd1efcca	-0.038815297
163	0x3daaa00d	0.083313085
164	0xbe8a8e6a	-0.27061778
165	0xbe3cf617	-0.18453251
166	0xbe8b6f99	-0.2723358
167	0x3e415e0f	0.18883537
168	0xbdd02a05	-0.101642646
169	0xbeb02c0f	-0.34408614
170	0x3edf3e4c	0.43602216
171	0xbded2ef4	-0.11581221
172	0x3e025383	0.1272717
173	0xbd78c19d	-0.06073152
174	0xbe94cccf	-0.29062507
175	0xbefe875e	-0.49712652
176	0x3d2acde0	0.041700244
177	0xbdfd634c	-0.12372455
178	0xbea4e9c3	-0.32209596
179	0x3e3d6f4c	0.18499488
180	0xbe5c3991	-0.21506335
181	0xbee39522	-0.44449717
182	0xbea48c4b	-0.32138285
183	0x3e2551c1	0.16144468
184	0x3da8be2f	0.082394
185	0x3ef92d26	0.48667258
186	0xbeb0a004	-0.34497082
187	0xbd86e434	-0.06586495
188	0x3e593195	0.2121032
189	0x3e314167	0.17310105
190	0x3e583b51	0.21116377
191	0xbef4d5ec	-0.4781946
192	0x3e047504	0.12935263
193	0x3e82d384	0.25552
194	0xbe40d27f	-0.18830298
195	0x3e4901d6	0.19629607
196	0x3dd22a21	0.10261942
197	0x3d46ea54	0.048563316
198	0xbdcc9093	-0.09988513
199	0xbe53c657	-0.2068113
200	0x3e9c262c	0.30497873
201	0xbb92a13f	-0.0044747884
202	0xbdde2122	-0.10846163
203	0x3db282b6	0.087163374
204	0xbe3a8172	-0.18213442
205	0x3e8bf4eb	0.27335295
206	0x3da8ecca	0.08248289
207	0xbf1538a0	-0.5828953
208	0x3d9e6292	0.077336445
209	0x3c869c64	0.016431995
210	0xbdea4170	-0.114382625
211	0xbefa5710	-0.48894548
212	0x3e1b49fb	0.1516494
213	0x3d1e786e	0.03868907
214	0x3bc9879f	0.0061502005
215	0x3d9ffa32	0.07811393
216	0x3bd6fab4	0.006560648
217	0xbd0e30e8	-0.03471461
218	0x3d35e19f	0.044404622
219	0xbdceb87f	-0.100937836
220	0x3e133f99	0.1437973
221	0xbd55a974	-0.052163556
222	0x3de4ede6	0.11178188
223	0xb8904b50	-6.880483e-05
224	0xbdbc6d61	-0.0920055
225	0xbeb21098	-0.34778285
226	0xbd21e136	-0.03952142
227	0xbe5089c1	-0.20365049
228	0x3e03df54	0.12878162
229	0x3dca3612	0.09873594
230	0x3dbd8518	0.09253901
231	0xbd6daa73	-0.05802388
232	0xbe471964	-0.1944328
233	0xbee26ec2	-0.44225127
234	0x3e03b11d	0.12860532
235	0x3e3142b0	0.17310596
236	0x3d45e024	0.04830946
237	0xbe1e2dec	-0.15447205
238	0x3da28026	0.079345986
239	0xbdef1663	-0.11674192
240	0xbd86a907	-0.06575208
241	0xbd9d340a	-0.07675941
242	0x3d35fd26	0.044430874
243	0x3e99dc96	0.30051106
244	0x3c9d9749	0.019237177
245	0xbf411289	-0.7541891
246	0xbdde18fc	-0.10844609
247	0x3e03d958	0.12875879
248	0x3e1d0277	0.15332972
249	0x3d3ebac9	0.04656485
250	0xbe10af17	-0.14129291
251	0x3c37a504	0.011208776
252	0x3eb02bdf	0.3440847
253	0x3eb1210f	0.34595534
254	0x3ded98e1	0.11601425
255	0xbe31b746	-0.1735507

d1.2.bias f4 [100]
0	0x3f05673e	0.5211066
1	0x3e947d17	0.29001686
2	0xbe915d36	-0.28391427
3	0x3ef7b194	0.4837767
4	0x3eb607c2	0.35552794
5	0x3ecd71c6	0.40125865
6	0xbeb38cda	-0.350684
7	0x3e850101	0.25977328
8	0xbe99dcbe	-0.30051225
9	0xbe5d573a	-0.21615306
10	0x3e690083	0.22754101
11	0x3f11a5df	0.56893724
12	0x3ea2b9ac	0.3178228
13	0x3ea401fa	0.32032758
14	0x3eab6436	0.33474892
15	0x3ec0440f	0.37551925
16	0x3f18d2c4	0.596966
17	0x3efe0cca	0.49619132
18	0x3eb57621	0.35441688
19	0x3e80cdd0	0.25157022
20	0x3d8f8ca5	0.07009248
21	0x3decdd70	0.11565673
22	0x3ef755b5	0.48307577
23	0xbf00b8bc	-0.5028188
24	0x3f01677c	0.5054853
25	0xbea50285	-0.32228485
26	0x3f0fbebe	0.56150424
27	0x3ef206dc	0.47270858
28	0xbec520d6	-0.38501614
29	0x3eefd5bf	0.46842763
30	0x3f049ce9	0.51801926
31	0xbdfb81d6	-0.122806236
32	0xbd898fbf	-0.067168705
33	0xbf0b5ac0	-0.5443535
34	0xbf3667f8	-0.71252394
35	0x3e62b0b0	0.22137713
36	0x3f1224e1	0.5708752
37	0xbee6fc30	-0.4511428
38	0xbf3a1b31	-0.7269774
39	0x3eb2c20e	0.34913677
40	0xbf5f380f	-0.87194914
41	0x3d0a6ebb	0.033797007
42	0x3dd13d97	0.102168255
43	0x3eba4c0c	0.36386144
44	0xbf0097d9	-0.502317
45	0x3e94ab23	0.29036817
46	0x3e2144a1	0.15748836
47	0x3edd420d	0.43214455
48	0x3f0d6bca	0.552426
49	0xbeab88d3	-0.33502826
50	0xbd68c7db	-0.056831222
51	0x3f0dfd4e	0.5546464
52	0x3ea9bb0f	0.33150527
53	0x3eebf85f	0.4608793
54	0x3ef96201	0.48707584
55	0x3e919ef3	0.2844158
56	0x3eca0da4	0.39463532
57	0xbeae26fd	-0.3401412
58	0x3da0fe9b	0.07861062
59	0x3e9af2cd	0.30263367
60	0x3ec2ddd8	0.38059878
61	0xbdf8cdc0	-0.12148619
62	0xbef3a6a4	-0.47588074
63	0x3eee1840	0.46502876
64	0xbe5bd9c2	-0.21469787
65	0xbef3b8f4	-0.47602046
66	0xbf0dd3b0	-0.55401134
67	0x3e9a55cb	0.3014358
68	0x3ec4b3ae	0.38418335
69	0x3e955c89	0.2917216
70	0x3eabe471	0.33572724
71	0xbe652d99	-0.22380675
72	0xbe3cf2cf	-0.18451999
73	0x3eadddc1	0.33958247
74	0x3e9e7fc8	0.30956864
75	0x3ebe53aa	0.37173206
76	0x3edf7bf5	0.4364926
77	0xbeb3babb	-0.35103402
78	0x3ed5935d	0.41713992
79	0x3e27c939	0.16385354
80	0xbd49219b	-0.049104314
81	0x3e4bc394	0.19898826
82	0x3e521726	0.20516643
83	0x3d5bb191	0.053636137
84	0x3ec3dd72	0.38254887
85	0xbea7d8b0	-0.32782507
86	0xbf06da8c	-0.52677226
87	0x3f00106e	0.5002507
88	0x3e0abd03	0.13548665
89	0xbe9b4ff9	-0.30334452
90	0xbea15092	-0.31506783
91	0x3bd1f1ba	0.00640699
92	0x3ef50d2f	0.4786162
93	0xbeb34a4e	-0.35017627
94	0xbea98c56	-0.3311488
95	0x3f0caa66	0.5494751
96	0x3ec33d98	0.3813293
97	0x3e8770ec	0.2645334
98	0x3ef82088	0.4846232
99	0x3f02035f	0.50786394

d1.5.weight f4 [4, 100]
0	0xbd3d593c	-0.04622768
1	0xbb7d97b9	-0.003869517
2	0x3c9663ae	0.018358078
3	0xbe2375bc	-0.15962881
4	0xbac02a93	-0.0014661126
5	0xbb9fe3f5	-0.0048794695
6	0x3acf189f	0.0015800184
7	0xbc16e2d1	-0.009209351
8	0x3d251ea5	0.040312428
9	0x3cf76d5d	0.030203516
10	0x3b679d30	0.0035341494
11	0x3d0258a1	0.031822804
12	0xbd058bdd	-0.032604087
13	0x3c50646e	0.012719257
14	0xbc930259	-0.017945455
15	0xbc4bf189	-0.012447723
16	0x3d01a1be	0.03164839
17	0xbe2b872d	-0.16750784
18	0xbd5134a2	-0.051075585
19	0x3c180968	0.009279586
20	0x3c78cd7d	0.015185711
21	0x3c1ecef4	0.009692896
22	0xbe57a5a7	-0.21059285
23	0xbc3dc076	-0.011581531
24	0xbe481495	-0.19539101
25	0x3acc4b52	0.0015586412
26	0xbe374dd3	-0.17900781
27	0x3be023a4	0.006840186
28	0x3ca6fafa	0.020383347
29	0xbabdd9aa	-0.0014484425
30	0xbe48e365	-0.19617994
31	0x3c463073	0.012096512
32	0x3d158a8d	0.036509085
33	0x3aae1975	0.0013282733
34	0x3e0e6098	0.13904035
35	0xbd54b63b	-0.0519316
36	0x3d12e762	0.035865195
37	0x3d9da161	0.07696796
38	0x3e27ba53	0.16379671
39	0x3d41ad7e	0.047284596
40	0x3e006384	0.12537962
41	0x3c99d121	0.018776478
42	0x3c10b739	0.008832746
43	0x3aa9885f	0.0012934319
44	0x3c8aff7c	0.016967528
45	0x3b74ac05	0.0037333977
46	0x3c01023c	0.007874068
47	0xbc2319f2	-0.009954916
48	0x3ce6d839	0.028179275
49	0xba4014c5	-0.00073273137
50	0x3d3efeaf	0.046629604
51	0x3c9a9d0d	0.018873716
52	0x3c6e00a4	0.01452652
53	0x3d2040b6	0.039124213
54	0xbe4d1494	-0.20027381
55	0xbc75f84e	-0.015012814
56	0x3ab2864f	0.0013620349
57	0x3d99b695	0.07505528
58	0x3d0ffc97	0.035152998
59	0xbcef8a85	-0.029240856
60	0xbc0c3191	-0.008556739
61	0xbcdf615b	-0.027268102
62	0xbc3851be	-0.011249958
63	0x3b51c037	0.0032005438
64	0x3d8bdd83	0.068293594
65	0x3c822da4	0.015890904
66	0x3c5e954f	0.013585403
67	0xbe429ee0	-0.19005919
68	0x3d1b2586	0.037877582
69	0xbc567d44	-0.013091389
70	0xbc96e703	-0.018420702
71	0x3b85ba89	0.0040810746
72	0x3c8e8a77	0.01740001
73	0xbe34095e	-0.17581698
74	0xbe1d4a32	-0.15360335
75	0x3c17c822	0.009264024
76	0x3cfd2b92	0.030904565
77	0x3d95a283	0.07306387
78	0x3c154450	0.009110525
79	0x3b173448	0.0023071934
80	0x3cb951c3	0.022621995
81	0xbc5ac05f	-0.013351529
82	0xbbf67fc5	-0.0075225555
83	0x3cd04129	0.025421696
84	0x3cb0dc63	0.021589464
85	0x3cbf0701	0.02331877
86	0xbbbecd74	-0.0058228318
87	0xbe68d2b4	-0.22736627
88	0x3d692d39	0.056927893
89	0x3d633e43	0.0554793
90	0x3d6173c7	0.055042055
91	0x3c0f94ff	0.008763551
92	0xbc8ef64d	-0.01745143
93	0x3c029e9b	0.007972385
94	0xbb37a661	-0.0028022754
95	0xbe3854cd	-0.18001099
96	0xbc37f5c3	-0.011228028
97	0xbc8080cd	-0.015686417
98	0x3ca51bc4	0.020154841
99	0xbe55f306	-0.20893487
100	0x3e1674f4	0.14693052
101	0xbe06a105	-0.13147362
102	0x3e1b6fbf	0.15179347
103	0x3e097add	0.13425775
104	0x3d3aeab7	0.045633998
105	0x3d1f896a	0.038949408
106	0x3e393b6a	0.18089071
107	0xbe2d56c3	-0.16927628
108	0x3e060dbf	0.13091181
109	0xbdeaddff	-0.11468124
110	0xbe38de91	-0.18053652
111	0x3e0da498	0.13832319
112	0x3d77901b	0.060440164
113	0x3cc63674	0.024195887
114	0xbe20e65a	-0.15712872
115	0x3c964dd5	0.01834766
116	0x3dd61a96	0.104542896
117	0x3d8887e9	0.06666548
118	0x3d493bb3	0.0491292
119	0xbe0dbb2c	-0.13840932
120	0xbe002702	-0.1251488
121	0xbe214bb0	-0.15751529
122	0x3daa49a6	0.083148286
123	0x3e9d4288	0.30714822
124	0x3dbb2e8e	0.09139739
125	0x3dcb64a3	0.09931304
126	0x3dbfb993	0.09361567
127	0x3db41b18	0.0879423
128	0x3e13d665	0.14437254
129	0x3cb2c96b	0.02182456
130	0x3dc7dfe5	0.09759501
131	0x3e7af276	0.24506554
132	0x3d8ab983	0.06773665
133	0x3e6bf7a1	0.23043682
134	0x3e528d56	0.20561728
135	0xbdc4cae5	-0.096090116
136	0x3e19ff34	0.15038759
137	0x3dfd16cc	0.12357864
138	0x3dfe620b	0.12421044
139	0x3e396eca	0.18108669
140	0x3e2739ed	0.1633069
141	0xbddbfd6e	-0.10741697
142	0xbe187ec1	-0.14892103
143	0x3c76ebdb	0.015070881
144	0x3e1dd979	0.1541499
145	0xbe239c76	-0.15977654
146	0xbe294b39	-0.16532601
147	0x3d5c8941	0.053841833
148	0x3e710c7b	0.23539917
149	0x3e8c18be	0.27362627
150	0xbdaaa067	-0.083313756
151	0x3cd56cd6	0.026052874
152	0x3d14d8d7	0.036339607
153	0x3ddef56b	0.108866535
154	0x3d89f029	0.0673526
155	0xbe4c0d6b	-0.19926994
156	0x3dc6c7ce	0.097060785
157	0x3d5ead0f	0.05436426
158	0x3e49b152	0.19696549
159	0xbe588af6	-0.2114676
160	0x3d1c9a79	0.038233254
161	0x3e91677b	0.28399262
162	0x3e629cf3	0.22130184
163	0x3dc317ae	0.09526001
164	0x3de33453	0.110939644
165	0x3e95ba2c	0.292436
166	0x3eb31e07	0.34983847
167	0x3d84f6dd	0.06492398
168	0x3de03586	0.10947709
169	0xbe48cf7d	-0.196104
170	0xbe55cc1c	-0.20878643
171	0x3e643c3f	0.22288607
172	0x3e590386	0.2119275
173	0x3dbe4ccb	0.09291991
174	0x3db2131e	0.086950526
175	0xbe429518	-0.19002187
176	0x3e7efce7	0.24901162
177	0xbd19e9e8	-0.037576586
178	0x3db6f637	0.089336805
179	0xbdff8961	-0.12477375
180	0xbe25e054	-0.16198856
181	0xbe34865d	-0.1762938
182	0xbe1cfcbc	-0.15330786
183	0xbe15bce4	-0.14622837
184	0x3ddd8e5f	0.10818171
185	0x3e28068b	0.16408746
186	0x3e788fe2	0.24273637
187	0x3dd1b862	0.10240246
188	0x3dc8367e	0.097760186
189	0xbd45e395	-0.048312742
190	0xbd15e599	-0.036595915
191	0xbdc35dd1	-0.095393784
192	0x3dd57b97	0.104239635
193	0x3e1b62d1	0.15174414
194	0x3e6a5b3d	0.22886367
195	0x3d7cd4a8	0.061726242
196	0x3d96707d	0.07345674
197	0xbe53fd0c	-0.20701998
198	0x3e4d4435	0.2004555
199	0x3e1a8290	0.15088868
200	0xbd50a942	-0.050942667
201	0xbca7b888	-0.020473734
202	0x3d3968ec	0.045266077
203	0x3d701a3a	0.05861876
204	0x3c49e729	0.012323179
205	0x3d2bc2f9	0.041933987
206	0x3ccbc710	0.024875194
207	0xbbb2da0d	-0.0054581226
208	0x3dcbeec9	0.09957654
209	0x3d90feff	0.07079887
210	0x3d12c2bf	0.035830256
211	0xbe341975	-0.17587836
212	0xbdacb4ec	-0.084329456
213	0x3d26abb0	0.040691078
214	0xbd52f262	-0.051500686
215	0xbe273031	-0.16326977
216	0x3ca45788	0.02006127
217	0x3cd1ec3c	0.02562534
218	0xbd117002	-0.03550721
219	0x3d1e8b3d	0.038707007
220	0x3c616301	0.0137565145
221	0x3c6406e0	0.013917655
222	0x3c04f96a	0.008116106
223	0xbd9ac70d	-0.07557497
224	0x3a9b32ce	0.0011840703
225	0xbc592324	-0.013253007
226	0x3cffb314	0.03121332
227	0xbe871062	-0.26379687
228	0x3ddd3466	0.1080101
229	0xbe66e3c4	-0.22547823
230	0x3d827cde	0.06371473
231	0x3c49e51b	0.012322689
232	0x3d69d52f	0.057088073
233	0xbbb65f79	-0.0055655804
234	0xbe05ee6b	-0.1307923
235	0xbd510ef0	-0.051039636
236	0xbd24c242	-0.04022432
237	0x3da9bb04	0.082876235
238	0xbd40d65b	-0.047079425
239	0x3df7c3f3	0.12097921
240	0xbe1d045c	-0.15333694
241	0x3ca7f2bd	0.020501489
242	0x3d2532ba	0.04033158
243	0x3d118ce1	0.035534743
244	0xbd0883e8	-0.03332892
245	0xbcc97a18	-0.024594352
246	0x3baafdc2	0.0052182386
247	0x3d6c5beb	0.057704847
248	0xbc40c72a	-0.011766234
249	0x3cc97b6a	0.024594981
250	0x3d8221ae	0.0635408
251	0x3d349de8	0.044095904
252	0x3c1ed39f	0.009694009
253	0xbe2667f5	-0.16250594
254	0xbb8f5fc7	-0.004375431
255	0x3c95e046	0.018295418

d1.5.bias f4 [4]
0	0xbf1bee29	-0.6091028
1	0xbfe52384	-1.7901464
2	0xbf752b0a	-0.957688
3	0xbf3842b5	-0.71976787
