netw.pt (torch, 144531 bytes, 12 tensors)

c1.0.weight f4 [3, 2, 3, 3]
00000000: 1aad e5bd 4c11 823d 3c9d 2bbe 82ea 76bf
00000010: b9de 903d d213 f83e d7c0 94be 2330 b03d
00000020: 3938 b23e bdbb a03b 9b39 29bc 8686 663c
00000030: 018b 303b 6df7 0b3d 338c a7bb 02c5 cfbc
00000040: 5ec6 643b 3917 03bc d737 c8bd 1da1 72bf
00000050: d086 11bf 0532 bbbb 98ef 033f 071b 47bf
00000060: 1b12 68bf 42d7 96be 0e44 1cbf 35a7 03bd
00000070: 96ab 5e3b a863 c63c 0de2 483c 3258 013c
00000080: a893 2bbc 3cf8 f23b 7538 b13b fa76 003c
00000090: 9e3b 6bbc d4aa 333f 2c7d 24be 4f64 11be
000000a0: 962b 6b3e b768 6dbf 1ac1 2a3f 6b8b 19bf
000000b0: 024b 5c3e 2744 35bb c5e0 b3bc 82f0 23bc
000000c0: 31f7 53bd c0fc 823c 8593 433c f6c5 96bb
000000d0: b3cf 863a 8369 6ebc
-0.11214657 0.06350955 -0.16759199 -0.9645158 0.07073731 0.48452622 -0.29053375 0.08602931
0.3480852 0.0049051926 -0.010328676 0.014070159 0.0026938322 0.03417151 -0.0051131486 -0.025362495
0.0034908275 -0.008001142 -0.097762756 -0.9477709 -0.5684633 -0.00571275 0.51537466 -0.77775615
-0.90652627 -0.29461104 -0.61041343 -0.032141883 0.0033976785 0.024217442 0.012260926 0.007894563
-0.010472216 0.0074148457 0.0054083415 0.007840866 -0.014357476 0.7018254 -0.16063374 -0.14198421
0.22965845 -0.9273791 0.667009 -0.5997836 0.21512988 -0.002765903 -0.021957764 -0.010006072
-0.051749412 0.015989661 0.011937027 -0.0046012355 0.0010285288 -0.014551523

c1.0.bias f4 [3]
00000000: 43a5 313e e914 aebd 32d6 98bc
0.17348199 -0.08500082 -0.018656824

c1.2.weight f4 [2, 3, 3, 3]
00000000: 2964 da3e 86a9 82be 7926 2dbd 02b5 eebe
00000010: dea7 c9be 1676 b0bc 33fe 4fbd b69f bbbd
00000020: 5af5 e8bb 335e fcbe c691 34bf b4dd 933e
00000030: 006a 22bf 730c 2b3e 92c6 afbd a6c9 ef3d
00000040: 2327 883f f502 9e3e d38b 493e 0218 00bf
00000050: 23f0 b9bf 4a49 b8bf 3a22 ea3d 42ef 10bf
00000060: 5017 a13e 514e 913d 7015 dd3e 64c8 6b3e
00000070: c4ec 86bd d921 3ebd e7ae 2cbd f6dc 1f3d
00000080: 7852 5bbe 76f1 c13e ad1c 243e 7fc0 86be
00000090: 07cb 843f a24e 113f 537f 5dbf c2e8 253f
000000a0: 628c 263f dcf0 2dbf 8711 8cbe 7716 33be
000000b0: dc89 3ebf 8202 bb3d 57b6 423e 9d23 cd3e
000000c0: fdd2 19bf 1fa6 f13e 8b67 62be 9126 8bbe
000000d0: cda2 aebe ed09 f93e
0.4265454 -0.2551996 -0.04227302 -0.46622473 -0.39385885 -0.021540683 -0.050779533 -0.09161322
-0.0071093263 -0.49290618 -0.7053493 0.28880084 -0.63442993 0.16703968 -0.08582796 0.11708383
1.0636944 0.3086163 0.19682245 -0.50036633 -1.4526409 -1.4397366 0.114323094 -0.5661508
0.314631 0.07095016 0.43180418 0.23025662 -0.06588128 -0.046419 -0.042158987 0.039029084
-0.21418178 0.37879533 0.16026564 -0.26318738 1.0374459 0.5676061 -0.86522406 0.64808285
0.6505796 -0.6794565 -0.27357122 -0.17489038 -0.74429107 0.09131338 0.1901487 0.40066233
-0.6008757 0.47197053 -0.22109811 -0.2717786 -0.34108582 0.48640385

c1.2.bias f4 [2]
00000000: a410 e13a 1cc6 e03c
0.0017171097 0.027438216

c1.5.weight f4 [3, 2, 3, 3]
00000000: 4f6f e2be 5508 a8be 9cf0 e0bd 43ae c4be
00000010: 57dc e4be 78c2 893d d7fa 0fbf 3751 27bd
00000020: 0438 373f 71f3 763e abc4 143d e5fe 5ebe
00000030: ef87 913e d597 363e 3d62 10be 280c b7be
00000040: 6850 1dbf a214 7a3e 069e e8bd 713c dd3e
00000050: c7bd 20bd 8f9e b43c 4c1a a53e e301 a0be
00000060: da63 8f3e b575 333f cf01 f33d b0fa 0b3e
00000070: 47a1 07be 2885 62be 3208 0ebf 7cc2 b9be
00000080: 88c4 913e a04d 873e 5ffa 2dbe 3213 81bd
00000090: 280b 71bd fa10 f13e 0f45 253e 5b93 a43d
000000a0: 3763 8a3e 6d97 e13c 81a1 d13e 9fc0 823e
000000b0: bcfb d13e 5c54 01bf 269a 7cbc 8f1d 09bd
000000c0: 25f7 933e 0c89 09bf 8e12 a5ba c76c d73d
000000d0: 5b75 febd 4cd4 a9bd
-0.44225547 -0.32818857 -0.109833926 -0.384142 -0.44699356 0.06726545 -0.56242126 -0.040848937
0.7156985 0.24116303 0.03632037 -0.21776922 0.28424022 0.17831357 -0.14099975 -0.35751462
-0.61450815 0.24421933 -0.113582656 0.43210176 -0.039243486 0.022048263 0.32246625 -0.3125144
0.28005868 0.7010148 0.11865579 0.13669848 -0.13245116 -0.22121108 -0.55481255 -0.36281192
0.28470254 0.2642641 -0.1699004 -0.06302489 -0.05884853 0.47083265 0.16139625 0.08035918
0.2702882 0.027538026 0.4094353 0.25537583 0.4101237 -0.5051935 -0.015417611 -0.033475455
0.28899494 -0.5372474 -0.0012594031 0.105187945 -0.124247275 -0.082924455

c1.5.bias f4 [3]
00000000: 989f b5bc 5dfc 343d 5c93 1cbc
-0.022170827 0.044185985 -0.009556618

d1.0.weight f4 [128, 192]
00000000: cb3c 883e 18d2 7cbe 8295 26be 6d6e 95be
00000010: 11a4 63be df36 203e 4627 52be 19ed c8be
00000020: 1d79 dbbc d266 d33d 9902 5f3e 5bb3 01be
00000030: d39d 363e 7896 36be 3cb2 cabe 3f8f c9bc
00000040: 2697 4e3d 3ce1 94be 041a 50be e3aa 69be
00000050: eaba 33be f937 09bd 8fcd 1b3e 0889 823d
00000060: c41e 0dbe e634 353b b3d3 2c3e 3472 1e3e
00000070: d566 50be 1880 1c3c b15f d9be 26dc 173e
00000080: 8b4d 83be 2cda 22be 88e1 afbc e59d 4fbe
00000090: 99f9 17be 8d3b 15be 33fa 273c cec7 eb3d
000000a0: 0b41 0ebd dfa9 afbd 5edd ea3c 201b 9e3e
000000b0: e63e e6bd 142a 2ebe dd80 d4bd 3574 febd
000000c0: c542 cebe cf9e f6bd 8ea6 9fbe d7c6 1ebd
000000d0: 6081 3cbe f1b4 84be 13dc 9ebe cfbb d43d
000000e0: 30ac bebd 141a 19bc 68e8 313d 6ab2 debd
000000f0: 0a64 85bd 680b 00bf 9689 37be f93a 8bbe
00000100: 8a52 273e 70e9 30be e80e edbd 3b17 15be
00000110: c6b7 2abe 12d7 e53c 4b97 3c3e e562 db3d
00000120: 6b32 71be a837 3d3e 50c6 2c3e c6c8 b63e
00000130: 8701 183e 4036 25be c212 11bf bf79 c5be
00000140: 774f 54bc 310c 0cbe 3b1c 25be fd12 b7be
00000150: 9faf c5bc 065a 253d 56a3 c03e 3484 b2bc
00000160: 5909 47be 04a0 353c dcb3 803e 5523 633e
00000170: 7e93 5f3e 2602 f3be 3099 afbe 12ff ebbe
00000180: 5c13 853d e4e1 d8bd 4620 85be 82a2 0bbf
00000190: 2fa5 8fbd fc25 3ebd 288e 943e 25b6 873e
000001a0: 0738 633d c466 32bd 71fa a23d 09fc c53d
000001b0: d8e1 133e fad4 70be f09e 5abe 5c38 e93c
000001c0: bb6f 1c3e 819c 23be 83fc b9be 0033 b3be
000001d0: d163 9fbe c2cb e6bb 9d49 4a3e 2a4f 993e
000001e0: 9225 19bd c488 713d b871 6b3d 8890 483e
000001f0: ecd6 c53c dea4 bdbe c100 9abe da44 80be
00000200: 7b3e 49be 9195 0bbe c036 d73e 9375 21bd
00000210: 2fa0 ac3d 1a8a 44bd c77c a73e 8cf6 ae3e
00000220: f2d0 8a3e f273 75be 0831 ddbd 850e d93e
00000230: 6b32 abbd 0ae3 583e 4504 d93d 27ed ae3e
00000240: cff1 923e 65ee 8c3d e520 023e c277 c03e
00000250: 585e 733e fdaf 63be b79d 053d 6341 173f
00000260: 3eff 2a3f bf44 c03e 00d3 bd3c a51a db3e
00000270: c045 823e 2497 883e e216 163e 3c03 063e
00000280: d23b 043f 1a7c 6b3e 04f3 69be 03d4 223e
00000290: 2a82 0f3f 8b66 663e 6dc3 633e 35f3 e23c
000002a0: 6fe5 593c 93df 323f 3886 3cbc bc33 90be
000002b0: 875d cd3e 25b4 f13e 8337 a53e 9844 23bd
000002c0: ff66 60be 6b50 7e3e a319 1a3e 2371 df3b
000002d0: ffd7 603e a2e2 b33e 99d6 e03e 8794 bdbd
000002e0: a96e b6be 0277 8cbc 14a2 f93e 34ee 393e
000002f0: 8cac 0ebe b8f2 b0ba f96f d33e f533 573d
00000300: 17d8 f13b 699d af3c 769a 9fbe 8471 4cbe
00000310: aefa 04bf 0ef5 81be 6ebc b9be 87a7 42be
00000320: e6a9 80be ffca dcbd c32a abbe de97 15bf
00000330: 1be9 00bf e42f b7be 5105 51be 42ee 34bf
00000340: 8c3f e9be cd2e b63e b281 9f3d 1a83 89be
00000350: 25ef 21be dec8 babe 29dc 52be 67a8 ebbc
00000360: ac83 57bf 1da3 903d 46e2 0f3e 1954 5f3e
00000370: 7493 1d3e 5d0d 453c cdd6 f33d b45c 2cbe
00000380: 4ce3 7cbe 93fb 62be ff42 a53d f048 953e
00000390: 0255 b23e ef5c 633e 9497 d33d f6a7 3bbe
000003a0: 9787 61be 9a49 a7be f9e2 b9bd acd0 ed3d
000003b0: a071 6f3e 0525 f73d e0bd 113d 217a 45bd
000003c0: 2151 1a3f eb86 a7be ff9f 83be 7a24 84be
000003d0: 169c 5dbe ad79 b9bd 3d05 983c 2521 62be
000003e0: e62f 2fbe 496a b8bd fdc9 23bb a2ba 2abe
000003f0: 183b 433c 5314 16be bb5a 84be 2945 ec3d
0.2660888 -0.2468952 -0.1626797 -0.2918581 -0.22230555 0.15645932 -0.20522794 -0.3924339
-0.02679115 0.10322346 0.21778335 -0.12666075 0.17833643 -0.17830837 -0.39589107 -0.024604438
0.050437115 -0.2907809 -0.20322424 -0.22819094 -0.17551771 -0.033500645 0.15215133 0.06373793
-0.13781267 0.0027649938 0.16877632 0.15473253 -0.20351727 0.009552024 -0.4245582 0.14830074
-0.25645098 -0.15903538 -0.021469846 -0.20275076 -0.14841308 -0.14573498 0.010252523 0.11512719
-0.03473 -0.08577322 0.02867001 0.3088007 -0.11242466 -0.17008239 -0.10376141 -0.124245085
-0.40285316 -0.12042009 -0.3118176 -0.038763847 -0.18408728 -0.25919297 -0.31027278 0.10387384
-0.09310186 -0.009344596 0.04343453 -0.108738735 -0.065132216 -0.50017405 -0.17923579 -0.2719343
0.1634008 -0.1727655 -0.11575109 -0.14559643 -0.16671667 0.028056655 0.18417089 0.10712222
-0.23554389 0.18478262 0.16872525 0.35700053 0.14844333 -0.16133976 -0.5666925 -0.38569447
-0.012958399 -0.13676526 -0.1612405 -0.35756674 -0.024131594 0.040369056 0.37624615 -0.021791555
-0.1943716 0.011085514 0.25137222 0.22181447 0.21833608 -0.47462577 -0.3429656 -0.4609304
0.06497833 -0.1058996 -0.26001185 -0.5454484 -0.07013928 -0.046422943 0.29014707 0.26506153
0.055473354 -0.043555036 0.07957924 0.096672125 0.14441621 -0.23518744 -0.21349692 0.028469257
0.15276997 -0.1597767 -0.36325464 -0.34999847 -0.3113084 -0.007043333 0.19754644 0.2994321
-0.037389345 0.05896832 0.057481498 0.19586384 0.024150334 -0.37039846 -0.300787 -0.2505253
-0.1965274 -0.13631274 0.42033958 -0.03941877 0.0842899 -0.047983266 0.32712385 0.34172475
0.27112538 -0.23970011 -0.108003676 0.4239389 -0.08359226 0.21180359 0.105965175 0.34165308
0.2870011 0.06881408 0.12707861 0.37591368 0.23766458 -0.22235103 0.03262111 0.5908415
0.6679572 0.3755245 0.023171902 0.42793766 0.2544384 0.2667781 0.14657167 0.13087171
0.5165378 0.2299656 -0.2284661 0.15901189 0.5605799 0.22500055 0.22242518 0.02770386
0.01329933 0.698724 -0.01150661 -0.2816447 0.40110418 0.47207752 0.32268915 -0.039860338
-0.2191429 0.24835365 0.15048842 0.006818907 0.21957396 0.35133845 0.43913725 -0.09256845
-0.35631302 -0.017146591 0.48756468 0.18157274 -0.13933009 -0.001350007 0.41296366 0.052539784
0.0073804962 0.021437364 -0.31172532 -0.19965178 -0.51945007 -0.25382274 -0.36276573 -0.19009219
-0.25129622 -0.10780906 -0.33431062 -0.58434856 -0.5035569 -0.35778725 -0.20412184 -0.7067605
-0.45556295 0.3558258 0.07788409 -0.26857835 -0.15813883 -0.36481375 -0.20591797 -0.028766824
-0.8418529 0.070623614 0.1405116 0.21809424 0.1538828 0.012027112 0.119062044 -0.16832238
-0.24696082 -0.2216628 0.08069419 0.2915721 0.3483048 0.2220342 0.103316456 -0.18325791
-0.2202438 -0.3267334 -0.09076495 0.116120666 0.23383188 0.12067608 0.03558147 -0.048212174
0.6028004 -0.32720122 -0.25708005 -0.2580908 -0.21641573 -0.09056411 0.018557185 -0.22082956
-0.17108116 -0.09004647 -0.002499222 -0.16672757 0.0119159445 -0.1465619 -0.25850472 0.11536629

d1.0.bias f4 [128]
00000000: 4cec a83b 176c 443b 0e7d 273e 793b 323d
00000010: eb3d babd 4176 06bc 3b39 35bc 04af a8bc
00000020: 9175 0ebd 95c4 af3d 3e2b afbe 391e dabb
00000030: 9b4a 8c3d 9070 303e 13bf 2dbf 6382 bcbb
00000040: ff7d 443e d935 54bf 1891 41bc 2110 0d3d
00000050: b3ee d93d 01b6 4f3e c9c4 34be 1302 903e
00000060: 958f 77bd 10da 803e b599 fbbc 67c1 17bd
00000070: ff44 723d 7ed2 113d 22ca 20bf d17a ddbc
00000080: ee08 9fbc 1cbc 9dbc 26bd bcbd 74c8 dd3c
00000090: 420d d23d 1043 56be 2d8a 3b3d f2d1 ddbc
000000a0: 7fc5 8d3c 1dab 61be 6bc6 2a3d 7d8a 18bd
000000b0: 1c47 b63d 38a9 2c3e 3e22 fd3c 1d8e 67bc
000000c0: 758c bcbe c83b d4bc 0311 193e 6ab3 5fbd
000000d0: 647e 113e 51c0 d4bb cd21 22bd bb6c 973d
000000e0: 0d34 753d 4aa3 9fbe 5bce 0bbc c468 1639
000000f0: ee51 24bd 0c78 fcbe 247f c53c 8ff3 43bd
00000100: fbe0 d3be 14df ddbe 0060 8c3c ba23 103e
00000110: 267a 4c3d 2e12 cbbb 064e 643d 637c 96be
00000120: 3898 a5be 341c 8a3b 09aa 683c 533d 96be
00000130: 705c 39bb 6348 d4bc 9f50 afbe 7a9d e33d
00000140: 5384 9b3e c8de fa3c cc6a 5bbd 1135 52bd
00000150: b025 09bf c147 fdbc 0528 73be 8165 433e
00000160: 2ac9 853d ee40 16be 4330 d5ba 4d19 88bc
00000170: 0961 0abd 0001 7abc f046 81be dcc6 b73d
00000180: 30fa 84be 56c8 2d3b 743e 0d3e acfd 3f3e
00000190: aa10 97be bdaf 123e 6429 20be dd28 1d3a
000001a0: a596 0e3d 9f66 afbd 6552 c9bc 9a8d ddbd
000001b0: 82b4 113e d6d7 e0bd 337b f5be b62f 88bd
000001c0: b1de c23e 8f6e 34be 5f8e 993d 9bb7 b3bd
000001d0: c9ad d2bd a875 833c 2a11 83bb fac2 273e
000001e0: b81d 19bd a1f2 ff3e fca6 c23d 10f0 9e3e
000001f0: 2b5b 17bf cc25 9a3d 9e72 01bc 9bf9 c2bb
0.005155122 0.0029971653 0.16356298 0.04351375 -0.09093841 -0.008206905 -0.011061008 -0.020591266
-0.03478009 0.08582417 -0.3421268 -0.006656435 0.06850167 0.17230439 -0.6786968 -0.005752848
0.19188689 -0.82894665 -0.011814378 0.03443921 0.106412314 0.20284273 -0.17653193 0.28126583
-0.060439665 0.25166368 -0.030712942 -0.037049677 0.05914783 0.03560113 -0.6280843 -0.027036102
-0.019413438 -0.019254737 -0.09215765 0.027073123 0.10256435 -0.2092402 0.04578607 -0.027077649
0.017306088 -0.22037931 0.041693132 -0.037241448 0.08900282 0.16861427 0.030900117 -0.014133004
-0.3682591 -0.025907412 0.14947896 -0.054614462 0.1420837 -0.0064926525 -0.039583016 0.073937856
0.059864093 -0.31179267 -0.008533086 0.00014344143 -0.040117197 -0.49310338 0.024108477 -0.047839697
-0.41382584 -0.43334258 0.01713562 0.14076129 0.049921177 -0.0061972355 0.05573847 -0.29391775
-0.32342696 0.004214788 0.014200696 -0.29343662 -0.0028283857 -0.025913423 -0.34241197 0.11114021
0.30374393 0.030623809 -0.053568646 -0.05132014 -0.5357313 -0.030918004 -0.23745735 0.1908169
0.065325096 -0.14673206 -0.0016264993 -0.016613627 -0.033783946 -0.0152590275 -0.25249434 0.08973476
-0.25972128 0.0026517115 0.13793355 0.18749112 -0.295049 0.14324851 -0.1564079 0.0005995164
0.034811635 -0.08564495 -0.024575422 -0.10818024 0.14229015 -0.109786674 -0.47945556 -0.06649725
0.38060525 -0.176203 0.07497858 -0.08775254 -0.10287053 0.016047314 -0.003999849 0.16382971
-0.037381858 0.499898 0.09504506 0.31042528 -0.59123486 0.075267404 -0.007900862 -0.0059501654

d1.2.weight f4 [77, 128]
00000000: bcda a7bc 89e1 99bd 94be eebd 9461 a5bd
00000010: 720b 0a3e f5ab 623e 74d3 a6bd 2e77 99be
00000020: e63d 323e 7f2d d93e 27e3 07bc 8ec0 60bc
00000030: 1272 39be 062d 333d 9030 5abe 0054 fabe
00000040: cc7f 1a3e f71c 13bf 1c13 833e fd84 233d
00000050: 62fd 333e 6e05 103e b593 7dbe c95d 9039
00000060: e106 c0be 9c7e 1dbd 3ff6 c8be fd27 913e
00000070: c255 753b fc34 1dbe 20f8 d4be 6e9a 72be
00000080: 4879 003e e488 3e3e af37 a03e afa4 d0bc
00000090: 1c15 443e 21f8 2a3e e6e9 bfbd d066 bbbe
000000a0: f416 b1be b5a7 2b3d 2055 393e 802a cdbd
000000b0: d83b 0fbe 60b4 a63d 1b3a 11bf bfda b0bd
000000c0: bf8f 373e befc cabd 28fd 34bd 9a8b cebe
000000d0: e1d6 0a3e a705 c9bc 9b10 1e3e fe9b b23e
000000e0: 3a08 90be 3645 8f3e 8a4c 103e ee99 113e
000000f0: fec9 99be a1c6 f2be 98c7 2dbe d9d9 91be
00000100: 096f ef3d 6498 0e3d d847 6f3d 7d06 5ebe
00000110: fa50 bc3d f9fa d53d 37ef 3d3e f6ad 7b3e
00000120: 0fd7 4dbe b2dc de3e 7d97 67bd 04c5 333e
00000130: 75a5 c03e a3af 023d 433f 43be 1a0e de3e
00000140: cc5f 08be 6730 d53e b62c 453e b42a debe
00000150: eef3 28be 3c46 cebe a627 a13e 2e94 373e
00000160: 52af 883e ec1f 3f3d 0be7 373e 47db 34be
00000170: 97b0 183e e2e5 f23d ad79 7a3e 8dac d83c
00000180: 4d4a 853e 427b 55bd a934 0abf 8034 0c3e
00000190: a592 b73d dbac 213e c9ab 6bbe a1ad d03e
000001a0: f3f0 a7be 09d7 4bbe c793 6bbe 4594 07be
000001b0: e7af 293e 0eda 8f3e c0de 1bbe d06b c23d
000001c0: 6b1d 85be 47e5 313e fddf 9d3e 7cb9 00be
000001d0: bc66 643c 35b8 273d b8b2 4b3e 5f6b 77bc
000001e0: 0bb2 043e ab55 afbe bf6c 1ebe e930 44be
000001f0: b5e9 a9be 8198 2abe 646e 703d 7c17 313e
00000200: 69a9 213e 8d7e f53e 2bdc f33d e481 a7bc
00000210: 1c2d 83be 383c f0bb e017 26be 0186 c1bd
00000220: f0ac f2bd 572e 483e 7a82 74be 0a28 383e
00000230: fbfc c53d 3560 8ebe 5ce3 9f3e 0fab adbe
00000240: 229a d73d 44f2 89be 9036 5e3e 6f7e 063e
00000250: 7ba5 bbbe a642 18be 84a5 ccbe 8625 193d
00000260: 007e 91be cf78 39be 08a0 05be ee64 103e
00000270: 1c37 363e 9d31 af3e 32fb 99be 3679 84be
00000280: 50a5 2dbe 6bfc 313e ec1c 343e f6d3 0d3e
00000290: 18b2 1d3e 63b8 f63e 0f7a 183e 57fe 27bf
000002a0: 3563 45be d15f 7dbe 6fcc 9cbe dfd4 6f3d
000002b0: 1195 143e 128c fabe dace 98be 7d9a 6dbe
000002c0: 9c70 113e b96a 203e d2cb 8dbe ad51 bebe
000002d0: d6ae 213d b2f7 8bbe 3bb3 063a 1018 8b3d
000002e0: 1fff 23bf f17a 083e 4fe5 55be 108d 71bd
000002f0: ceae 2fbe 7d41 fa3b 20b2 31bf 5d76 9ebe
00000300: b3e9 a83d 8213 1abe e3fc b43d 180c b6bd
00000310: 5344 d43d 5ba9 ae3e 5f04 663d f535 603e
00000320: 79cb aabe 928d ddbd 1bbc 3e3d d8d7 c2bd
00000330: 44a7 aa3e db32 763d bca8 40be a61a 923d
00000340: c629 60bc bb12 5cbe 9540 9f3e 2c67 82be
00000350: 7ad2 673d dacc c5be 87e7 dcbd 0dee 22be
00000360: dd57 2d3e 0a35 bfbd 3a77 c9bd 7283 3c3e
00000370: 3295 8e3d 31aa 92be 3382 ac3e 02c5 6bbe
00000380: a7c5 873d cc5d f9bd bdcd bdbe 2006 643c
00000390: e534 54bc 8e99 8cbe e854 9ebd b2f4 4a3d
000003a0: f7be 62bc 0627 8cbe 8ac6 e8be ee30 00bf
000003b0: 28e1 9e3e 3574 92be d655 353d f513 ed3d
000003c0: 82df bcbc 53dc 903d 9543 563c f2ee 2cbe
000003d0: 8e7b 4b3e aecc 493e ab2f 163e 9686 563e
000003e0: 9150 13bd 1e02 1d3e 18b0 793e 894a 0abd
000003f0: 90d6 1bbe a585 9c3e 119c 9f3d 8560 a2bc
-0.020490043 -0.075137205 -0.11657444 -0.08075252 0.13480929 0.22135909 -0.081458 -0.2997374
0.17406425 0.42417523 -0.008293903 -0.013717784 -0.1810992 0.04374411 -0.21307588 -0.48892212
0.15087813 -0.5746607 0.25600517 0.03992175 0.17577127 0.14064571 -0.24763377 0.00027535696
-0.37505248 -0.038450822 -0.3925037 0.2835082 0.003743515 -0.15352243 -0.41595554 -0.23691723
0.12546265 0.18606907 0.31292483 -0.025469152 0.19148678 0.16696216 -0.093707845 -0.36601877
-0.34587824 0.041907985 0.18098879 -0.10017872 -0.13987672 0.081398726 -0.56729287 -0.086354725
0.17925929 -0.09911488 -0.04418674 -0.40340883 0.13558532 -0.024538828 0.15436022 0.34884638
-0.28131276 0.2798249 0.14091697 0.14218876 -0.3003692 -0.47417167 -0.1697067 -0.28486517
0.116911 0.0348133 0.058418125 -0.21682163 0.091951326 0.1044826 0.18548284 0.2457808
-0.2010157 0.43527752 -0.056540955 0.17555624 0.37626234 0.03190578 -0.19067101 0.43370134
-0.13317794 0.4163849 0.19255337 -0.43391955 -0.16499302 -0.4028796 0.31475562 0.1792762
0.2669626 0.046661302 0.1795923 -0.17661773 0.14911114 0.11860253 0.24460478 0.026449466
0.2603325 -0.0521195 -0.53986603 0.13691902 0.08963517 0.15788595 -0.2301475 0.40757468
-0.32801017 -0.19906248 -0.23005591 -0.13240154 0.16571008 0.2809605 -0.15221691 0.0949322
-0.25999007 0.17372619 0.30834952 -0.12570757 0.013940509 0.040947158 0.19892395 -0.015101283
0.12958543 -0.34245047 -0.15471171 -0.19159283 -0.33186117 -0.16659738 0.058699027 0.17294115
0.15787281 0.47948113 0.11907228 -0.020447679 -0.25620353 -0.0073313974 -0.16220045 -0.09449387
-0.118493915 0.19548927 -0.23877898 0.17984024 0.09667393 -0.27807775 0.3122815 -0.3391957
0.105274454 -0.26942647 0.21700501 0.13134168 -0.3664969 -0.14869174 -0.39970028 0.0373893
-0.28416443 -0.18112491 -0.13049328 0.14101002 0.1779446 0.3421754 -0.3007446 -0.25873727
-0.16957593 0.17381446 0.17589158 0.13850388 0.15399969 0.4818755 0.14890312 -0.65622467
-0.19276126 -0.24743582 -0.3062472 0.05855262 0.1450999 -0.4893499 -0.29845315 -0.23203464
0.14203113 0.15665711 -0.27694565 -0.3717169 0.039473377 -0.27337414 0.0005138402 0.06791699
-0.6406116 0.13328148 -0.20888256 -0.05897242 -0.17156526 0.0076372013 -0.6941242 -0.3094968
0.082476996 -0.15046504 0.08837297 -0.088890254 0.10364594 0.34113583 0.056156512 0.21895583
-0.33358362 -0.10818018 0.04656611 -0.09513825 0.3333074 0.060107093 -0.18814367 0.07133989
-0.013681835 -0.2149152 0.3110396 -0.2546934 0.05659721 -0.38632852 -0.10786348 -0.15911122
0.16928048 -0.09336288 -0.09837194 0.18409517 0.069620505 -0.2864547 0.33693084 -0.23024371
0.06629496 -0.121760935 -0.37071028 0.013917476 -0.012952064 -0.27460903 -0.07731038 0.049549766
-0.013839475 -0.27373523 -0.45463973 -0.5007466 0.31031156 -0.28604284 0.044271313 0.11576072
-0.023055796 0.070732735 0.013077636 -0.16888025 0.19871351 0.19706985 0.14666621 0.20949778
-0.035965506 0.15332839 0.2438358 -0.03376249 -0.15218568 0.30570713 0.07793439 -0.019821415

d1.2.bias f4 [77]
00000000: 8876 c13b 0ee0 80be ae92 0a3e 8a21 313d
00000010: 8028 023f 78e1 ebbc 0b0d 363d 6998 853d
00000020: ce77 c6be 085e 973c 3bea a43c 4b24 e43e
00000030: c42e 21bd 9dad f73d 2f7d 713e cebf 22bd
00000040: 9463 8ebe 57ed 453d b3d2 1a3e 2115 cf3c
00000050: d9e2 003f f3fe 143d 6763 373d 7c8c 073f
00000060: 2b66 503d ca89 0a3f daea a1be 7ec0 783c
00000070: 2b5b a8be f9bf acbe a6e8 42bc 5873 55bb
00000080: d285 b33d 7782 ff3d eea6 e63d 20e9 d63d
00000090: 46be 023f 4c81 063d 473e 623c 61fb 24bd
000000a0: 6cf1 be3d 0c02 ee3d fe44 673c 0408 1cbd
000000b0: 0725 e83d c9ce 1abd 31ec 12bc 444d e43d
000000c0: b967 de3c df08 643c 3449 5b3d 01c4 023f
000000d0: 1cfb 48bd 79e6 f73e 8005 3d3d 381f 2c3d
000000e0: c9ad 963d 3f50 d83c cde8 bc3d d45d f13d
000000f0: fffc 063e d7af a3be 9411 a3be 6113 a1be
00000100: b164 023d 5824 9ebe 6dc4 b83e cb53 083f
00000110: 232c 95be ad5a d0b9 6b7a 623b 6c1e 0b3f
00000120: 5883 393d b713 f33e 1947 e53c 75be a93d
00000130: 5585 913d
0.0059040226 -0.2517094 0.13532516 0.043244876 0.5084305 -0.028794035 0.044446032 0.065232106
-0.3876328 0.018477455 0.020131221 0.4455894 -0.03935124 0.12093661 0.2358291 -0.0397337
-0.27810347 0.048322048 0.15119438 0.02527863 0.5034614 0.03637595 0.04477253 0.5294874
0.050878685 0.541165 -0.3162449 0.015182612 -0.32882056 -0.33740214 -0.011896288 -0.003256997
0.087657586 0.12476056 0.11262308 0.10493684 0.51071584 0.03283815 0.013808793 -0.040278796
0.09323391 0.11621484 0.01411557 -0.03809358 0.113351874 -0.037794862 -0.008967445 0.1114755
0.027149068 0.013918131 0.05353661 0.5108033 -0.0490676 0.48418024 0.046147823 0.04202196
0.07357366 0.026405452 0.09224091 0.117854744 0.13182448 -0.31970093 -0.3184935 -0.31460097
0.031834308 -0.30887103 0.3608736 0.5325286 -0.29135236 -0.0003974041 0.003455783 0.54343295
0.045291275 0.4747598 0.027988004 0.0828828 0.07105509

d1.5.weight f4 [4, 77]
00000000: e30e a93c a633 d63c 748b 6c3d 5e8c 1e3c
00000010: e4fd fa3c a56d 173c 69f7 3c3c 74a7 b83c
00000020: 18b1 743e 2f71 ac3c 3665 ad3c 7429 4a3c
00000030: 7c01 b53c 2abf 81be 7f83 7b3d 7cfb ad3b
00000040: b7c1 693e 118c 82bb ab3e 66be 8b77 a93c
00000050: 7aa5 133d 78c3 ddbb 8fb6 ab3c c492 a63c
00000060: c6f5 aa3d b4c0 8f3c 69b1 6f3e 92e5 f0bb
00000070: 86ec 813e d46c 8f3e 1a23 cb3d e221 593c
00000080: 5fa8 3ebe 2767 74be a06c 6bbe 167d 59be
00000090: f018 6d3c 9bc4 5a3c 0df4 e63c 94d3 263a
000000a0: 7e7b 46be fb25 6bbe 88ec b03a 9e25 0c3c
000000b0: ad83 913c 4264 833d 5d9a 5c3b 7831 8a3c
000000c0: 8f86 3f3d 536a 573c e1b0 8a3b f157 a13b
000000d0: be63 043d 7763 e23c c9a0 69be c09b be3c
000000e0: 0266 41be 42f7 953d 3682 44be cfe7 75be
000000f0: b11e 5bbe 848c 5f3e 0367 653e b372 903e
00000100: 3772 b83c 9940 793e 82d6 eb3c 07c0 ca3c
00000110: 1c8a 713e 4232 593b 3f7b a83d 4386 553c
00000120: 1b00 b13d 2e8c 883c c376 953c 0d3c 733c
00000130: ffdd 753c 8dc5 003d d4cc 413e 109b e73c
00000140: 4238 6ebe 8b75 ab3c 9474 70be 115b 523c
00000150: d1f2 c13c ae2b 6d3c 5511 823d f01a 5dbe
00000160: b0d7 903c 2b54 c73c 8b6f c73c db8c c83d
00000170: 92f9 4e3c 1fae a1ba 9d11 5a3c e3b3 093c
00000180: 0aac 5ebe 9edf 403c a628 a9bb 6128 74be
00000190: 852a 9d3c 49e3 d13c e129 203d 320d e63c
000001a0: 2bfb ba3b 5f9d c13c 18a8 963c 5c1a b53d
000001b0: 0a68 4ebe 63f1 983c 8cdc 173d 8a3a 1d3c
000001c0: 8a49 a43b 7d29 2f3d 5937 7f3c 5076 6dbe
000001d0: 5ca4 69be 5a6c f53c faf0 213d cbe5 543b
000001e0: 6159 6dbe f905 37b9 8dc0 703d ac25 6ebe
000001f0: e5b7 af3c 38d0 d83d 591d 84be 9a22 ac3b
00000200: 76c5 7f3c af82 a13d 2be3 453c 6be9 b03b
00000210: 5aa2 0f3c 63e0 8a3c 61e6 8d3d 95e5 d53c
00000220: 0ce5 0b3d fe0e 0f3d 0795 babc 0e50 9f3c
00000230: 1d6c b13c 9e49 693c 44ac 153d 921f 033d
00000240: b319 61bc b2d7 d9bc 8131 4abe ab77 863d
00000250: 8e34 7d3c 02da c43d 371f ed3c 26b2 b23c
00000260: ae29 59be 9440 323c d10c 2cbe 7845 363d
00000270: 9652 093e 2229 283c 1f6c 643c 112b f23c
00000280: 0f5e 50be d450 2fbe a3c4 763c 58c3 2a3d
00000290: 2d3f 9f3b 90c8 b83c 3754 733e 5650 933c
000002a0: 80e9 9e3d 4373 3abe 86b3 e63b 95a1 33be
000002b0: 9218 363c b4ed ce3c b6e9 133d eada 2ebe
000002c0: 9d0c 4f3c 2249 333c 4395 df3d fc40 813c
000002d0: c612 0c3d 5ef4 2cbe 81bf 153d ec4a 323d
000002e0: 2905 623d 3581 ac3c 120a 703c 949f d43c
000002f0: 1814 b53c 3642 9c3c 0fb0 4e3c 4160 30be
00000300: 27bc 153d 49ab ef3b 258c 283c a62e 903c
00000310: f70a 1bbe 4b33 a93c bbd9 2abe 7bfc 3abc
00000320: e4a2 f33c 3287 37be cb79 b03d 5b35 adbb
00000330: 35b6 35be 2366 ae3c da29 a83d f7ee ac3a
00000340: 1790 cc3b 967d 1bbe c5d2 d33c 44df 033e
00000350: 383a 213d 6bd0 cb3c 7694 933c 1585 cdbb
00000360: a50c 483d ed34 243d aac6 16be e69e 363d
00000370: 793d 1b3c 89be 363c 7424 903d 4772 3b3c
00000380: 661b eb3d d57e 8f3c 1074 303e bb1e 71ba
00000390: 12fb 37be b016 c13c 8654 2bbe f67e 293b
000003a0: 65fb b63c bc6b a63d 7e25 e13c fb96 8ebe
000003b0: 0e62 4b3c 63cb c13a 65cf b43a 768f d53c
000003c0: 430f de3d eeb3 c53b b9de adbe 34b4 fb3c
000003d0: 695d c23b f5d7 06be 59c1 bb3b fc76 713d
000003e0: 9f23 873b 6d9e a03b a067 593b 28be 8ebe
000003f0: 0b24 efba 11ce 653a debf a5be 4157 ba3d
0.020636981 0.026147675 0.05775018 0.009677021 0.030638643 0.00924245 0.011533597 0.022540785
0.23895681 0.021050064 0.021166425 0.012338985 0.022095434 -0.2534116 0.0614047 0.0053095203
0.22827803 -0.0039839824 -0.22484843 0.020686885 0.036046483 -0.0067676865 0.020961074 0.020333655
0.08347659 0.017547943 0.2340752 -0.0073515857 0.25375766 0.28012717 0.099188045 0.013252707
-0.18618916 -0.23867474 -0.22990656 -0.21239123 0.014471278 0.013352538 0.028192544 0.0006363925
-0.19383046 -0.22963707 0.0013498226 0.0085538905 0.017762983 0.06415607 0.0033661344 0.016869292
0.046759184 0.013147908 0.0042325114 0.0049238135 0.032321684 0.02763532 -0.22815241 0.023267627
-0.18886569 0.07322551 -0.19190297 -0.24014209 -0.21398427 0.21830946 0.22402577 0.2821251
0.0225154 0.24341048 0.028788809 0.024749769 0.23587841 0.0033141528 0.08226632 0.013032499
0.08642598 0.016668405 0.018245107 0.01484586 0.015006541 0.0314384 0.18925792 0.028272182
-0.23263648 0.020930072 -0.23481971 0.012839095 0.023675354 0.014475746 0.06350962 -0.21592307
0.017680973 0.024332127 0.02434518 0.09792491 0.012632744 -0.0012335217 0.013309863 0.008404705
-0.21745315 0.0117720645 -0.0051623164 -0.23843528 0.019185314 0.025621073 0.03910244 0.028082464
0.005706211 0.02363461 0.0183907 0.08842918 -0.20156875 0.01866979 0.037075564 0.009596476
0.0050136494 0.042764176 0.015577161 -0.23189664 -0.22816604 0.029958893 0.039536454 0.00324856
-0.23178627 -0.00017454465 0.05877738 -0.23256558 0.021449992 0.105865896 -0.2580364 0.0052531483
0.015611043 0.07886254 0.012078087 0.0053989193 0.008766735 0.016952699 0.06928707 0.02611045
0.034153983 0.034926407 -0.02277614 0.019447353 0.021657998 0.014238743 0.03654124 0.03201253
-0.013739037 -0.02659211 -0.19745447 0.065657936 0.015454425 0.09611894 0.028945548 0.021813463
-0.21207306 0.010879654 -0.16801764 0.044499844 0.1341041 0.010263713 0.013941794 0.029561551
-0.2034838 -0.17120677 0.01506153 0.0416902 0.004859826 0.022556573 0.23762594 0.017982643
0.0775938 -0.18208031 0.007040444 -0.17542107 0.011114256 0.02525983 0.036111556 -0.17075697
0.012637285 0.010942729 0.10917141 0.015778057 0.03419759 -0.16890094 0.036559585 0.043528482
0.055180702 0.021057704 0.014650838 0.025954999 0.022104308 0.01907454 0.012615218 -0.17224218
0.03655639 0.00731412 0.010287319 0.017600369 -0.15140902 0.020654341 -0.1668462 -0.011412735
0.029740758 -0.17922667 0.0861698 -0.0052859015 -0.17745288 0.021288937 0.082111076 0.0013193776
0.006242763 -0.15184626 0.025857339 0.12878138 0.039362162 0.024879655 0.018015128 -0.006271968
0.048840184 0.040089536 -0.14724222 0.04458513 0.009475105 0.011153826 0.07038203 0.01144082
0.11479835 0.017516533 0.17231774 -0.00091979996 -0.1796687 0.023570389 -0.16731462 0.0025863028
0.022336671 0.081260175 0.027483698 -0.27849564 0.012413515 0.0014785345 0.0013794719 0.026069384
0.10842755 0.006033412 -0.33958986 0.030725576 0.0059315455 -0.13168319 0.005729836 0.058951363
0.0041241194 0.0049016983 0.0033173338 -0.27879453 -0.0018244995 0.0008766363 -0.32372946 0.090986736

d1.5.bias f4 [4]
00000000: f464 16bf fea5 35bf 1091 34bf 98da 35bf
-0.5874779 -0.7095641 -0.7053385 -0.7103667
