netw.pt (torch, 763382 bytes, 28 tensors)

c1.0.weight f4 [3, 2, 3, 3]
000000 1c b9 05 be 55 7d 05 3e ed dd 58 be 60 51 40 3d
       -0.13058895 0.13036092 -0.21178408 0.046952605
000010 d5 e4 10 3e 57 7e e5 bd e2 39 c8 bd 4c f4 aa 3d
       0.14149792 -0.11205738 -0.09776665 0.08347377
000020 28 3a 69 3e 0b 49 2d be fe 79 db 3d 35 92 f7 3d
       0.22776091 -0.16922395 0.107166275 0.12088434
000030 06 f6 f4 bd 4d de 3d be 87 69 2b 3e 32 49 8d bd
       -0.11960988 -0.18541832 0.16739474 -0.068987265
000040 b4 f1 2e be 47 e5 68 3d a0 3c 26 3e 7c 2b 63 be
       -0.1708439 0.05685928 0.16234064 -0.22184557
000050 3c ba 15 3e 48 65 2f be 55 96 b6 bd 0d ac 84 3d
       0.14621824 -0.1712848 -0.08915392 0.064781286
000060 73 1a d1 3d bb 55 87 bd 64 48 d3 3d ef 94 2f be
       0.10210123 -0.06608149 0.10316542 -0.17146657
000070 fb 33 10 3e 79 38 0e be e0 9f d7 3d 56 23 6e be
       0.14082329 -0.1388873 0.105285406 -0.23255667
000080 ab 1d ed 3c ac f0 41 3e 1b 5d 38 be 15 27 b8 bd
       0.02894481 0.18939465 -0.18004267 -0.08991829
000090 14 c3 71 bd af 5e 34 be 3f 85 59 3e 44 4c 0d be
       -0.05902393 -0.17614244 0.21242236 -0.13798624
0000a0 a8 51 02 be f6 28 aa 3d 6a dc 97 bd 7c b1 4e 3e
       -0.12726462 0.08308594 -0.074150875 0.20184892
0000b0 20 44 56 3e 5f 72 df 3d 42 70 d0 bd 00 97 34 bd
       0.20924425 0.109104864 -0.101776615 -0.044089317
0000c0 77 73 5f be e1 09 5f 3e 7d 60 d6 3d a7 05 43 bc
       -0.2182139 0.21781112 0.104676224 -0.011903203
0000d0 8e 71 b9 bc fd 96 b5 bd
       -0.022637155 -0.08866689

c1.0.bias f4 [3]
000000 6c ba 11 3e 05 83 24 3e 23 f2 06 be
       0.1423127 0.16065605 -0.13178305

c1.2.weight f4 [4, 3, 3, 3]
000000 2c 84 c6 3d cc b6 5b 3d 8b 2a 42 bd 5c 2d ca bb
       0.096931785 0.053641126 -0.047403853 -0.006169958
000010 97 15 a1 3d 8b dd 86 bd 81 c2 60 bc 8a 69 0c 3e
       0.07865446 -0.06585225 -0.013718248 0.13712135
000020 91 ec 1c be cf f1 e3 bd 93 3f b0 3b c6 94 ce 3c
       -0.15324618 -0.11130106 0.0053786724 0.025217425
000030 af 35 cd bd 76 97 9a 3d cf 06 07 3c 4b 2f f3 bd
       -0.10020005 0.0754842 0.008241369 -0.11874255
000040 70 fd 3a be 56 d2 d7 3d 9e a7 35 be 53 11 53 bd
       -0.18260741 0.10538165 -0.17739722 -0.051530194
000050 c3 d1 24 bd d8 3a 9c bd ca bf 25 3e c1 0f 2a 3c
       -0.040239107 -0.07628411 0.16186443 0.010379733
000060 81 b0 07 3d 75 e3 02 be a4 02 03 3e 65 5a 18 3e
       0.03312731 -0.1278208 0.12793976 0.14878233
000070 a0 82 08 3c 3b a0 c7 3c e4 4f 4c bd 44 e5 19 be
       0.008331925 0.024368396 -0.049880877 -0.15028864
000080 aa bf 08 3e 28 6d 31 3e 77 26 cf 3d e3 2b 2f be
       0.13354364 0.17326796 0.101147585 -0.17106585
000090 11 e8 89 bd ce 2f 29 bd 45 ac 21 be a2 02 22 3e
       -0.06733716 -0.041305356 -0.15788372 0.15821317
0000a0 0d f0 9d bd f3 c4 33 3e 81 2b 15 be 3e c8 32 be
       -0.07711802 0.17555599 -0.14567377 -0.17459199
0000b0 6a d6 29 3d 17 62 16 3e e6 73 61 bd 6c 3b 4d 3d
       0.041464247 0.14685856 -0.05504217 0.050105497
0000c0 4a ca b2 3c a2 19 e8 3d 7e 3b 0d bd 0d 50 d8 3d
       0.021824975 0.11333014 -0.034480564 0.105621435
0000d0 a5 88 03 be 19 78 bb bd a0 40 d1 3c f3 df 47 3d
       -0.12845095 -0.09153766 0.02554351 0.04879756
0000e0 11 be 39 bd e1 e9 07 3c bf e8 05 3e 69 5b 39 be
       -0.045347277 0.008295507 0.13077067 -0.18101276
0000f0 f1 6a 92 bd 7c e7 0f be ad 1a 17 3e 76 b7 12 be
       -0.07149304 -0.14053148 0.1475627 -0.14327797
000100 51 d9 84 3b f0 59 82 bb 56 33 83 3d 76 1d 6b 3c
       0.0040542264 -0.0039780065 0.06406276 0.014350286
000110 99 2a b0 3b 3c 4b 70 3d ca a2 31 bd 12 75 2c be
       0.005376172 0.0586655 -0.04336814 -0.16841534
000120 f6 4c 1a be d5 a1 be 3d c5 03 20 3e 06 ae 0b 3e
       -0.15068421 0.09308211 0.15626438 0.13640603
000130 ba b0 37 be d5 b7 9f bc 6a a7 46 3d 7d 42 20 3d
       -0.1793851 -0.019496838 0.048499502 0.03912591
000140 91 b6 83 3d ab 4d c0 bd 59 e3 d5 3d 0d 55 13 3e
       0.06431306 -0.09389814 0.10443754 0.14387913
000150 9c 21 64 3d 16 31 5e 3d c9 01 1a 3d 80 95 3f be
       0.055696115 0.05424603 0.03759936 -0.18709373
000160 5e 99 0f 3b 10 2f ce bd f9 33 3a 3e 2d 7e ce bb
       0.0021911482 -0.1006757 0.18183888 -0.0063016624
000170 58 11 24 3d 29 49 fa bc 31 0a e9 3d 08 22 e8 bd
       0.040055603 -0.030552464 0.11378897 -0.11334616
000180 15 ce e9 3d 3f 36 f8 bd 7d 48 c8 bd 24 c4 a7 bc
       0.1141626 -0.121197216 -0.09779451 -0.02047927
000190 5e 45 1d be 05 09 43 be 0d 8b 97 bd 29 c5 2a 3e
       -0.15358493 -0.1904641 -0.07399569 0.16676773
0001a0 01 82 2a bd 60 42 a2 3c cf 81 f9 3d e8 7a 63 bd
       -0.041627888 0.01980704 0.12182962 -0.055537134

c1.2.bias f4 [4]
000000 b5 9f 0c be 4d e2 30 3e 7b de 0f be aa fc 04 3e
       -0.13732798 0.17273827 -0.14049713 0.12987009

c1.5.weight f4 [4]
000000 9d 5c 7f 3f 4e 24 80 3f af f6 7f 3f 2c 22 80 3f
       0.9975069 1.0011079 0.99985784 1.0010428

c1.5.bias f4 [4]
000000 c2 5f 93 ba aa aa 70 bb d7 a6 0c bb ae c2 41 bb
       -0.0011243748 -0.0036722817 -0.002146175 -0.00295655

c1.5.running_mean f4 [4]
000000 94 3f 91 bc 1e 55 2b 3e 83 8a 98 bc ff 5d 0e 3e
       -0.017730512 0.16731688 -0.018620735 0.13903044

c1.5.running_var f4 [4]
000000 42 cd bd 39 ec 58 0d 3d fe 61 c7 39 b8 17 d5 3c
       0.00036201818 0.03450863 0.00038029248 0.026012287

c1.6.weight f4 [3, 4, 5, 5]
000000 d1 8c ac 3d 7d 55 39 bd 63 c2 7e bd 91 a4 05 bc
       0.08425296 -0.045247544 -0.0621971 -0.0081569115
000010 2e f2 9c bd 1a ac 69 3c 61 83 17 bd 9c 1d d3 bc
       -0.076633796 0.014262224 -0.036990527 -0.025770955
000020 51 6e 1b bd d1 19 00 3d 1d 14 37 bd 2e 11 ab bd
       -0.037947003 0.03127462 -0.044696916 -0.08352886
000030 40 e0 99 3d 42 45 ae bd e1 17 4b 3d f7 1f 14 3d
       0.075134754 -0.08509304 0.04958332 0.036163297
000040 40 a5 15 3d ce ce 4c 3c 0c 98 30 3c ce eb 2d 3d
       0.036534548 0.012500478 0.010778438 0.04246121
000050 a8 ea 54 bd 79 2c bc 3d 59 e5 5a bc be 0f fb bc
       -0.0519816 0.0918817 -0.013360345 -0.030647155
000060 77 68 b0 3b 1e 5d 71 3d 19 01 c0 3b bb e3 e1 3c
       0.005383547 0.058926694 0.005859506 0.02757441
000070 c6 e4 6a bd 0a da ae bd 51 90 23 bd a3 90 2e bd
       -0.05734708 -0.085376814 -0.039932553 -0.042618405
000080 d4 48 fc 3c ac 4d 5d 3d dc 8b 71 bc 50 3e 9b bb
       0.030796446 0.05402915 -0.014742818 -0.004737653
000090 16 1d c5 bd 9d fe c6 ba 3b d4 8f bd 4c e7 a1 bd
       -0.09624688 -0.0015182082 -0.070229016 -0.079054445
0000a0 00 9c 34 bd bb ae 9a bd cf 35 72 3d 89 f1 75 3a
       -0.044094086 -0.075528584 0.059133347 0.0009382
0000b0 e6 3b cc bd 53 5a 37 3c 8f cd b9 3d 31 48 10 bd
       -0.09972362 0.011190969 0.0907241 -0.035225097
0000c0 fc c4 ab 3b fa 96 ba bd ee bd 9c 3d f5 3d 32 3d
       0.005241988 -0.09110828 0.07653414 0.043516118
0000d0 4b 39 56 3b 6c ca 77 bd ef ec 32 bd f5 62 9a 3a
       0.0032687958 -0.06049578 -0.04368299 0.0011778759
0000e0 51 4b 0b bd 31 29 4e 3d df ea 98 3d 2c 14 22 bd
       -0.034007374 0.050332252 0.07466673 -0.03957002
0000f0 9e 4e c0 bd 26 38 30 3d 99 dd 9d 3d 30 66 99 bd
       -0.09389995 0.043022297 0.07708282 -0.07490194
000100 2f 9d 98 3d 73 4c 05 bd b5 25 54 bd 80 3a 93 bd
       0.074518554 -0.03254361 -0.051793773 -0.07188892
000110 76 e3 a1 bd ae d4 86 3d bc e1 a1 bd cd ef 52 bc
       -0.07904713 0.06583534 -0.079043835 -0.012874556
000120 5d e8 ae bd cd a9 bf 3d d5 1b de 3c 02 3a c8 bd
       -0.085404135 0.09358559 0.02711288 -0.09776689
000130 40 81 34 3c c6 e5 ff 3c 94 32 42 bd 0f a4 a2 3d
       0.011017144 0.031237494 -0.047411516 0.07941448
000140 fd 38 2f 3d 67 2e b6 bd 2f 82 3a bd 3e 25 5d 3d
       0.042778958 -0.08895569 -0.04553431 0.053990595
000150 2e dc 9a bd 42 1f ac bd 98 e0 93 bc 23 c1 95 bc
       -0.07561527 -0.084043995 -0.01805143 -0.018280571
000160 07 50 49 bd 55 f1 63 bd 07 11 8b bd 55 82 c9 3d
       -0.049148586 -0.055650074 -0.06790357 0.09839312
000170 f1 75 a8 bd f5 77 7a bd 66 02 99 3b 60 71 e9 bc
       -0.082256205 -0.061149556 0.0046694754 -0.028496444
000180 b9 ec 3b 3d 71 ce 25 bd 58 d5 9a bd 80 74 09 bd
       0.045880053 -0.04048008 -0.07560223 -0.03355837
000190 f0 1f 1a 3d f9 20 b2 3b 01 f6 6e 3d a0 bc 8f bb
       0.037628114 0.0054360596 0.058340076 -0.0043864995
0001a0 49 ac e6 3c 29 96 fb 3c d8 a4 50 3d 56 d4 4b 3d
       0.028158324 0.03071125 0.050938457 0.049763046
0001b0 51 52 9c bd b5 8a 8e 3d df f4 81 3d 3b 58 d6 3c
       -0.07632888 0.0696005 0.063455336 0.026165118
0001c0 9f 05 88 3d 6f 0a c0 bd a2 cc a4 bd 12 70 9a bd
       0.06641697 -0.0937699 -0.08046843 -0.07540907
0001d0 59 dc 08 3d 14 bb 4a bd fb 01 be 3c 7b ad c7 bd
       0.033413265 -0.049494818 0.023194304 -0.09749886
0001e0 c7 df 40 bc f6 bb 2f bd de 86 cc 3c 16 47 4e bd
       -0.011772103 -0.042903863 0.024966653 -0.05036076
0001f0 86 15 ad 3d c0 60 f7 bb 57 d8 bf bd a9 8e 38 bc
       0.08451371 -0.0075493753 -0.093674354 -0.011264482
000200 60 64 38 3d 5c 70 72 bd 5b 18 29 3d 90 52 11 bd
       0.0450176 -0.059189186 0.041282993 -0.03547913
000210 f3 54 59 bd 63 df 00 bd fe ec aa 3c 98 55 67 3c
       -0.05305953 -0.03146304 0.02086496 0.014119528
000220 1e 12 a2 bd c7 a8 4e bd 75 1e 66 3d a1 10 7b bd
       -0.07913612 -0.050453927 0.05618139 -0.061295155
000230 99 35 8b bb 6a d0 53 bd fe 0e c7 3d 4d 54 5c 3b
       -0.0042483327 -0.05171243 0.097196564 0.0033619583
000240 14 3f 66 bd 82 b5 9c bd 9f 4d a6 bd d4 c2 89 bd
       -0.0562125 -0.07651807 -0.08120274 -0.06726614
000250 b2 0a 72 bb de fa 91 3d d8 91 aa 3c fc db af 3c
       -0.0036932644 0.07127927 0.020821497 0.021467201
000260 85 8c 8a 3c 3b a7 b5 3d d3 9a 86 3d 8c f4 65 bd
       0.016912708 0.08869787 0.06572499 -0.05614142
000270 4d 00 12 bb 4e 3b c7 3c 8b eb 84 bc f0 25 08 bd
       -0.0022278011 0.02432027 -0.016225597 -0.033239305
000280 57 e7 af 3d 11 af 2d bd 47 70 55 3d e9 be d4 bb
       0.085890464 -0.042403284 0.05210903 -0.006492485
000290 41 5c 72 bd dc 88 ba 3b d1 04 ae bc 63 89 a1 bd
       -0.05917001 0.0056925844 -0.021242531 -0.078875326
0002a0 27 a9 af bd 6e cf 6d 3c f4 6e 5a bd 4e 96 12 3d
       -0.08577185 0.014514787 -0.05332847 0.035787873
0002b0 a4 7c 32 bc b1 a7 78 bd 6e 8b dc 3c 89 53 a1 ba
       -0.010893974 -0.060706798 0.026921954 -0.0012308221
0002c0 27 f7 4e bd 51 a5 c9 bd 21 2f 9a 3d 72 66 f2 3c
       -0.05052867 -0.09845985 0.075285204 0.029589865
0002d0 f9 18 f4 bc 54 83 a0 3d 82 d2 8b 3d 05 d1 8c 3d
       -0.029797064 0.07837549 0.068272606 0.06875805
0002e0 63 f3 1b bd c7 0f a0 3d 95 1b 86 bd 1a 15 b3 3d
       -0.03807391 0.07815509 -0.065482296 0.08744259
0002f0 8b 5e 87 3d ed fc 9b 3d c1 9c 82 3d 32 25 b6 bc
       0.066098295 0.07616601 0.06377555 -0.022234533
000300 b1 db 7b bd b2 9c 75 3d 4c b9 b5 bd c6 cd 14 3c
       -0.06148881 0.05996389 -0.08873233 0.009082263
000310 47 0c c2 3c 5f 3c 96 bd 0b f0 f3 bb 8e 8f f7 bb
       0.023687495 -0.073357336 -0.007444387 -0.007554955
000320 ac 29 49 bd 9c 77 20 bd a7 96 82 3d 26 58 9c bd
       -0.049112007 -0.03917657 0.06376391 -0.076340005
000330 0d c2 08 3c 22 99 b4 bd da c7 98 3d b1 a5 b0 bc
       0.008347047 -0.0881827 0.07459994 -0.021563383
000340 6d d0 20 3c 84 32 58 bc b6 e7 04 bd 6e 35 8c bd
       0.009815318 -0.013195638 -0.03244754 -0.068461284
000350 88 52 7c bd 32 94 a7 bc 18 df 95 bd 36 ab af 3d
       -0.061602145 -0.020456407 -0.073179424 0.08577578
000360 a4 0b 92 3d 3c 27 40 bc 97 81 a4 3d f6 6f 79 bc
       0.071311265 -0.011728104 0.0803253 -0.0152244475
000370 e8 bb b2 bd b3 96 17 3d 93 b2 a0 3d c5 d3 8d 3d
       -0.087272465 0.037008952 0.0784656 0.069251575
000380 b1 33 29 3d de 1a e6 bc c7 ef bd bd d5 18 8f 3d
       0.041309062 -0.028088983 -0.092742495 0.06987158
000390 8c 86 63 3d a6 ea ac 3c ae a3 97 bb e1 fb 9c 3d
       0.055548236 0.021107983 -0.0046276664 0.076652296
0003a0 50 31 00 bb de ba 71 bd 71 cd c9 3d 71 dc 37 3d
       -0.0019560643 -0.0590161 0.09853638 0.044887964
0003b0 af 3b 3e bd b3 de 0c bd d1 77 c1 3d 6c 87 bb 3d
       -0.046443637 -0.03439207 0.09446681 0.09156689
0003c0 ba 77 8e bd 0d e6 c3 bc 6c 1b 37 3b 2b de ad 3d
       -0.0695643 -0.023913408 0.0027939929 0.08489641
0003d0 a3 83 ae 3d d2 11 ee bb 33 8e 3b 3c a5 d6 59 ba
       0.085212015 -0.007265308 0.011447477 -0.00083098776
0003e0 91 63 dd bb 62 4d 8b 3d 1a 2f 45 bd 18 3e c0 3d
       -0.006756254 0.06801869 -0.048140623 0.093868434
0003f0 fa 3c bc 3d 12 59 99 bd 72 f4 4f bd ee ed 94 3d
       0.09191318 -0.07487692 -0.05077023 0.07271944

c1.6.bias f4 [3]
000000 64 20 79 bd 5a f7 a9 3d 45 14 ce 3d
       -0.060821906 0.08299132 0.1006246

c1.9.weight f4 [3]
000000 31 17 7f 3f c9 1f 80 3f 1d 54 80 3f
       0.9964476 1.00097 1.0025669

c1.9.bias f4 [3]
000000 9b 16 82 b0 29 9b 19 af 6e 9a 5c 2f
       -9.46517e-10 -1.3970393e-10 2.0063748e-10

c1.9.running_mean f4 [3]
000000 74 7a 34 3e 66 5a 6f 3e 4c 81 94 3e
       0.17624837 0.23374328 0.29004896

c1.9.running_var f4 [3]
000000 8f 39 86 3e 58 66 a5 3e 30 7a d3 3e
       0.2621579 0.32304645 0.4130416

c1.10.weight f4 [2, 3, 3, 3]
000000 57 8b 31 3e 2b 28 3b bd 3b c4 3e ba 0a 02 c0 bd
       0.1733831 -0.045692604 -0.00072771654 -0.09375389
000010 3a 87 66 3d 63 ec 03 bc 3d 7a 20 3e 34 a5 bb 3d
       0.056281306 -0.008051964 0.1567163 0.09162369
000020 f9 26 e1 3d 58 34 bc 3d 5a f4 cd bc 47 e1 67 3d
       0.109937616 0.09189671 -0.02514093 0.056611326
000030 b5 07 41 3d 49 5c d0 bd 6e 2f 72 bd 43 75 ff bd
       0.04712649 -0.10173852 -0.059127264 -0.12473538
000040 c1 53 bf bd 25 0b fe 3d 15 b8 46 3e e9 81 dc 3d
       -0.09342147 0.124044694 0.19406159 0.10766966
000050 c5 eb 2e 3c f6 94 b6 3d a9 a0 a7 3c 4e 22 0f be
       0.010676329 0.08915131 0.02046235 -0.1397793
000060 43 cb 64 3d 9f 4e 1d be a7 c9 e8 bd 69 db 05 3e
       0.055857908 -0.15362023 -0.11366587 0.1307198
000070 a9 bc 2c bc 3e 82 39 3e 0f 62 c3 bd f5 b8 f7 bd
       -0.010543027 0.1811609 -0.095401876 -0.12095825
000080 fb 94 14 3e e3 57 33 bd c1 2e 09 bd 86 6d 46 bd
       0.14509957 -0.043784987 -0.033491854 -0.048444293
000090 79 36 ec 3d d8 e1 da 3d 07 2b 17 3e da c9 3e 3d
       0.11533827 0.106876075 0.14762507 0.04657922
0000a0 e7 da 67 3d 91 86 73 bb 45 d9 f1 3d c1 37 84 3d
       0.056605246 -0.0037159065 0.11809019 0.06455947
0000b0 a6 03 14 be 27 b0 cf 3d cb e2 43 3e 20 21 fd bd
       -0.14454517 0.1014102 0.19129483 -0.12359834
0000c0 83 2c 0a be 3c b6 96 3d 53 29 3d 3d d5 25 42 3d
       -0.13493542 0.07358977 0.046181988 0.04739936
0000d0 2d 07 af 3d f1 a3 69 bd
       0.085462905 -0.057041112

c1.10.bias f4 [2]
000000 f2 9e 74 bd 97 8b 03 bc
       -0.059721895 -0.008028886

c1.11.weight f4 [2]
000000 d2 25 7b 3f af 7c 7b 3f
       0.98104584 0.9823713

c1.11.bias f4 [2]
000000 6f 99 21 3a 26 cf 97 ba
       0.0006164526 -0.0011582121

c1.11.running_mean f4 [2]
000000 ee 9e 74 bd 8c 8b 03 bc
       -0.05972188 -0.008028876

c1.11.running_var f4 [2]
000000 7e 5f 93 3e 4c c8 99 3e
       0.28783792 0.30035627

d1.0.weight f4 [444, 128]
000000 44 32 c0 3c f3 d8 ad 3d bc 5d 83 3d 4a 67 fe bc
       0.023461469 0.084886454 0.06414363 -0.031055111
000010 81 af 87 3d de 58 a8 bd 0e 95 12 3d 52 04 22 3c
       0.066252716 -0.08220075 0.03578668 0.009888725
000020 76 ec 5a bd 82 01 5b bc 0a 69 a7 bd fa 1f 5a 3d
       -0.053448163 -0.013367059 -0.081743315 0.05325315
000030 71 b4 a8 3d 7d 3a 9b ba b2 6d b1 3d b4 33 3c bc
       0.082375415 -0.0011842992 0.08663501 -0.011486936
000040 f4 89 6d 3d 63 ff 0f 3d 3d 77 6d bc 3a 03 8a bc
       0.05799289 0.035155665 -0.014493761 -0.016847242
000050 f6 d1 e9 bb 94 0b 9a 3d d6 86 a8 bd 12 27 93 bd
       -0.007135625 0.075217396 -0.08228843 -0.071851864
000060 18 11 d7 bc 5a f7 84 3c 64 b7 52 bd 54 d1 d2 bc
       -0.026253268 0.016231228 -0.051444426 -0.025734581
000070 86 e8 fd bc 09 b2 04 bc 8a 8e e1 ba f2 ea aa 3d
       -0.030994665 -0.0080990875 -0.0017208618 0.083455935
000080 24 e1 52 bd e4 0e 79 bd ab a1 f7 3b c8 f5 26 bc
       -0.051484242 -0.060805216 0.007557114 -0.010190435
000090 d2 62 97 3d 67 45 8f 3d 2e 4a 20 bd d3 6e aa 3d
       0.07391895 0.06995659 -0.039133243 0.08321919
0000a0 21 50 d5 3c d0 c3 1b 3d a3 35 de 3c 4a 2b 8d bd
       0.026039185 0.03802854 0.027125185 -0.06893022
0000b0 cb 65 ee 3a 26 e2 86 bd 90 d8 e2 3c de 7e 8e bd
       0.0018188296 -0.06586103 0.027691156 -0.06957792
0000c0 0e fe 96 bd c2 ab 58 3c 6d c9 8a 3d 42 b7 8e 3d
       -0.07372676 0.013224544 0.067767 0.069685474
0000d0 4e bd 60 bd b3 03 b2 bd d2 40 03 3d 9a 2d af bd
       -0.054868035 -0.08692112 0.03204424 -0.0855362
0000e0 c0 d0 77 bd 12 ce 9f bd 84 e7 91 3d f6 ba 19 3b
       -0.060501814 -0.07802977 0.07124236 0.0023457385
0000f0 b7 81 92 3d 95 dd 65 bd e2 ec 84 bd 36 8a 92 bd
       0.071536474 -0.05611952 -0.06490494 -0.07155268
000100 b9 d0 8d bd dc 1f b0 bd 51 0a 9b bc 42 db 7b bd
       -0.06924576 -0.08599827 -0.018925818 -0.061488397
000110 b0 fe 4a bd f0 42 13 bd e4 9f 07 bd e0 35 88 3d
       -0.049559295 -0.03595251 -0.033111468 0.06650901
000120 42 99 73 bc ac ff ac bc bc 8d ba 3c ed de 36 3d
       -0.0148680825 -0.021118008 0.022772662 0.044646192
000130 bc 04 aa bb 62 87 a2 bd 9b 14 32 bd 2c 84 92 bd
       -0.0051885527 -0.079359785 -0.043476682 -0.07154116
000140 ab d1 50 3d 4a 46 d0 3c e0 81 95 3d c0 91 9b 3d
       0.050981205 0.025424141 0.07300162 0.07596159
000150 dc 10 d6 3c 10 da 3a 3d 66 fd a7 bd 38 ec a8 3d
       0.026131086 0.045618117 -0.08202629 0.0824818
000160 85 aa 3a 3c 9e c4 89 3d 2e 4b 93 3d 55 59 b6 bc
       0.011393194 0.06726955 0.07192074 -0.022259394
000170 4b ad 6d 3d 42 af 14 3c e2 b8 98 3d 43 b6 34 3c
       0.058026593 0.009074988 0.074571386 0.011029783
000180 a4 02 43 bd f6 cd 7a 3d 2d 94 09 3d fb 2b 4c bd
       -0.04760994 0.061231576 0.033588577 -0.04984663
000190 49 63 2d 3c fd a4 de bc f0 80 b1 bd 9b e7 ad bd
       0.010582753 -0.027178282 -0.08667171 -0.08491441
0001a0 74 c1 93 3c 7e 5d 29 3d 14 90 3e 3d ce 14 a9 3c
       0.018036582 0.041348927 0.046524122 0.020639803
0001b0 2f d2 a9 3d c3 ea c8 bc d0 5f 0e bd 2b 9f a7 bd
       0.082920425 -0.024526006 -0.034759343 -0.08184656
0001c0 0c 0e 2d 3d 46 ce 87 3c 9b 34 a7 bc 9d b7 54 bd
       0.042249724 0.016577851 -0.020410826 -0.05193292
0001d0 72 c0 bd bb 72 6a 23 bd e5 75 92 3d be 91 b9 3c
       -0.0057907635 -0.039896436 0.07151393 0.022652503
0001e0 22 db 75 bd 9c 61 01 3d 80 e1 e5 3b fe ab 6e bc
       -0.060023434 0.03158723 0.007015407 -0.014567373
0001f0 7b d6 4c 3c 8b ad ae bc 5e c5 87 3d 32 88 a6 bd
       0.012502308 -0.021322986 0.06629442 -0.08131446
000200 de 3c 39 bc 4a 8b 9b 3d a7 d2 3a ba d0 88 5b 3b
       -0.011306016 0.07594927 -0.00071267266 0.0033498295
000210 5c 37 ae 3c 61 34 a9 3d ce d3 4f bd ef 9b 7b bd
       0.021266632 0.082619436 -0.050739102 -0.061428007
000220 61 6c 7e 3c 0b 19 6f 3c 65 3b 54 3d 3a a0 85 3d
       0.015528769 0.014593373 0.051814456 0.065247014
000230 fd f1 2a 3d 43 16 ae bd bc a5 82 3c da f8 c4 bc
       0.041734684 -0.0850034 0.015948169 -0.024044443
000240 08 e1 58 bd f4 77 06 bd 28 0b 8e 3d 99 48 c3 bb
       -0.05294898 -0.03282924 0.06935722 -0.005959582
000250 db 56 5a 3d 75 5b 89 bd 68 f2 04 bc d2 63 48 bd
       0.053305488 -0.06706897 -0.008114435 -0.04892332
000260 5e a5 32 bd ef 5e 42 bd ba 9c a1 3d 65 44 0e bd
       -0.043614738 -0.047453817 0.07891221 -0.034733195
000270 ae 90 82 bd 80 01 d7 3c c0 68 a2 bd 49 4b d5 3c
       -0.06375252 0.026245832 -0.07930136 0.026036875
000280 48 b0 87 3d 67 a5 a5 3c 8c 01 df bb da 17 5f ba
       0.0662542 0.020220472 -0.0068056043 -0.0008510329
000290 79 04 32 3d 86 0e 14 3c 29 8a 25 bd 69 d5 13 3d
       0.043461297 0.009036666 -0.040414963 0.036092196
0002a0 06 3c 82 bd a4 0c 9d bd 10 80 02 bd 68 4c 14 bc
       -0.06359105 -0.07668427 -0.03186041 -0.00905142
0002b0 e0 58 9f bd 6b 5f b1 3d 9d 72 ae 3d 46 f9 82 3c
       -0.077806234 0.08660778 0.085179545 0.015988003
0002c0 b2 33 5d 3d 52 9b 34 3c bc bd a7 3d 33 02 9c bd
       0.05400438 0.011023359 0.08190486 -0.07617607
0002d0 bb 50 26 3d 50 a3 66 3d 1a 7b 76 bd 82 7c a9 bd
       0.040604334 0.05630809 -0.060175993 -0.08275701
0002e0 5d 3d 9d bd f2 6c 24 bc 29 5f 41 bd 0d b6 0d 3d
       -0.0767772 -0.01003574 -0.047209892 0.034597445
0002f0 9b 77 af 3c 18 da 50 bd d3 9d 81 bc ca 11 58 bd
       0.021419337 -0.05098924 -0.015822327 -0.05275134
000300 4b dc 49 3d 91 c3 4a bd 3c 52 fe 3c 1b 3b 8f 3d
       0.049282353 -0.049502913 0.031045072 0.06993695
000310 c0 8d 63 bd 3d 24 bf 3b f7 ba 8d 3d e3 50 32 3c
       -0.055555105 0.0058331774 0.06920426 0.010883543
000320 6a ec 07 3d 71 68 5f 3d dd 4c a3 3d 5c 88 f4 bc
       0.033184446 0.054542962 0.07973645 -0.029850177
000330 b6 62 7b 3d 75 d2 3d bd 25 d6 6b 3d ee 49 48 bd
       0.061373435 -0.046343286 0.05757727 -0.04889863
000340 47 2b b5 bc 8d 1d 9e 3c d5 f6 7e bc 38 f2 77 bd
       -0.022115363 0.0193012 -0.015561779 -0.060533732
000350 86 85 36 3d c3 e5 15 bd 4e 71 a7 bd 9d b5 d2 3c
       0.04456093 -0.03659607 -0.08175908 0.025721366
000360 e7 1b 7f 3d 7c 1c c4 bc 62 7a 68 bb cf 3e 95 3b
       0.06228247 -0.023939364 -0.0035473336 0.0045546065
000370 5e a9 88 3d 35 b5 83 bd d7 51 88 bd cb 9c 40 3d
       0.06672929 -0.06431047 -0.06656235 0.04702453
000380 9c b1 02 3b 80 c1 7e 3c 6e 8c 5a bd bb cd fd bc
       0.001994229 0.015549064 -0.05335658 -0.030981889
000390 66 c0 01 3c 0d 4f bc 3c bd 31 b7 bb 9d 1c 02 3c
       0.0079194065 0.022986913 -0.005590646 0.007941392
0003a0 30 78 a8 3d bb 3d 05 3a 90 03 60 bd 9d ff 5c bb
       0.08226049 0.0005082746 -0.054690897 -0.0033721693
0003b0 94 89 2b bd f5 59 26 bd 5d a7 e4 3c 38 bb 0b bd
       -0.04187925 -0.040613133 0.027911836 -0.034114093
0003c0 a5 7f 3c 3d f5 53 2e 3c 5c a5 eb 3b ba b6 13 3d
       0.04602017 0.010640134 0.0071913432 0.036062934
0003d0 4f 8a 80 bd 42 9a 2a 3b 89 c2 7c 3d 90 28 ad 3d
       -0.0627638 0.0026031886 0.06170896 0.08455002
0003e0 4c 18 b9 bc f6 7b 35 bd 3a 4e 4b 3c e9 b1 90 3d
       -0.022594593 -0.04430767 0.012408787 0.07065184
0003f0 54 b2 06 bd 5d e6 74 3d 96 04 17 bd ed 37 b2 bd
       -0.03288491 0.059790004 -0.036869608 -0.08702073

d1.0.bias f4 [444]
000000 ff f5 fa b9 a3 96 ac 3d 0a 67 9d bc 4a cd 8b bd
       -0.00047866997 0.08427169 -0.019214172 -0.06826265
000010 2a bd 9b bd e9 7b 5a bd 79 8d 68 bd 83 9c 3d bd
       -0.076044396 -0.053340826 -0.056775544 -0.04629184
000020 44 10 55 bc cb 12 0d 39 8d fe e4 ba 06 bd 47 bd
       -0.013004366 0.00013453809 -0.0017470882 -0.04876425
000030 b1 9c 81 3d d4 82 2f 3d 44 73 de 3c 5f 09 77 3d
       0.06328715 0.042849377 0.027154572 0.06031167
000040 a3 03 70 3d 25 d6 f0 3c 40 65 a5 3d 98 39 6d 3d
       0.05859722 0.029398987 0.080759525 0.057916254
000050 01 11 b5 bd 09 6b e0 ba 93 d0 84 bc 46 44 c4 39
       -0.08841134 -0.0017121743 -0.016212737 0.000374349
000060 af 8c 0b bd 83 e1 bb bc 7a b0 e3 3c 00 33 a8 3c
       -0.034069713 -0.02293468 0.027794112 0.020532131
000070 10 41 a1 bd cb 1e 77 bd 9a 0c aa bd af 83 9b bd
       -0.07873738 -0.0603321 -0.08303185 -0.07593476
000080 fe bc 99 bd 53 16 10 3d b1 a0 f4 bc 16 3a af 3d
       -0.075067505 0.03517754 -0.02986178 0.08556001
000090 fb 3d 94 3d 30 eb 2b 3c 22 02 79 bd 63 d7 6b 3c
       0.07238384 0.010493085 -0.06079305 0.014394614
0000a0 2b f4 44 bd cc 93 b2 3c 24 fc a0 bd 26 e4 a8 bd
       -0.04808442 0.02179899 -0.07860592 -0.08246641
0000b0 71 4b ea bc dc 16 c2 bb c8 73 41 3d 39 f0 63 3d
       -0.028600426 -0.005923135 0.04722956 0.055649016
0000c0 22 4c 71 bd e5 c4 43 3d 9a 8c 2b bd 9b e8 89 bd
       -0.058910497 0.047795195 -0.041882135 -0.06733819
0000d0 f7 ea 6c bd 42 f4 28 bd 0c d1 a4 3d fe e6 b6 bb
       -0.057841267 -0.041248567 0.08047685 -0.0055817356
0000e0 8b da 6e bd 3b d9 35 bd 80 26 d1 3b 47 fc ae 3d
       -0.058313888 -0.04439662 0.0063827634 0.08544212
0000f0 30 2c 46 bb 23 ba a7 3a 1a 6c 11 3d b6 79 91 ba
       -0.003023874 0.0012796562 0.035503484 -0.0011098895
000100 da a6 cc bc cc 06 77 3d 26 6d 51 3b 47 43 b1 bd
       -0.024981905 0.060309216 0.0031955927 -0.0865541
000110 99 ce be 3c d7 62 43 3b 79 8e 53 bd d4 90 84 3b
       0.023291873 0.0029813552 -0.051649544 0.004045585
000120 b5 2b b5 3b d7 81 21 3c e1 36 52 3d b5 a4 b2 bd
       0.005528892 0.009857616 0.051321868 -0.087228216
000130 2a 09 32 bc 67 42 d3 3c 77 93 84 3d 04 a6 f7 bc
       -0.010866443 0.025788499 0.06473439 -0.03023053
000140 24 69 9a 3d fc f7 83 bd 1e ef 81 3d 78 b3 6e 3d
       0.07539585 -0.06443784 0.06344436 0.058276623
000150 63 1d e6 bc 01 1a 6d bd 85 2b 8b 3d 94 19 76 ba
       -0.028090185 -0.057886127 0.0679541 -0.0009387967
000160 51 0e 18 3d dc b2 9e bc b5 22 38 3d 50 33 a1 bd
       0.03712303 -0.019372396 0.044954974 -0.07871115
000170 a6 b8 0a 3d 92 a5 99 bd 3f a9 5c 3c 47 93 08 bc
       0.0338675 -0.07502283 0.013468086 -0.008335895
000180 2f 16 8e 3d be 27 a8 3c d4 db 66 bd 96 7a 28 3c
       0.06937825 0.020526763 -0.05636199 0.010283133
000190 7e 60 4f 3d 29 f1 99 3d b2 82 11 bd 82 b6 84 bd
       0.05062913 0.07516701 -0.03552503 -0.06480123
0001a0 ee b5 53 bd f9 59 9d 3d d6 7a bb 3b 44 dd 57 3c
       -0.051687174 0.076831765 0.0057214303 0.013175312
0001b0 31 bd aa bc f4 cb 36 bd 24 6e 28 bd b9 ba a8 3b
       -0.020842167 -0.0446281 -0.041120663 0.005149212
0001c0 71 ec 83 3d 6d 25 eb bc b8 02 d5 3c 56 ec 9c 3d
       0.06441582 -0.02870437 0.026002273 0.07662265
0001d0 cf 72 5c 3d 11 88 91 3d ba c7 8f 3d 41 ab 2f 3c
       0.053820428 0.07106031 0.07020517 0.010721982
0001e0 9d 97 8f bd df 27 0d ba d2 91 b0 3d 61 e9 b3 3c
       -0.0701134 -0.00053846644 0.08621563 0.02196187
0001f0 2a ec 9c 3d f8 36 5e bd e0 88 8d 3c 13 65 2d bc
       0.07662232 -0.05425164 0.017277181 -0.01058318
000200 85 8c a9 bd 60 8c 74 bd 41 ad a8 3d 37 10 49 bc
       -0.08278755 -0.059704185 0.082361706 -0.012271932
000210 d2 ff 82 bd 69 7a 03 bd 60 a2 91 3d 6a 6d a7 bd
       -0.0639645 -0.03209916 0.07111049 -0.08175166
000220 93 0c c8 bc a1 ba 16 3c 7b e0 7b bd d7 30 98 bd
       -0.024420058 0.009199769 -0.061493378 -0.074311905
000230 f9 60 92 bb 80 a4 a9 bc ab 08 7d bd bb 9c b3 bd
       -0.0044671264 -0.020708323 -0.061775845 -0.08770128
000240 c1 32 e0 3c 7c 29 8c 3d 08 15 39 3d 93 96 e6 3c
       0.027367951 0.0684385 0.045186073 0.028147971
000250 2d 8f 62 bd 25 d6 84 bd 5d e3 99 3d 0a ff 75 3d
       -0.055312324 -0.06486157 0.07514069 0.060057677
000260 e4 a3 7d bd b4 85 89 3c 27 bd 8b 3d 60 45 89 bd
       -0.061923876 0.016787387 0.06823187 -0.06702685
000270 0b 5e 7d 3c 0d 61 1a 3d 3a 7f ea bc d9 a3 06 bd
       0.015464316 0.03769021 -0.02862512 -0.0328711
000280 36 37 3f 3d 57 73 71 bd 06 42 13 3d 68 cc 01 3d
       0.046683513 -0.058947887 0.035951637 0.031689078
000290 2e e1 8d 3d d9 fb 83 3d f7 e2 9c 3d 4f 6d 8c bd
       0.06927715 0.064445205 0.076604776 -0.068567865
0002a0 b5 0a 37 3d 26 12 c0 bc 5a 20 01 3d 77 18 8b 3d
       0.044687945 -0.023446154 0.031524993 0.06791776
0002b0 f2 cb e8 3c 3b 75 9f bb c5 86 91 3d d1 85 54 3d
       0.028417561 -0.00486627 0.071057834 0.05188543
0002c0 e9 6c ab bc fc b5 13 3c 65 c3 0e 3b 05 e5 2d 3d
       -0.020925956 0.009015556 0.0021783945 0.04245474
0002d0 31 18 7b bd 2d 48 1c bc 1f 0c 27 3d 96 b4 08 3c
       -0.061302368 -0.009538692 0.040783044 0.008343836
0002e0 18 22 43 bc 89 4c 98 bc 9e a8 86 bb 39 8a 35 3d
       -0.011909984 -0.018591182 -0.004109456 0.044321273
0002f0 80 f9 86 bc 55 48 65 3d 0e 7b 85 bd bc 59 af 3d
       -0.016476393 0.055977184 -0.065176114 0.08562037
000300 ae 00 b3 bd 0b 43 2f 3d 60 8a 5a bd 8b 14 2a 3d
       -0.08740364 0.042788547 -0.05335462 0.041523498
000310 2a 30 b7 3d 3e 15 05 bd 2a bb 38 bd f7 d3 ab bd
       0.089447334 -0.03249096 -0.04510037 -0.083900385
000320 19 55 36 3d c0 53 35 3d 57 f3 c2 3b 65 89 85 3d
       0.04451475 0.044269323 0.0059494185 0.065203466
000330 a7 4c 48 bc 41 2f 88 3d 51 47 d2 3b c2 4a 8d 3d
       -0.012225307 0.06649638 0.006417193 0.068990245
000340 02 f1 30 3c c0 79 a4 3d 0e ea ae 3c f7 1c a6 3d
       0.010799648 0.080310345 0.02135184 0.08110993
000350 5e 31 6d 3d 1b 4d 92 3c c0 39 76 bd fb 5b 9c 3d
       0.05790841 0.017859032 -0.06011367 0.076347314
000360 1c 40 20 bd ff 47 2b 3d 26 d3 9c 3d 71 7c 97 3d
       -0.03912364 0.041816708 0.07657461 0.07396782
000370 3f af a0 3d 11 c9 89 bd 99 9a 09 bd bc 75 ae 3d
       0.078459255 -0.067278035 -0.0335947 0.0851855
000380 c4 dc 25 3d 55 b9 5d 3d 70 60 85 3d 5d 05 db bc
       0.04049374 0.054131825 0.065125346 -0.026735956
000390 3f b6 95 bd 00 95 fc bc b6 73 aa 3d 44 c8 6a 3c
       -0.07310151 -0.030832767 0.08322851 0.014329974
0003a0 2e c1 8c bd e8 06 12 bd 67 3a 8e 3d 7a cb bd bc
       -0.068727836 -0.035651118 0.06944733 -0.023168314
0003b0 5f b8 a1 bd 21 4b 97 3d 1d df 82 3c 1e 70 ac bd
       -0.07896494 0.073873766 0.01597553 -0.08419822
0003c0 7a ee 84 3d 6a fd 64 3c c9 66 8c 3d 83 29 f6 bc
       0.06490798 0.013976434 0.06855542 -0.030049091
0003d0 e9 25 29 bd 4d aa 0a 3d 4c f5 5d bc 2a 47 9b 3d
       -0.04129592 0.033853818 -0.013547253 0.07581933
0003e0 57 fb 55 3c 13 60 c3 bc 37 39 7f 3d 0d 48 46 bd
       0.013060412 -0.023849523 0.062310424 -0.048408557
0003f0 bc 78 8b bd fa 78 63 3d 13 17 bb bc 97 2c aa bd
       -0.06810138 0.055535294 -0.022838151 -0.08309286

d1.2.weight f4 [256, 444]
000000 91 9d 29 3d ad 18 61 3b a7 5f f4 bc c7 5c 34 bd
       0.041410033 0.0034346983 -0.029830767 -0.044033792
000010 9a 47 94 3c 47 58 3a bd b9 ea 2b bd 05 f8 ac bb
       0.018100549 -0.045494344 -0.041971896 -0.0052785897
000020 0f ba 55 bc 03 59 d4 bc da 70 9b bc 54 13 42 3d
       -0.013044848 -0.02592135 -0.01897471 0.047381714
000030 ee 36 16 bc 8e d4 31 3d d8 59 99 bc f4 f1 bf bc
       -0.00916837 0.0434156 -0.018719599 -0.023430802
000040 60 90 2b 3d 55 93 8c 3c 48 2b c9 bc e2 dd 61 bc
       0.041885734 0.017160097 -0.02455677 -0.013785811
000050 25 a1 4c bc 6f 0e 3c 3d d6 1c 4c 3c e4 ed 28 39
       -0.012489592 0.045912202 0.012458047 0.0001611035
000060 4d b9 ce 3c 7d e2 15 bc 3b 77 fd bc c9 bc 28 3d
       0.025234843 -0.009148237 -0.030940643 0.041195665
000070 c6 40 6e bb d8 ec cc bc 57 5c 29 3d a9 17 8c 3c
       -0.0036354526 -0.02501528 0.041347828 0.017101126
000080 8b 12 0a 3c 54 f4 bd bc e5 38 26 3c 8e 49 3c bd
       0.008427273 -0.023187794 0.010145401 -0.045968585
000090 ca 99 d4 bc b4 f8 38 3d b4 54 6e 3c 54 d8 a6 3b
       -0.025952239 0.045159057 0.014546562 0.0050917063
0000a0 03 ba 30 3d b0 a7 2a 3c 39 69 1d bd b4 4f 21 3d
       0.043146145 0.010415956 -0.038430426 0.03938265
0000b0 19 5a dd 3c 3c 70 3c 3d fe 12 a4 3c c3 81 0c 3d
       0.027020501 0.046005473 0.020028587 0.034303438
0000c0 96 bd 82 bb 2d 52 ab 39 b5 e7 2c bc 83 ab a1 ba
       -0.0039898856 0.00032676887 -0.01055329 -0.001233444
0000d0 c0 23 0e bd db 85 96 3a fe 12 2d bd df 96 7f 3c
       -0.034702063 0.0011483984 -0.04225444 0.015599935
0000e0 5f 3c 33 bd 73 d2 f5 bc f8 a4 28 3d 44 61 92 bc
       -0.043758746 -0.030007577 0.04117295 -0.017868645
0000f0 6c 4c e6 3c 00 ba c4 bc 14 47 11 bd a8 57 3b bd
       0.028112613 -0.024014473 -0.035468176 -0.045737892
000100 01 3d 17 3d 2c 22 49 bc 9b e4 bb bc d6 67 fc 3c
       0.036923412 -0.012276214 -0.022936156 0.030811232
000110 f5 79 24 bd 0e 17 a0 3c c0 70 ad 3c e0 80 f0 3c
       -0.04015537 0.019542243 0.021171927 0.029358327
000120 7f 0c c2 bc 99 d9 3b bd 39 d4 1c bd f2 7c 2c bd
       -0.0236876 -0.045861814 -0.03828833 -0.042111345
000130 88 31 40 bd 21 63 3b 3c 1e 2d 36 bd 9e 87 9b 3c
       -0.046922237 0.011437208 -0.04447662 0.018985566
000140 b3 66 87 3c 25 c0 ca bb ba 1c 38 bd f3 83 40 bd
       0.016528463 -0.006187456 -0.04494927 -0.047000837
000150 f7 5a 15 3b 8d b9 9e bc c6 4b b6 bc b5 79 20 3d
       0.0022789815 -0.019375587 -0.022252928 0.03917857
000160 7e d1 22 bd 4a a3 21 3d 3b ba 00 3d 04 31 fd 3a
       -0.03975057 0.039462365 0.031427603 0.0019316976
000170 63 87 1b 3d 03 99 13 bd 69 a3 1b 3c aa 12 8a 3c
       0.03797091 -0.036034595 0.009499409 0.016854603
000180 25 ef d5 3b 98 cf b1 3c 25 95 f5 bc b6 a6 19 bd
       0.0065287524 0.021705434 -0.029978344 -0.037512504
000190 23 54 27 3d c2 44 3a bd 18 38 23 3d ab b4 a3 3b
       0.040851723 -0.04547573 0.039848417 0.0049959025
0001a0 d6 f6 5d 3c 38 90 68 3c c4 ef 01 3d 94 49 ee 3c
       0.01354762 0.014194541 0.0317228 0.02908782
0001b0 7e d4 3c 3d 0f a9 31 bd 7a 04 22 3b fb 63 8a 3c
       0.046101086 -0.043374117 0.0024721907 0.016893378
0001c0 b1 33 11 3b eb e2 06 3d d5 06 86 3c d1 4a 65 bc
       0.0022156055 0.03293125 0.01636068 -0.013994888
0001d0 44 09 eb bc 47 9d b6 bb 4c ef 38 bd d7 e4 1e 3d
       -0.028690942 -0.005572948 -0.045150086 0.038792457
0001e0 43 fe 3f bd 92 42 bf b8 dd 7c 35 3d 91 51 22 3b
       -0.046873342 -9.1199894e-05 0.044308532 0.0024767856
0001f0 3e 3a 5e bc 51 7b 14 3d 16 11 76 bc 68 07 a5 3c
       -0.013563691 0.036250416 -0.015018722 0.020145133
000200 90 d6 09 3b 8f 91 16 bd 1b 9c 07 bd b1 f2 08 bd
       0.002103243 -0.03675991 -0.03310786 -0.033434574
000210 40 da a5 3c 86 65 e1 3c dc 22 16 bd fd 20 04 3d
       0.020245671 0.02751423 -0.03665434 0.032258023
000220 5c af b7 bb 0d 07 9d 3b d3 b2 09 3d 49 a2 ce 3c
       -0.0056056213 0.0047921003 0.033617806 0.025223868
000230 ea e9 9e bc 9a e3 47 3c e4 d9 67 3c 31 78 11 3d
       -0.019398648 0.012200261 0.01415107 0.035515014
000240 c9 39 c2 3b 12 79 02 bc c0 43 13 3d fd a2 04 bd
       0.0059272987 -0.007963436 0.035953283 -0.032382
000250 bd 8a 95 bb 6c 7d c2 bc ff 24 2d 3d 28 69 54 bb
       -0.004563658 -0.023741446 0.04227161 -0.003241131
000260 d4 f4 25 bd d8 99 67 3c 8b 04 28 bd 51 36 66 3c
       -0.04051669 0.0141358 -0.041019958 0.014051036
000270 cc a6 22 bd a7 d7 2a 3a 16 bc c6 3c 58 6b f1 bc
       -0.03970985 0.000651712 0.024259608 -0.02947013
000280 dd 3a a1 bc 2a a0 00 bd cb c4 cc bc b7 30 bf 3c
       -0.019681389 -0.031402744 -0.024996182 0.023338659
000290 c2 2b 15 3c 05 36 1e 3d dc a0 ce bc c7 21 60 3c
       0.009104671 0.038625736 -0.025223188 0.013679928
0002a0 f2 04 2a 3d a4 e1 78 bc 27 31 2d 3d 83 3d 7c 3a
       0.041508622 -0.015190516 0.042283203 0.0009622203
0002b0 f3 43 05 bd c5 36 e0 bc fa 01 41 3d 11 ad 30 bc
       -0.032535505 -0.027369866 0.047121026 -0.01078345
0002c0 b3 be 05 3d d2 fb b0 bc d0 56 f4 3a 3d d6 8d bb
       0.032652568 -0.021604452 0.0018641595 -0.0043285177
0002d0 7b 56 c4 3c d9 6a bb bb 79 92 2b bd ad 06 1b bd
       0.023967018 -0.0057195243 -0.041887734 -0.037848163
0002e0 eb 3c 06 3d 43 4c b4 bc 44 c6 fd 3c 71 2d 64 bc
       0.03277294 -0.02200902 0.03097833 -0.01392685
0002f0 f8 4f 09 3d 5e a2 b0 bc 08 d5 a3 bc 73 3a 37 3c
       0.03352353 -0.021561798 -0.019999042 0.011183369
000300 74 85 0e 3d 59 bb 92 3c b6 5a 14 3d d2 5c f9 bc
       0.03479524 0.0179116 0.03621932 -0.030439768
000310 4e 42 ad 3c 1c 61 07 bc a1 62 08 3d c2 86 35 3d
       0.02114978 -0.008262899 0.033297185 0.04431797
000320 46 dd a7 bc 05 7a e7 3c 02 12 01 3d c5 03 07 bd
       -0.020491254 0.028256426 0.031511314 -0.03296258
000330 7f ff dc 3c fb 99 2a 3d d7 bc f9 bb 8b 25 9f b9
       0.026977299 0.041650753 -0.0076213884 -0.00030354815
000340 bb 69 d1 bb d5 b1 d5 3b 64 77 a3 bc ac 35 c6 3c
       -0.006390778 0.0065214434 -0.01995439 0.024195515
000350 b4 0a ef 3c 0f 6a c1 bb 5f 25 3c bc 09 9d 36 3d
       0.029179908 -0.0059025357 -0.011483519 0.044583354
000360 71 73 96 39 2d d8 e3 bc cb 8b 80 3c 64 5e 86 bc
       0.0002869624 -0.027813042 0.015691658 -0.01640243
000370 08 3b f6 3c de ab 35 3d 99 72 35 3d 56 22 d4 3c
       0.030057445 0.04435336 0.044298742 0.025895279
000380 c9 bb 06 3d c5 42 f6 3c 06 9b d8 3c ba e6 dc bc
       0.03289393 0.030061135 0.026441108 -0.026965488
000390 4e 3b 89 3c 0e 53 01 bb 2e 0f 3c 3d 1b 98 da bc
       0.016751911 -0.0019733342 0.045912914 -0.026683858
0003a0 b2 24 f6 bc 48 da d0 3c c1 d0 f2 3b 7d 81 43 3b
       -0.030046795 0.02549471 0.0074101393 0.002983182
0003b0 83 92 36 bd 55 53 a7 3a 4a 8a 6a 36 f9 d3 01 3d
       -0.04457332 0.0012765924 3.4949212e-06 0.031696294
0003c0 c9 d7 fd bb 43 1d 41 3d c4 00 bb bc 39 e5 7f 3c
       -0.007746671 0.047147047 -0.022827514 0.015618616
0003d0 62 5a 09 3d d7 75 de 3c 15 17 1c bb e7 b5 19 3d
       0.03353346 0.0271558 -0.002381747 0.03752699
0003e0 0c 8f 32 bd 33 87 a2 3c 78 f3 39 bd 73 34 90 3c
       -0.04359345 0.019839859 -0.045398206 0.017603135
0003f0 1c e5 bc 3b 94 2c 40 bc 58 09 2c bd 55 30 4a bb
       0.0057646167 -0.011729378 -0.0420011 -0.0030851562

d1.2.bias f4 [256]
000000 20 b1 0a bd 8f 15 d0 bc 9f 42 22 bd a1 37 1c 3d
       -0.033860326 -0.025400905 -0.039614316 0.03813899
000010 e9 b5 26 3d 2d 34 4b 3d 2d ed 16 bd db b0 40 bd
       0.040700827 0.049610306 -0.036847282 -0.047043663
000020 a1 e7 c7 bb de 24 a7 bb 41 49 b8 3c d1 6b c8 bc
       -0.0061006104 -0.0051008305 0.022495868 -0.024465473
000030 0f de ff bc b2 a4 fd bb 60 27 d8 3c ec 8a 8b bc
       -0.031233815 -0.0077405805 0.026385963 -0.017034017
000040 b2 4e dd bc e5 10 14 3c b8 83 6e b7 c4 8f 2d bd
       -0.027015064 0.009037231 -1.4216574e-05 -0.042373434
000050 db a9 35 3c ef eb aa bc 65 99 0b bc f0 ad 43 3c
       0.01108786 -0.020864455 -0.008520459 0.011943325
000060 10 7f be bc 71 59 1e bd f0 e0 fb bb 91 09 3b bc
       -0.023253947 -0.038659517 -0.0076867267 -0.011415855
000070 d1 ca 21 3d a3 de af bb 41 59 0b bd b8 e7 f4 3a
       0.03950006 -0.0053671165 -0.034020666 0.001868478
000080 d6 41 98 39 9f 9d 5f 3c 52 8e 0e 3b 24 66 d0 bc
       0.0002904075 0.01364842 0.002175231 -0.02543933
000090 9d f5 36 3d ff 8a 23 3b 2f bf 2d 3c 4f fb d7 bc
       0.04466783 0.0024954674 0.010604664 -0.02636495
0000a0 c6 aa a6 bc 5b 45 2a bc 0e 91 95 3c 5c 45 1f 3d
       -0.020345103 -0.010392512 0.018257644 0.038884506
0000b0 9f b8 d2 3a 6f 94 41 bd c6 4d 1d bd 54 a5 c8 3c
       0.001607675 -0.047260698 -0.03840425 0.024492897
0000c0 4c 70 5d 3c 10 72 34 3d 07 51 a4 3c 75 96 21 bd
       0.013515543 0.04405409 0.020058168 -0.039450128
0000d0 6d 47 d5 3c 28 29 ce bc e2 d8 23 bc 43 60 03 3d
       0.026035035 -0.02516611 -0.010000439 0.032074224
0000e0 db 00 2b 3c 4d 5e c2 38 16 ec b5 bc 24 b7 5a 3c
       0.010437216 9.268206e-05 -0.022207301 0.013349328
0000f0 1f dd dd bc c4 c4 0d 3d 2c e3 9f ba 75 44 26 3c
       -0.027082978 0.03461148 -0.001219844 0.010148157
000100 9c 79 bf bc e9 60 98 3c f4 63 5f 3c 58 c5 16 bd
       -0.023373418 0.018600898 0.0136346705 -0.036809295
000110 37 f8 1c bd 39 af 3b bc 11 0a 2c bd 07 c5 c4 3b
       -0.038322654 -0.011455351 -0.042001788 0.006004933
000120 b4 45 ff 3c 49 f9 11 3c 36 bc 09 bd b5 14 05 bd
       0.031161167 0.008909532 -0.033626758 -0.03249045
000130 cc 13 53 3d 2d bd 22 3d d2 a9 98 bb dc ab 3d 3c
       0.05153255 0.039731193 -0.004658916 0.011576619
000140 de 81 ee bc 84 41 93 39 80 a2 a5 3c 8e 48 12 3d
       -0.02911466 0.00028086838 0.020219088 0.035713725
000150 3f aa a7 3c fb 46 ba bc a2 d2 2a bd bb 06 a8 3c
       0.020466922 -0.022738924 -0.04170478 0.020511022
000160 d8 52 88 3c 67 7c a8 bb 22 1f a8 3c b0 20 97 3c
       0.016641065 -0.005141783 0.020522658 0.018448204
000170 95 2a b2 bc cb 1c 0e 3d 1f bc 8a bc 35 e6 09 3d
       -0.02174882 0.034695428 -0.016935406 0.03366681
000180 ec 7f 29 3c f4 8f 9a bb 34 f0 c2 3a ff d7 72 bc
       0.01034544 -0.0047168676 0.0014872612 -0.014822005
000190 ae 53 68 bc a7 d0 3a bd 0e 6c 17 3d 8c a8 b5 3c
       -0.014180107 -0.045609143 0.036968283 0.022175096
0001a0 4b e7 af 3b 57 d6 13 3d 0a 13 ea 3c b7 76 32 bc
       0.0053681484 0.036093082 0.028573532 -0.010892562
0001b0 a6 0a 35 bd ac 77 b6 3c d5 90 39 3d 98 59 57 bd
       -0.04419961 0.02227386 0.04530414 -0.052575678
0001c0 a8 77 9b 3a be 63 3e bd 93 c3 2f bd b4 80 8d 3c
       0.0011861222 -0.04648184 -0.042911123 0.017273284
0001d0 13 b9 26 3c 52 8b 47 3c 06 2a 02 bd 9e 88 a8 3b
       0.010175961 0.012179213 -0.031778358 0.005143239
0001e0 5d 54 e7 bc d2 97 1a bd 2f 2e f4 3c dd 80 91 bb
       -0.02823847 -0.037742443 0.029807178 -0.0044404105
0001f0 bf 28 5d bd 2d 89 a7 bc 98 8e f8 bc 44 0d 10 bd
       -0.053993937 -0.020451153 -0.030341431 -0.0351689
000200 8c cb 3f 3d 6f fe 4c bd 7e e7 e9 bb ea 15 28 bd
       0.046824977 -0.050047334 -0.0071381917 -0.041036524
000210 79 b8 2a 3c 4d a3 3f bd 29 20 f9 bc b3 67 91 3b
       0.010419958 -0.046786595 -0.030410843 0.0044374107
000220 a4 16 24 3c 49 b1 b6 bc 9f b0 17 3d 5c 2b 1c bb
       0.010015164 -0.022301333 0.037033673 -0.0023829555
000230 2d a9 05 bd 52 95 cb bc 97 83 92 3b bb 0d 18 bd
       -0.03263204 -0.024851475 0.004471253 -0.03712247
000240 db 0a fb bc 86 7a b7 bb 08 81 cc bb 19 e9 02 3d
       -0.030644825 -0.0055993227 -0.0062409677 0.03196058
000250 0e 07 3b bc 89 bd de 3b b3 19 b7 3c 38 97 78 bc
       -0.011415256 0.0067974967 0.022351122 -0.015172772
000260 b9 0a e0 bc ae 30 39 3c b9 62 f6 3b 2c 35 14 bb
       -0.027348863 0.01130311 0.007519093 -0.00226147
000270 75 10 c2 bc 3a b5 b3 bc 1e 1c 93 bc ab 9d 93 bc
       -0.023689488 -0.021937001 -0.017957743 -0.018019518
000280 83 42 42 bc 23 2a 40 3d 60 27 68 ba 31 fc 1a bd
       -0.011856678 0.046915185 -0.0008855965 -0.037838165
000290 68 8a d8 bc 52 5c be 3c fc 23 75 3c 91 72 71 39
       -0.026433185 0.023237381 0.014962193 0.0002302623
0002a0 c0 ed c7 bc f0 8e 99 3b d9 5a bc 3c ab 18 f9 bc
       -0.02440536 0.004686229 0.022992538 -0.03040727
0002b0 cf 92 99 bb 60 54 e1 3a f1 63 87 3c 60 99 d9 3c
       -0.0046866904 0.0017191283 0.016527148 0.026562393
0002c0 4e 60 f9 3c b9 6d 60 bb f5 12 e2 3b 1a 6f a3 bc
       0.03044143 -0.0034245087 0.0068992325 -0.019950438
0002d0 41 fc 0e bc 69 85 bf bc 0a 2d 12 bd ba 58 d0 3c
       -0.008727134 -0.023379045 -0.035687484 0.025432933
0002e0 ba bc b8 3c 28 a7 f9 3a 7e 8d 37 bc 14 85 11 bd
       0.02255093 0.0019047009 -0.011203168 -0.035527304
0002f0 1f b5 7e 3c 0c 88 09 3d 78 bb 2a 3c 6d cf 3b 3c
       0.015546112 0.03357701 0.010420673 0.011463028
000300 60 8a 2a 3d 60 6f b8 bc c2 af 01 3d 6c ad a3 bc
       0.04163587 -0.022514045 0.031661756 -0.019980155
000310 b5 29 2b bc 64 67 14 bd 7d 22 ce bc f4 1d f6 3c
       -0.010446955 -0.036231413 -0.02516293 0.03004358
000320 96 8b 5a bb fd e1 17 bd 95 02 d7 bc 4c c2 23 bd
       -0.003334736 -0.037080754 -0.026246348 -0.039980218
000330 10 ee e3 bc ad f5 80 ba 0c cf 08 3d 99 b9 e6 bc
       -0.027823478 -0.0009838842 0.03340058 -0.028164672
000340 d6 ba 11 3c 36 8f 40 bd 94 99 0f bd 57 70 6d 3c
       0.008894643 -0.047011577 -0.035058573 0.014492116
000350 7c 91 f9 bb 10 53 0c bd 14 df ba bc 37 cd ff bb
       -0.00761622 -0.034258902 -0.02281145 -0.007806446
000360 0a 29 ee 3c 6c 43 7c 3a 31 78 54 bd 55 90 58 bc
       0.029072303 0.0009623084 -0.051872436 -0.013218005
000370 91 01 06 3d 87 05 dd 3c a2 18 29 bd ec 60 2e 3d
       0.032716338 0.026980175 -0.041283257 0.0425729
000380 37 6f 1f bc 10 e3 18 bd b1 5d de bb 75 43 15 bd
       -0.0097311055 -0.03732592 -0.006786071 -0.036441285
000390 1f d8 48 3d 96 68 33 bc 18 06 1d bc 6a 09 24 3d
       0.049034234 -0.010950228 -0.009583972 0.04004804
0003a0 32 28 07 bd 49 b9 47 bc dd ba 77 3b 51 37 d8 bc
       -0.032997318 -0.0121901715 0.0037800588 -0.026393564
0003b0 f8 28 0d bd d4 4b 10 bd ba 24 54 bc 4f a2 c6 bc
       -0.0344629 -0.035228565 -0.012948209 -0.024247317
0003c0 66 53 2b bd bb 72 05 3c 3b 69 13 3d 2e bd 27 3d
       -0.04182758 0.00814503 0.035989027 0.0409519
0003d0 17 08 3a 3c ec ec 02 bc 3f ed b3 3c f8 bf 04 3d
       0.011354468 -0.007991057 0.021963714 0.03240964
0003e0 3c 1a b1 bc 07 e5 b6 3c 96 2b 01 bd 47 4f ce 3c
       -0.021618955 0.022326006 -0.031535707 0.025184287
0003f0 b5 c6 ec 3b 04 72 c4 3c 39 5a 42 bc 0d 6e df bb
       0.007225836 0.023980148 -0.011862331 -0.006818539

d1.5.weight f4 [64, 256]
000000 2b 9d 6d bd b4 01 0d 3d 9f 21 81 bd 2e 99 29 bd
       -0.058011215 0.034425452 -0.06305241 -0.04140585
000010 a9 44 7e 3c 1b 65 0a 3d f0 41 8c bc 75 9e 48 3d
       0.0155193 0.033787828 -0.017121285 0.04897924
000020 15 ba 38 3d 03 3b a6 bb fd 60 2c bd 29 0e fb 3c
       0.045099337 -0.0050729527 -0.042084683 0.0306464
000030 d2 3b 85 3c 79 d4 f3 bc 8c ce cc bc a0 04 ea 3c
       0.016263876 -0.0297644 -0.025000833 0.028566658
000040 c4 55 9c 3c 6d 88 00 bc e8 c5 e2 ba ec 6f 11 bd
       0.019083865 -0.007845026 -0.0017301412 -0.035507128
000050 d1 40 e0 3c d4 aa 44 bd 1f cf d1 bc c0 d3 7b 3d
       0.027374657 -0.048014477 -0.025611458 0.061481237
000060 cc d8 61 bd 79 8c 1a bd 87 5b 66 bb ac 45 59 bc
       -0.055138394 -0.03773162 -0.003514977 -0.01326124
000070 e3 0c 3c 3d d4 48 1d bd 66 e3 30 bc 94 54 7e bd
       0.045910727 -0.038399532 -0.0107964035 -0.06209238
000080 b8 38 46 bc 19 d0 f8 bc 11 72 68 bd 9a 89 8f bc
       -0.012098484 -0.030372666 -0.056749407 -0.017521668
000090 17 d2 ec 3c 1c b7 a3 3b 90 77 6a 3d bc cd 72 3d
       0.028908772 0.0049961936 0.05724293 0.059278235
0000a0 51 f1 44 bd 3a 15 e9 3a 5f 22 c6 bc 88 5b 47 3d
       -0.0480817 0.0017782815 -0.024186311 0.048671275
0000b0 cc b4 b3 bc 8e 00 55 3d d3 6a 06 bd c2 74 1e bc
       -0.021936797 0.052002482 -0.03281672 -0.009671392
0000c0 f4 75 18 bd 5b 69 c7 bc dd 4a 05 3d 9b d0 81 bd
       -0.037221864 -0.02434223 0.0325421 -0.063386165
0000d0 1f d1 69 bd a6 24 f3 bc 1b 60 05 bd 92 70 5d bd
       -0.0570842 -0.029680561 -0.032562356 -0.054062434
0000e0 3d b3 bb bb 61 6d 4e 3d b4 98 b7 3c c9 da 05 3d
       -0.005728154 0.05039728 0.022411682 0.032679353
0000f0 e1 38 aa bc d8 5a 45 3d 78 16 3d 3d 10 d6 3e bd
       -0.020779075 0.04818234 0.046164006 -0.046590865
000100 1e 87 37 3c 8b 2a 1f 3b 05 3b 77 bd 04 1e 06 bd
       0.011201648 0.0024286832 -0.06035902 -0.03274347
000110 aa cf 2c bd 00 28 b3 3c de 75 45 3d a1 b1 4d 3d
       -0.04219023 0.02186966 0.04820811 0.05021823
000120 56 f4 9c bc 64 6c 17 3d c3 6c 5d bd 08 1b 80 bc
       -0.019159477 0.036968604 -0.0540588 -0.01563789
000130 92 71 d3 3c 97 39 d6 ba 46 00 59 3b 9d 37 88 3c
       0.02581099 -0.0016344067 0.0033111735 0.016628081
000140 eb 89 fb bc d2 de c1 3c 63 1a cf 3c 6e be 82 bd
       -0.030705413 0.02366582 0.025281137 -0.06383978
000150 ec 2e 83 bd ab 50 58 3c 77 3d 66 bb 9c 07 7c 3d
       -0.06405434 0.0132028265 -0.003513185 0.061530694
000160 77 18 ba ba 9f 88 89 3c 87 da 55 bd 75 be f2 3b
       -0.0014197965 0.016788779 -0.052210357 0.007407958
000170 fd 44 6c bd 92 78 1d 3d 6a f6 b9 bc 5a 30 33 3b
       -0.05768298 0.038445063 -0.022700507 0.0027342052
000180 73 a5 c7 3c 27 ef 8b bc b3 d8 1e 3c 73 b7 8e bc
       0.024370885 -0.01708181 0.00969522 -0.01742146
000190 97 63 3d 3d c4 94 93 3b 8c 20 78 3d 08 32 a0 3c
       0.046237554 0.004503818 0.060577914 0.019555107
0001a0 b3 14 75 bb d4 dc 1e bd ab bb 7d bc c7 cf 67 3c
       -0.003739637 -0.038784817 -0.015486638 0.014148659
0001b0 a1 09 ff bc 61 42 a4 bc 97 fe a8 bc 28 1a 16 3c
       -0.031132521 -0.020051183 -0.02062921 0.00916151
0001c0 85 bb b5 bc 89 9a f1 bb 55 db bf 3c 2c 01 3e 3d
       -0.022184143 -0.0073731584 0.023420015 0.046387836
0001d0 92 e4 a9 bb f5 0f d9 3c f1 1b 63 bd 23 25 36 bd
       -0.0051847184 0.026496867 -0.05544657 -0.04446901
0001e0 bb 96 a0 ba 02 8f 71 bb 5c 32 79 bd 50 1b 5d bd
       -0.0012251952 -0.003685892 -0.060839042 -0.053981125
0001f0 6e 85 09 3d 30 96 a7 3c 42 95 ae bc e5 67 9f 3c
       0.033574514 0.020457357 -0.021311406 0.01945872
000200 43 2a 6b 3d c8 00 b9 3b 4d 3f 30 bd 24 b4 af ba
       0.05741335 0.005645845 -0.04302912 -0.0013405127
000210 8a db 80 bd 6a 90 4e 3d ab 81 04 bc 98 22 16 3d
       -0.06291874 0.050430693 -0.008087556 0.036654085
000220 f1 73 82 bb 90 cc a5 3b db 47 04 bc 11 e9 85 bc
       -0.0039811064 0.005059786 -0.008073772 -0.016346486
000230 4b 90 58 3c 20 32 8e ba 40 82 92 3c 55 57 ba b9
       0.013217996 -0.0010848679 0.017884374 -0.00035541752
000240 c3 f3 25 3c d7 05 18 bd 68 1a 85 3c e6 ee 49 3d
       0.010128918 -0.037114944 0.016247943 0.049300097
000250 22 99 62 3c 42 64 27 bc 23 ae da 38 1d d2 7e bd
       0.013830455 -0.010216774 0.000104274855 -0.0622121
000260 39 0b ec 3c 98 47 4f 3d 84 de 21 bd fa a6 75 3c
       0.028813945 0.050605386 -0.039518848 0.014993424
000270 78 41 10 bd 31 5f 12 bd 38 d3 e9 ba 0c 93 57 bc
       -0.035218686 -0.035735313 -0.0017839437 -0.013157617
000280 13 a8 6f 3d 27 93 cd bc ec c6 b2 3b 1a e3 3d ba
       0.058509897 -0.025094582 0.0054558422 -0.00072436186
000290 a4 d3 0f bd ca da 2f bd 1f 9c 57 bc b9 e0 42 bd
       -0.035113946 -0.042933263 -0.013159781 -0.047577593
0002a0 db 6b b7 bc b8 fe 60 3d 81 11 37 bd ad c1 da bc
       -0.022390297 0.05493042 -0.044694427 -0.02670368
0002b0 00 b7 5a bd 2a 9b 5c bd a7 61 05 3d 1e d1 0d 3d
       -0.05339718 -0.053858913 0.03256383 0.034623258
0002c0 f9 5f 11 3c b5 d4 30 3d 58 9d 0f 3d 44 82 66 bd
       0.008872979 0.043171603 0.035062164 -0.056276575
0002d0 2f 86 63 3d 1d 99 25 bd fd e2 52 bd 8c 2a 0b bc
       0.05554789 -0.040429223 -0.051486004 -0.008494031
0002e0 c2 7f 80 bc 86 5d aa 3c 6c 9f 01 3c 40 10 d9 3b
       -0.01568592 0.020796549 0.007911544 0.0066242516
0002f0 12 d3 6c 3d 50 03 5e 3d a2 63 8e bc ca 2d 97 3a
       0.05781848 0.054202378 -0.017381493 0.0011534032
000300 f0 e9 41 bd 45 54 a9 ba 12 14 c4 bc be 67 7a bd
       -0.04734224 -0.0012918791 -0.023935352 -0.061134093
000310 f9 0b 2d bb 60 9f 3f 3d eb 86 32 bc 07 7f 7a bd
       -0.0026404841 0.04678285 -0.010896425 -0.0611563
000320 aa 22 43 bd ed 7e 4a bd f7 45 73 3d 15 b1 f9 bc
       -0.04764048 -0.049437452 0.059392896 -0.030479947
000330 b8 d4 bf bc 9a 34 5b bd df 74 c9 3c b4 cf 75 bd
       -0.023416862 -0.05351696 0.024591861 -0.060012534
000340 13 ac 56 3d d1 3f 7c bd b9 c7 fc 3b b6 82 04 3d
       0.052410197 -0.061584298 0.0077142385 0.03235122
000350 0f 14 bf 3c b7 05 41 bd 5c f4 e7 3c ca cc 0a 3d
       0.023324994 -0.04712459 0.028314762 0.03388671
000360 a2 2b 32 3d ae 25 f0 3c 04 70 28 3c fa ad 0e bd
       0.043498643 0.029314842 0.010280613 -0.034833886
000370 69 cc 14 3c 4a f3 3c 3d 9d 4d ea 3c c1 5e 06 3d
       0.009081938 0.046130456 0.028601462 0.032805208
000380 27 f7 bb bb f0 d7 02 bd a7 a6 d4 3c 8b b0 13 bb
       -0.00573625 -0.031944215 0.025958372 -0.0022535648
000390 3e 46 90 3c 0d f0 52 ba d2 34 45 bd 17 f6 9f bc
       0.01761162 -0.00080466346 -0.048146077 -0.019526524
0003a0 f4 6d 20 bd b0 18 83 ba 12 7e 4f 3b 7a 07 b9 bb
       -0.03916736 -0.0010001864 0.0031660837 -0.005646643
0003b0 c9 c2 19 bd 12 fc 4a 3d 3a 0a 4b 3d 8d d5 30 3d
       -0.037539277 0.0495568 0.0495703 0.043172408
0003c0 a4 c7 aa 3c f2 cc 47 bd ed ba ad 3c 7c a1 ac bb
       0.02084715 -0.048779435 0.021207297 -0.005268274
0003d0 95 74 ed 3c f2 14 45 bd f5 cc c5 bc 50 bd 5b bd
       0.028986255 -0.048115678 -0.024145583 -0.05364734
0003e0 1f 78 80 bc 8b 83 d5 bc ae bd e4 3c 8c 94 66 3d
       -0.015682278 -0.026063701 0.027922478 0.05629401
0003f0 67 3e 7e bd 38 aa 09 3d ed 84 4b bb 1b 6a 26 3c
       -0.06207123 0.0336096 -0.0031054572 0.010157133
