netw.pt (torch, 927863 bytes, 10 tensors)

c1.0.weight f4 [3, 2, 3, 3]
-1.7154955 0.39565015 0.07836202 -0.07944972 0.11410277 -0.3359685 0.15421084 0.05935363
0.06835336 0.4162051 0.25218338 0.037114136 0.4174131 -0.19029848 0.12084245 0.08478656
-0.2551509 -0.25271258 0.30414224 0.20050468 0.30413696 -0.61024666 0.16824189 -0.06631888
0.30507457 -0.61164063 0.101041496 -0.2636182 -0.27243108 0.1629191 -0.28454712 0.27628896
-0.15336509 -0.2278021 -0.012675443 -0.10733535 0.100465834 0.1695465 0.23695211 0.13571627
-0.15076417 -0.06275734 -0.0557436 0.14618199 0.04120678 0.6095054 0.2274385 0.18837525
0.31979614 0.13756391 0.1031321 0.46446252 -0.0900655 0.106503755
00000000: 5b95 dbbf a892 ca3e 447c a03d 89b6 a2bd
00000010: b7ae e93d 1004 acbe 72e9 1d3e cb1c 733d
00000020: d9fc 8b3d d618 d53e 2e1e 813e fe04 183d
00000030: 2bb7 d53e 9bdd 42be 3f7c f73d 93a4 ad3d
00000040: 24a3 82be 8b63 81be 88b8 9b3e 1951 4d3e
00000050: d7b7 9b3e 2039 1cbf 9a47 2c3e 31d2 87bd
00000060: bc32 9c3e 7b94 1cbf d8ee ce3d f7f8 86be
00000070: 167c 8bbe 44d4 263e 29b0 91be bf75 8d3e
00000080: bd0b 1dbe f444 69be a9ac 4fbc a3d2 dbbd
00000090: 08c1 cd3d 999d 2d3e 93a3 723e 35f9 0a3e
000000a0: ec61 1abe ec86 80bd 6753 64bd bbb0 153e
000000b0: 71c8 283d 8c08 1c3f a3e5 683e 71e5 403e
000000c0: 52bc a33e 8edd 0c3e ec36 d33d 08ce ed3e
000000d0: 4374 b8bd a41e da3d

c1.0.bias f4 [3]
0.062353496 -0.15262122 0.062757306
00000000: 6166 7f3d bd48 1cbe e786 803d

c1.2.weight f4 [3, 3, 3, 3]
0.052690458 0.2556159 -0.13555996 -0.091534354 -0.07766381 0.15831642 -0.18341966 0.017558707
-0.002512454 0.02401806 0.19908582 -0.42732224 0.2382018 -0.029627508 0.21601233 -0.21462366
-0.019096987 0.16760062 -0.0771176 -0.11275963 0.14893073 0.0026929488 -0.019758195 -0.2866299
-0.23166476 -0.17507969 -0.24310516 -0.12531343 0.035393395 -0.19415975 0.16507803 0.11999135
0.20707217 -0.21846884 -0.30828217 -0.2577441 -0.010299329 0.019841604 0.15482743 0.07527853
-0.1258527 0.07268285 -0.06806417 -0.06977708 0.77405185 0.0823363 0.09985595 -0.004020963
0.12811354 -0.15325199 0.022607407 0.033096354 0.0732289 -0.122799456 -0.11689771 -0.0143822385
-0.21043764 -0.37913528 -0.025496874 0.048476875 -0.20528756 -0.097896665 0.09813973 -0.04251388
-0.26484329 -0.16723455 -0.4084031 -0.23034541 0.0035590609 0.012860988 -0.42884016 -0.25555938
0.2823698 0.08362561 0.21733564 0.10587783 0.1035379 0.15207618 0.18949273 0.047638986
-0.0024047212
00000000: f3d1 573d 16e0 823e 3bd0 0abe 5d76 bbbd
00000010: 340e 9fbd b31d 223e 5dd2 3bbe 47d7 8f3c
00000020: fca7 24bb 86c1 c43c 27dd 4b3e fbc9 dabe
00000030: 2ceb 733e 63b5 f2bc 5632 5d3e 4ec6 5bbe
00000040: 4971 9cbc 7f9f 2b3e d5ef 9dbd 85ee e6bd
00000050: 4c81 183e 2f7c 303b f0db a1bc 27c1 92be
00000060: 8739 6dbe 1748 33be 8ff0 78be 2a52 00be
00000070: aaf8 103d d0d1 46be 370a 293e 06be f53d
00000080: ba0a 543e 4cb6 5fbe 29d7 9dbe 09f7 83be
00000090: 84be 28bc dc8a a23c 158b 1e3e a12b 9a3d
000000a0: 88df 00be bfda 943d 3a65 8bbd 49e7 8ebd
000000b0: 4328 463f ef9f a83d 4781 cc3d 48c2 83bb
000000c0: 3230 033e 17ee 1cbe 2b33 b93c 0b90 073d
000000d0: 09f9 953d 487e fbbd 1168 efbd 7ba3 6bbc
000000e0: f77c 57be 051e c2be d2de d0bc b08f 463d
000000f0: e736 52be 0c7e c8bd 7cfd c83d 0923 2ebd
00000100: 8a99 87be 893f 2bbe 361a d1be abdf 6bbe
00000110: 223f 693b e5b6 523c f090 dbbe aed8 82be
00000120: c692 903e e743 ab3d 3c8d 5e3e 7ad6 d83d
00000130: ae0b d43d dcb9 1b3e 620a 423e 1921 433d
00000140: 8798 1dbb

c1.2.bias f4 [3]
0.07817985 0.038858194 -0.066623025
00000000: c21c a03d c529 1f3d a771 88bd

d1.0.weight f4 [512, 192]
-0.061826333 0.050094694 0.00027995402 0.08188131 0.011194324 -0.07603392 -0.07095935 -0.050253853
0.025164278 -0.11805883 -0.004160011 -0.11497297 -0.04792503 -0.093078084 0.014398531 0.046594553
0.015423152 -0.10555721 -0.069766544 0.1252924 0.09319815 0.03412464 -0.00503588 -0.1130827
-0.006104965 0.09057357 -0.049709786 -0.039417185 0.0717907 -0.10084088 0.118309245 -0.03513765
-0.012681552 0.014046791 -0.081162564 -0.084762216 0.107806645 -0.038213257 -0.03168111 0.09907269
0.054414175 0.013304809 0.068916604 0.12100299 -0.04056737 -0.056217086 -0.14298697 0.05987469
0.14401793 -0.092120424 -0.031713698 -0.011765026 -0.030587599 0.003499566 0.041581172 0.0620393
-0.020824281 -0.012699133 -0.056466375 -0.0036553545 0.0056796605 0.053727776 0.15978332 0.015193349
-0.18346061 -0.028049994 -0.016665243 0.04679828 -0.061150078 -0.12756456 -0.14816123 -0.119107865
0.07512769 -0.012012538 0.055676926 0.054917667 -0.060755864 -0.06544803 -0.13479055 -0.044998646
-0.049740784 -0.13550147 -0.1121108 -0.102457695 -0.1508113 -0.031585906 0.0544724 -0.0979508
-0.031553566 0.065959364 -0.015650004 0.08575148 0.064508885 -0.053975206 0.046191383 -0.049510892
0.025252698 -0.06079287 0.007418816 -0.15828146 -0.0767856 -0.10801171 -0.11844675 0.095977776
0.052239828 0.07827849 0.025642725 0.07003151 0.0055415113 0.048874326 -0.13845342 0.06594966
-0.05460397 -0.084231265 -0.019681454 0.01658778 0.07655643 -0.09514996 0.022640165 -0.04087143
-0.06725652 0.022713387 -0.12216679 -0.10409533 0.025471536 -0.036399156 0.040910285 0.10616573
0.021546425 0.17848893 0.16969308 0.009434334 0.07230487 -0.022784397 0.040432204 0.06918609
0.060449757 -0.11900677 0.035813306 -0.021713192 0.036584955 0.062093895 -0.022463053 -0.048276283
0.13155414 -0.036385793 -0.052575357 0.003298483 0.0050316243 -0.18378909 0.15734 -0.09599779
0.048524573 0.08933679 0.04653053 0.13972159 0.22172871 -0.039645314 0.06885935 0.010208438
0.044039354 0.07509487 0.08935513 -0.15233003 0.015809631 -0.107512556 -0.03357107 0.00015724068
0.005507262 -0.06981455 0.09795858 0.060577754 -0.04546801 -0.10119047 -0.02224133 -0.11146531
-0.07334199 -0.032585423 -0.17293353 0.078539826 0.02886794 0.027312782 -0.06826234 -0.16978844
-0.055461694 0.120042294 -0.10867621 0.17826912 -0.09007552 0.00511607 -0.1567827 0.075342156
0.15337779 0.13263617 0.1200096 0.04250836 0.031244393 -0.024851616 -0.011192657 0.035983883
0.1498311 0.08153567 0.04612319 -0.010814348 0.017459607 0.008605633 -0.006740369 -0.0010937975
0.085773334 0.052847102 0.09858964 -0.040078238 -0.05195577 -0.163375 -0.10895583 0.004889171
0.05501084 0.07432058 -0.0071331705 -0.002198118 -0.07238743 -0.09866904 0.014661207 -0.03570835
0.15033312 -0.08335728 -0.008389553 -0.019890735 0.019473579 -0.11888603 0.0053756945 0.13827275
0.19535404 0.052325565 -0.050093114 0.047777504 -0.04692072 0.0077438746 -0.025620867 0.13316634
0.21334285 0.17135823 0.024139415 0.030906746 0.08747531 -0.02410564 -0.023771668 0.039404474
0.36713615 0.16449903 0.23041412 0.0398504 0.01728268 -0.0131311985 -0.13632056 0.06389081
00000000: 9c3d 7dbd 1830 4d3d cbc6 9239 63b1 a73d
00000010: 6668 373c acb7 9bbd 2353 91bd fcd6 4dbd
00000020: 5125 ce3c d4c8 f1bd b450 88bb f376 ebbd
00000030: 094d 44bd b99f bebd d1e7 6b3c eed9 3e3d
00000040: 63b1 7c3c 612e d8bd c3e1 8ebd a74c 003e
00000050: acde be3d 47c6 0b3d 0604 a5bb e797 e7bd
00000060: 290c c8bb a37e b93d 7d9c 4bbd ea73 21bd
00000070: 0107 933d aa85 cebd 1e4c f23d 7fec 0fbd
00000080: 49c6 4fbc 8324 663c 8f38 a6bd d097 adbd
00000090: bbc9 dc3d 8185 1cbd 0dc4 01bd 9fe6 ca3d
000000a0: 66e1 5e3d 6afc 593c 2624 8d3d 6ad0 f73d
000000b0: f829 26bd e343 66bd 2d6b 12be 2a3f 753d
000000c0: 7079 133e a2a9 bcbd 39e6 01bd 18c2 40bc
000000d0: d892 fabc fa58 653b 0551 2a3d ec1c 7e3d
000000e0: af97 aabc 0610 50bc 4949 67bd ac8e 6fbb
000000f0: 721c ba3b a811 5c3d 3d9e 233e 86ed 783c
00000100: 19dd 3bbe 1ac9 e5bc 8c85 88bc 8eaf 3f3d
00000110: 8178 7abd 49a0 02be 94b7 17be d3ee f3bd
00000120: 8cdc 993d 3cd0 44bc 7d0d 643d 59f1 603d
00000130: 24db 78bd 9e09 86bd 8906 0abe 8050 38bd
00000140: febc 4bbd e6c0 0abe 599a e5bd 57d5 d1bd
00000150: 476e 1abe 3960 01bd 741e 5f3d 6e9a c8bd
00000160: 503e 01bd b415 873d 7034 80bc 799e af3d
00000170: 3c1d 843d 1b15 5dbd 2d33 3d3d efcb 4abd
00000180: bfde ce3c f201 79bd 8a19 f33b 8914 22be
00000190: c541 9dbd 3e35 ddbd 3694 f2bd ff8f c43d
000001a0: 6ef9 553d 7950 a03d b110 d23c ae6c 8f3d
000001b0: 9195 b53b 7230 483d bcc6 0dbe 9e10 873d
000001c0: 6aa8 5fbd 7181 acbd 003b a1bc 19e3 873c
000001d0: 9ec9 9c3d fbdd c2bd de77 b93c cd68 27bd
000001e0: c9bd 89bd 6d11 ba3c 9532 fabd ef2f d5bd
000001f0: afa9 d03c 4817 15bd 8b91 273d 6b6d d93d
00000200: 2182 b03c cdc5 363e 06c4 2d3e 7792 1a3c
00000210: 9314 943d 58a6 babc 3d9c 253d 70b1 8d3d
00000220: 2a9a 773d d2b9 f3bd f9b0 123d dddf b1bc
00000230: 1bda 153d 2b56 7e3d 7004 b8bc 5abd 45bd
00000240: 21b6 063e 4509 15bd 4259 57bd 5d2b 583b
00000250: 53e0 a43b 3533 3cbe bd1d 213e 7d9a c4bd
00000260: b4c1 463d 35f6 b63d cc96 3e3d 2d13 0f3e
00000270: da0c 633e 2063 22bd 2206 8d3d 4b41 273c
00000280: 9c62 343d 57cb 993d d3ff b63d 67fc 1bbe
00000290: 3383 813c 8b2f dcbd d181 09bd f9e0 2439
000002a0: 4376 b43b eefa 8ebd 829e c83d 6120 783d
000002b0: aa3c 3abd f33c cfbd 7333 b6bc ed47 e4bd
000002c0: 5334 96bd 4b78 05bd 7d15 31be 7dd9 a03d
000002d0: 757c ec3c 0ebf df3c 20cd 8bbd 05dd 2dbe
000002e0: cd2b 63bd bcd8 f53d a291 debd 2e8c 363e
000002f0: 8479 b8bd b5a4 a73b a58b 20be fd4c 9a3d
00000300: 110f 1d3e c7d1 073e 98c7 f53d 3f1d 2e3d
00000310: 3ef4 ff3c 9e95 cbbc 6861 37bc d663 133d
00000320: 536d 193e 2cfc a63d aceb 3c3d aa2e 31bc
00000330: 7307 8f3c a4fe 0c3c 50de dcbb c15d 8fba
00000340: eea9 af3d 3476 583d 5de9 c93d 1429 24bd
00000350: 93cf 54bd c74b 27be 3c24 dfbd 5735 a03b
00000360: 0c53 613d 6335 983d 5fbd e9bb 4d0e 10bb
00000370: dc3f 94bd fe12 cabd 8f35 703c eb42 12bd
00000380: edf0 193e 39b7 aabd 5674 09bc e5f1 a2bc
00000390: 0e87 9f3c 857a f3bd 9826 b03b 5f97 0d3e
000003a0: e40a 483e 5553 563d 702e 4dbd 58b2 433d
000003b0: f12f 40bd 54c0 fd3b dae2 d1bc c25c 083e
000003c0: 8c76 5a3e 8878 2f3e 06c0 c53c 2530 fd3c
000003d0: 4126 b33d 3179 c5bc cdbc c2bc 9666 213d
000003e0: 45f9 bb3e 6f72 283e aef1 6b3e 2c3a 233d
000003f0: 6894 8d3c 3d24 57bc 9e97 0bbe 2fd9 823d

d1.0.bias f4 [512]
-0.08621522 -0.039970763 -0.073158644 -0.06855809 -0.021476457 -0.044754934 -0.05555806 -0.032637686
-0.064712085 -0.06328674 -0.035717696 -0.0026062287 -0.05518957 -0.078593634 -0.048640274 -0.015517285
-0.09042109 0.009458039 -0.0312672 -0.04392043 -0.05084323 -0.093193136 -0.058386933 -0.07880814
-0.040456507 -0.042555753 -0.014040133 -0.11617157 -0.10456374 -0.033018723 -0.11146353 -0.07094811
-0.049122505 -0.06817354 -0.05730099 -0.117543146 -0.055099636 -0.07225522 -0.03187296 -0.046431717
-0.09738698 -0.02747471 -0.059975386 -0.03279482 -0.069790296 -0.052342936 -0.055252727 -0.026478715
-0.0846078 -0.10875858 -0.04756617 -0.060446925 -0.10485972 -0.03867551 -0.01704222 -0.02002726
-0.07338775 -0.0075833583 0.015083708 -0.014457234 -0.018376978 -0.0455616 -0.058317013 -0.087946676
-0.08440859 -0.039268903 -0.0047546835 -0.04867503 -0.045697592 -0.11768593 -0.012846137 -0.058169756
-0.092468746 -0.03651271 -0.030536506 -0.04522678 -0.08476604 -0.047018442 -0.07526577 -0.11014589
-0.06641708 -0.008176047 -0.020973885 -0.035235308 -0.011984634 -0.055106122 -0.09458428 -0.027439645
-0.04401203 -0.03080755 -0.017362364 -0.03138779 -0.05036837 -0.08538086 -0.021852404 -0.027581926
-0.11665003 0.03447088 -0.06967641 0.0031611945 -0.060063474 -0.07337736 -0.088625304 -0.113437004
0.099996485 -0.0439003 -0.09029414 -0.034446876 0.023753608 -0.020835388 -0.061786823 -0.04670143
-0.04839279 -0.017871648 -0.053732578 -0.022569677 0.027703926 0.016371576 -0.042551346 -0.045454267
-0.07962441 -0.045598026 0.018722245 -0.049991556 -0.050112806 0.09461065 0.014895487 -0.061824687
-0.123087324 0.015562505 -0.05761395 0.03693123 -0.009013649 -0.043616917 0.0185527 -0.13941486
-0.043596625 -0.004466644 -0.1118917 -0.058032222 -0.046782743 -0.015150487 -0.08621479 -0.039215416
-0.048253223 -0.005293694 0.03125152 -0.050771497 -0.07295878 -0.039157122 -0.028616786 -0.02198623
-0.089474425 -0.06904451 -0.028342407 -0.023194633 -0.0046496284 -0.030937565 -0.090615824 0.030033983
-0.06199999 0.0037724783 -0.04262017 0.015876453 -0.024248764 -0.07291085 -0.0024373694 -0.10879915
-0.09978435 -0.08835297 -0.067569405 -0.08442559 -0.11777712 -0.006121949 0.014877456 -0.10561155
-0.04809722 -0.14021508 -0.04673679 -0.02712158 -0.09688244 -0.020196384 -0.058537595 -0.1071869
-0.05676595 -0.09659808 -0.05946982 -0.046326872 -0.039848875 -0.116065696 -0.051632643 -0.038849454
-0.029486172 -0.080745935 -0.074443884 -0.08198339 -0.033110995 0.016470442 -0.046456568 -0.049089625
-0.03300677 -0.00946368 -0.0726053 0.012260673 -0.062704496 -0.050720207 -0.011758695 -0.10805795
-0.076908045 0.03433768 0.015943298 -0.009450459 -0.04227646 -0.07648857 -0.0158256 -0.06335482
-0.0673492 0.005448825 -0.082344174 -0.06351778 -0.041030087 -0.034387 -0.14072067 -0.09170293
-0.035510726 0.008512982 -0.062399324 -0.022445977 -0.017492462 -0.07489879 0.07352618 -0.026813272
-0.08275419 -0.07700232 -0.04598925 -0.058186702 -0.083633386 -0.058157742 -0.10503623 -0.037671473
-0.060959894 -0.052877452 -0.08015854 -0.022925837 -0.03813506 -0.03631817 -0.06446945 0.023184452
-0.12436176 -0.053698428 0.054892894 0.021464536 -0.05738702 -0.09255911 -0.09583963 -0.145907
00000000: 9b91 b0bd 62b8 23bd 33d4 95bd 2f68 8cbd
00000010: 65ef afbc f350 37bd d990 63bd 18af 05bd
00000020: c587 84bd 7a9c 81bd b84c 12bd 43cd 2abb
00000030: 750e 62bd b3f5 a0bd 063b 47bd 363c 7ebc
00000040: b12e b9bd e4f5 1a3c 0912 00bd e9e5 33bd
00000050: fe40 50bd 0bdc bebd 2327 6fbd 2966 a1bd
00000060: b9b5 25bd f14e 2ebd 9608 66bc 5ceb edbd
00000070: 8425 d6bd a43e 07bd fe46 e4bd 3e4d 91bd
00000080: ae34 49bd 929e 8bbd 71b4 6abd 76ba f0bd
00000090: 28b0 61bd 8bfa 93bd 398d 02bd 2f2f 3ebd
000000a0: d372 c7bd a512 e1bc c0a8 75bd dc53 06bd
000000b0: 37ee 8ebd 8c65 56bd af50 62bd e4e9 d8bc
000000c0: db46 adbd d2bc debd bfd4 42bd 3297 77bd
000000d0: b1c0 d6bd 366a 1ebd 209c 8bbc 3510 a4bc
000000e0: 514c 96bd d27d f8bb a821 773c 09de 6cbc
000000f0: 518b 96bc cd9e 3abd d2dd 6ebd 631d b4bd
00000100: 69de acbd 6ed8 20bd 2dcd 9bbb 785f 47bd
00000110: 662d 3bbd 5205 f1bd 9b78 52bc 6943 6ebd
00000120: 4160 bdbd 5a8e 15bd b227 fabc b73f 39bd
00000130: d199 adbd 6996 40bd f124 9abd 2b94 e1bd
00000140: ae05 88bd d4f4 05bc 6dd1 abbc e652 10bd
00000150: 335b 44bc f5b6 61bd 67b5 c1bd 1bc9 e0bc
00000160: f545 34bd 1d60 fcbc 843b 8ebc 7c90 00bd
00000170: 104f 4ebd 29dc aebd d003 b3bc 7ef3 e1bc
00000180: 36e6 eebd 5631 0d3d 81b2 8ebd 0b2c 4f3b
00000190: 1e05 76bd df46 96bd 2f81 b5bd a951 e8bd
000001a0: f5ca cc3d cdd0 33bd 22ec b8bd 2b18 0dbd
000001b0: ed96 c23c faae aabc 2e14 7dbd 004a 3fbd
000001c0: 8537 46bd 9067 92bc b116 5cbd 0be4 b8bc
000001d0: 58f3 e23c af1d 863c 524a 2ebd 412e 3abd
000001e0: 1f12 a3bd ffc4 3abd 655f 993c f2c3 4cbd
000001f0: 1643 4dbd 3ac3 c13d 330c 743c e23b 7dbd
00000200: 3515 fcbd e1f9 7e3c 9bfc 6bbd 3445 173d
00000210: fcad 13bc a7a7 32bd d5fb 973c c5c2 0ebe
00000220: 6092 32bd ed5c 92bb 7a27 e5bd 32b3 6dbd
00000230: 439f 3fbd c039 78bc 6191 b0bd 58a0 20bd
00000240: 2ca5 45bd b976 adbb 9801 003d c6f5 4fbd
00000250: 6a6b 95bd 3863 20bd c06d eabc 771c b4bc
00000260: 5e3e b7bd 3567 8dbd 562e e8bc ac02 bebc
00000270: e95b 98bb c770 fdbc ca94 b9bd d409 f63c
00000280: b4f3 7dbd af3b 773b 7d92 2ebd 560f 823c
00000290: 58a5 c6bc 4952 95bd 46bc 1fbb 17d2 debd
000002a0: bd5b ccbd 67f2 b4bd d461 8abd 53e7 acbd
000002b0: 2135 f1bd a19a c8bb 93c0 733c de4a d8bd
000002c0: 9701 45bd 8b94 0fbe 146f 3fbd 132e debc
000002d0: 4d6a c6bd e372 a5bc 1ec5 6fbd ce84 dbbd
000002e0: 6a83 68bd 37d5 c5bd a096 73bd 3fc1 3dbd
000002f0: 9338 23bd dab3 edbd c07c 53bd 9b20 1fbd
00000300: fc8c f1bc 205e a5bd 0976 98bd e8e6 a7bd
00000310: 659f 07bd 05ed 863c 3e49 3ebd 3412 49bd
00000320: 1b32 07bd 8d0d 1bbc 16b2 94bd fde0 483c
00000330: 376b 80bd febf 4fbd 8ba7 40bc 7d4d ddbd
00000340: f781 9dbd aba5 0c3d 859b 823c 19d6 1abc
00000350: 152a 2dbd 0aa6 9cbd b0a4 81bc 2cc0 81bd
00000360: 61ee 89bd 0f8c b23b 10a4 a8bd 9c15 82bd
00000370: 2a0f 28bd 62d9 0cbd 1419 10be bfce bbbd
00000380: b273 11bd 097a 0b3c 6f96 7fbd a0e0 b7bc
00000390: 5a4c 8fbc 8964 99bd e594 963d 82a7 dbbc
000003a0: 077b a9bd 64b3 9dbd 395f 3cbd 2e55 6ebd
000003b0: fb47 abbd d036 6ebd 3c1d d7bd 674d 1abd
000003c0: 15b1 79bd 0796 58bd 292a a4bd f7ce bbbc
000003d0: 8233 1cbd 5dc2 14bd 8f08 84bd 52ed bd3c
000003e0: 61b1 febd e2f2 5bbd 5fd7 603d 65d6 af3c
000003f0: a70e 6bbd a18f bdbd 9147 c4bd a568 15be

d1.2.weight f4 [256, 512]
-0.0040963325 0.102121554 0.05445858 0.055833675 0.10366601 0.031113982 0.019920332 0.03177919
0.053048782 0.02334626 -0.030206406 0.037468728 0.05789082 -0.09559338 -0.017132072 -0.014799652
-0.10379615 0.0686176 0.0104784975 0.09050365 -0.0019968846 -0.020080455 0.06457716 0.0075443406
-0.02039769 0.038795784 0.046882097 -0.06908295 0.0037474062 0.08728162 0.14912847 -0.122211784
-0.15001564 -0.062235806 0.031547155 -0.1552949 0.009531277 0.0996492 0.0038930608 0.037434828
0.017643712 0.011526584 -0.039528154 0.07477547 0.03542873 0.10956691 0.002387351 -0.077078134
0.023746906 0.0126172295 0.055534583 -0.057543922 0.07741584 0.060413152 -0.00259337 -0.15584901
-0.12793574 0.044153962 -0.11873006 0.026005706 0.008345023 -0.09043574 0.02001446 0.031883586
-0.016370947 0.11184861 0.028275626 -0.13795212 0.09644066 -0.12678243 -0.0838758 0.07594018
0.0011221499 -0.14832608 0.045112636 0.078728765 0.073755935 0.0260308 0.017221803 -0.010913335
-0.004805807 -0.08695552 0.04988076 0.06935956 0.09327865 0.06683336 -0.116776824 -0.14324027
0.07279426 0.006430424 0.08033226 0.071372636 -0.08180356 0.0074893786 0.051576 -0.061996296
-0.13907583 -0.2088063 0.011144377 -0.12356446 -0.05429124 0.03212052 -0.086344875 -7.5252596e-05
-0.06362549 -0.068312705 -0.04504194 0.10616126 -0.081774056 0.0877588 0.07163996 0.049254928
0.0019621258 0.08000825 -0.03286558 0.0783361 0.027093159 0.0016030818 -0.22377183 -0.11108251
-0.012215759 0.012972396 0.011119357 0.032831043 0.023868067 -0.12029131 -0.12497582 0.057939522
-0.085367985 -0.009425559 0.11000687 0.09066061 0.061563008 0.014506854 0.045559153 0.01077625
0.080671534 -0.066823244 -0.051147565 -0.08307768 0.04713759 0.14268418 0.118582994 -0.051740415
-0.004734931 -0.019094337 -0.074155696 0.014451984 0.107727036 0.08509183 -0.036497977 -0.13924074
0.02564235 0.04620424 -0.11754662 0.049774762 0.090599425 -0.17966188 -0.08761509 -0.05866256
0.04141464 -0.18531117 0.036432978 0.05796063 0.013156449 0.08843847 -0.15734237 0.016637318
0.10859349 0.08575131 0.030568399 0.017017692 -0.17808767 -0.05994271 -0.112456515 -0.1425495
-0.109230995 -0.08828724 0.0088305585 -0.0020066116 0.039114065 0.061711613 -0.18068536 -0.07800594
0.07563711 -0.10533785 0.11368345 -0.13024308 -0.014997242 0.043701205 0.048440967 -0.20410225
0.009124583 0.028216304 -0.012944167 0.11328838 0.052546974 -0.11241001 0.036186997 0.10496238
0.044264797 0.10235715 0.031938177 -0.08934459 0.06942079 0.12405864 -0.011200889 -0.0028380656
0.06311888 -0.09819302 0.05237991 0.04801293 -0.010008856 -0.10675966 -0.03542975 0.11875221
0.07286776 -0.11265143 0.03383756 -0.021086164 0.14069626 0.05977249 0.0051923133 0.044204567
0.03789391 -0.15142488 -0.038221706 -0.08289146 -0.015831023 -0.161111 -0.04252434 0.014814165
0.014883177 -0.027879912 0.16636744 -0.04820728 -0.10514672 0.030366281 -0.037034042 0.010378791
0.017673355 0.057999425 0.06874095 0.07075864 0.017156819 0.06268284 0.07178625 0.07610934
-0.16347781 0.053315427 0.081932046 -0.04217085 0.11729817 -0.09168228 0.06510887 -0.13319507
00000000: 873a 86bb 1b25 d13d f60f 5f3d dab1 643d
00000010: d84e d43d c0e2 fe3c f72f a33c e52a 023d
00000020: ae49 593d a840 bf3c 6d73 f7bc cf78 193d
00000030: ed1e 6d3d 76c6 c3bd 8f58 8cbc 3d7a 72bc
00000040: 1393 d4bd 6287 8c3d 01ae 2b3c fa59 b93d
00000050: 2ade 02bb c47f a4bc 0841 843d 8436 f73b
00000060: 0e19 a7bc 54e8 1e3d 7107 403d 5d7b 8dbd
00000070: 0b97 753b b5c0 b23d 22b5 183e 2c4a fabd
00000080: b39d 19be f9ea 7ebd 9737 013d a005 1fbe
00000090: 1329 1c3c e114 cc3d b922 7f3b 4355 193d
000000a0: 8c89 903c ffd9 3c3c 46e8 21bd e223 993d
000000b0: b71d 113d 9e64 e03d 1a75 1c3b 24db 9dbd
000000c0: df88 c23c 7fb8 4e3c 3b78 633d 2db3 6bbd
000000d0: 328c 9e3d c873 773d 87f5 29bb e296 1fbe
000000e0: 9601 03be c9da 343d bf28 f3bd eb09 d53c
000000f0: 90b9 083c 6036 b9bd 5df5 a33c 5d98 023d
00000100: 5d1c 86bc e210 e53d 49a2 e73c 5243 0dbe
00000110: ae82 c53d 41d3 01be 13c7 abbd 8686 9b3d
00000120: 1a15 933a cbe2 17be 07c8 383d 8c3c a13d
00000130: 5a0d 973d 8b3e d53c bd14 8d3c d8cd 32bc
00000140: 087a 9dbb bc15 b2bd c54f 4c3d 630c 8e3d
00000150: e008 bf3d eedf 883d b028 efbd 94ad 12be
00000160: 2815 953d 4eb6 d23b 3d85 a43d d12b 923d
00000170: a088 a7bd 7669 f53b 5b41 533d d4ef 7dbd
00000180: e569 0ebe 52d1 55be e896 363c 5d0f fdbd
00000190: 7e60 5ebd ce90 033d 95d5 b0bd eed0 9db8
000001a0: 154e 82bd 88e7 8bbd e67d 38bd 136b d93d
000001b0: 2879 a7bd e3ba b33d f9b7 923d 89bf 493d
000001c0: 0297 003b 5edb a33d 0f9e 06bd ad6e a03d
000001d0: 79f2 dd3c 801e d23a 7124 65be 3a7f e3bd
000001e0: 9b24 48bc 2c8a 543c f72d 363c d879 063d
000001f0: f786 c33c 4a5b f6bd 53f3 ffbd fe51 6d3d
00000200: 69d5 aebd a96d 1abc 484b e13d 45ac b93d
00000210: 7e29 7c3d 28ae 6d3c 3c9c 3a3d de8e 303c
00000220: 1e37 a53d a0da 88bd 1c80 51bd a124 aabd
00000230: 5813 413d cd1b 123e a4db f23d c2ed 53bd
00000240: 7b27 9bbb ba6b 9cbc f1de 97bd 04c8 6c3c
00000250: fe9f dc3d a044 ae3d e77e 15bd 2095 0ebe
00000260: e80f d23c a840 3d3d 48bc f0bd 9fe0 4b3d
00000270: 318c b93d 49f9 37be 8a6f b3bd 2748 70bd
00000280: 66a2 293d 36c2 3dbe bf3a 153d 2068 6d3d
00000290: 268e 573c 3b1f b53d 5c1e 21be fc4a 883c
000002a0: 4466 de3d 629e af3d 946a fa3c b068 8b3c
000002b0: 9d5c 36be 7d86 75bd 9a4f e6bd 7ff8 11be
000002c0: 80b4 dfbd f1cf b4bd 0cae 103c 5b81 03bb
000002d0: 1236 203d 51c5 7c3d 9505 39be 94c1 9fbd
000002e0: a1e7 9a3d 5fbb d7bd ded2 e83d 715e 05be
000002f0: feb6 75bc 0900 333d 096a 463d 2e00 51be
00000300: 467f 153c e125 e73c c513 54bc bd03 e83d
00000310: 7f3b 573d 3837 e6bd d138 143d 84f6 d63d
00000320: 014f 353d a0a0 d13d 9bd1 023d 4cfa b6bd
00000330: 7d2c 8e3d 7512 fe3d ef83 37bc d7fe 39bb
00000340: 7944 813d 6c19 c9bd 518c 563d 35a9 443d
00000350: 2ffc 23bc cfa4 dabd c91e 11bd 5c34 f33d
00000360: b13b 953d cbb5 e6bd 4199 0a3d e4bc acbc
00000370: ae12 103e 00d4 743d 4824 aa3b d90f 353d
00000380: a536 1b3d 200f 1bbe 5d8e 1cbd ffc2 a9bd
00000390: 10b0 81bc 48fa 24be 012e 2ebd 1db7 723c
000003a0: 92d8 733c 6a64 e4bc 3a5c 2a3e ff74 45bd
000003b0: 2a57 d7bd b5c2 f83c 02b1 17bd ce0b 2a3c
000003c0: b6c7 903c ce90 6d3d 0ec8 8c3d e8e9 903d
000003d0: 758c 8c3c dc5f 803d ab04 933d 37df 9b3d
000003e0: ba66 27be 4761 5a3d fdcb a73d 57bb 2cbd
000003f0: 063a f03d ebc3 bbbd cd57 853d 4a64 08be

d1.2.bias f4 [256]
0.0155808665 -0.09630001 0.05571221 -0.07679963 0.020948393 -0.11266903 0.05424537 0.012989972
-0.0104529485 -0.12549981 0.008782446 -0.0031813083 -0.07130893 -0.02282434 0.014921094 -0.04124969
-0.049714666 -0.0886459 -0.020082036 0.045123763 0.032970395 -0.12647969 0.054535728 -0.13551281
0.016705535 0.05274136 -0.054588202 0.042504907 -0.06516615 0.044287607 0.047408752 0.054758914
-0.0200385 0.015228722 -0.12792191 -0.015698642 0.036258064 0.022027072 0.0013499064 0.063437045
0.01738648 -0.08603129 -0.008772016 0.035152387 -0.013169461 -0.06773144 0.0152714765 -0.0055546393
0.0147358375 -0.012668857 0.023299504 -0.027037265 0.032242663 0.03569356 0.027524464 -0.10062603
-0.040943023 0.063429646 0.037585255 -0.013973659 -0.09184578 0.044256948 0.054291684 0.06018939
-0.053878065 0.03389694 0.035247765 0.059580967 -0.013036029 -0.006464133 -0.033717446 -0.022489084
-0.082908064 0.017709708 0.005266341 -0.04556496 -0.016208129 -0.030481765 -0.016854035 -0.04065052
0.022600956 0.053421367 0.012403261 0.053703383 -0.026716573 -0.011534066 0.044891234 0.055242177
-0.1141771 -0.06944981 0.017094722 0.034922305 -0.078276366 0.0252665 -0.025007885 0.0707704
-0.06797008 -0.115442134 -0.093563855 -0.121579066 0.0025276507 -0.09801346 0.015572004 0.045979265
0.029060269 -0.06982111 -0.016309036 0.023778262 -0.14268738 0.0077563254 -0.010409965 0.05803776
0.020258777 0.012476241 0.06279515 -0.03843943 -0.052107796 0.045489483 0.028162893 -0.121071875
-0.010629799 -0.046178076 -0.06676191 -0.013880853 -0.041736558 -0.017051842 0.009655744 0.0044713467
-0.0013187402 0.03224617 0.047489457 -0.0693199 0.014424503 -0.14272024 0.020945488 -0.09920389
0.028194964 -0.095719226 0.028192792 -0.108765446 -0.0022333383 0.020213194 -0.059661802 -0.09119886
-0.10729016 -0.06827754 -0.1486789 -0.072812356 0.017404793 0.04305741 -0.02914736 0.053013995
-0.042904947 0.008143413 -0.04052234 -0.1041157 -0.0035615622 0.034708314 -0.05145297 -0.0058566756
-0.004102665 0.03290706 -0.03567992 0.059696555 0.027088337 0.052471396 0.035054214 -0.113252856
0.066537485 -0.003973462 0.06007796 -0.11900745 -0.09171958 -0.03524037 0.061035413 -0.06890901
0.0032959173 -0.015965074 -0.11827954 -0.050202224 -0.12313032 -0.11280989 -0.032365378 -0.13639545
-0.01760965 -0.028136285 0.046449903 -0.044485085 -0.012811745 -0.10578967 -0.004546149 -0.088292785
0.027641261 0.043707687 0.004056248 0.006439143 -0.05246578 -0.13043152 0.015532896 -0.05035803
0.01884053 -0.05629285 0.004830022 0.012056171 -0.11560386 0.06574779 0.029809425 -0.12425362
0.03721778 0.018934492 0.06683475 0.06223611 -0.005938652 0.06922393 0.016658464 0.0028863298
0.055078585 0.03747004 0.038757056 0.058156557 -0.052784923 0.017016819 -0.11487001 -0.014695323
0.032414462 0.05550839 0.016480932 -0.03327286 -0.09856517 -0.015166014 -0.09603269 -0.032420814
-0.011442893 -0.11845536 -0.08928001 0.05498416 0.0008377139 -0.052612916 0.06835884 0.007748802
-0.11593052 0.0026102872 -0.058721527 -0.0333997 0.07113179 0.006102672 0.06964193 0.008464767
0.015488826 -0.03914552 0.0052759596 -0.13251048 0.04120216 0.059647366 0.021991022 0.051055055
00000000: e446 7f3c f138 c5bd 7c32 643d 2049 9dbd
00000010: f79b ab3c 05bf e6bd 6530 5e3d e4d3 543c
00000020: d842 2bbc 0683 00be 40e4 0f3c 7f7d 50bb
00000030: 6b0a 92bd 1cfa babc 9b77 743c 6ff5 28bd
00000040: 9ba1 4bbd fb8b b5bd 1583 a4bc b2d3 383d
00000050: f70b 073d e483 01be db60 5f3d dfc3 0abe
00000060: 0cda 883c 5307 583d e197 5fbd a019 2e3d
00000070: d575 85bd ec66 353d ae2f 423d e24a 603d
00000080: c827 a4bc e481 793c f6fd 02be 709a 80bc
00000090: 5683 143d 1e72 b43c 58ef b03a 48eb 813d
000000a0: 176e 8e3c 2c31 b0bd 80b8 0fbc f3fb 0f3d
000000b0: b9c4 57bc c8b6 8abd 3735 7a3c b103 b6bb
000000c0: 956e 713c 0a91 4fbc 9ade be3c 417d ddbc
000000d0: e210 043d 6933 123d fc7a e13c 0515 cebd
000000e0: dfb3 27bd 67e7 813d fff2 193d c6f1 64bc
000000f0: a419 bcbd c646 353d f560 5e3d 2689 763d
00000100: 3faf 5cbd 85d7 0a3d f65f 103d 2c0b 743d
00000110: 1295 55bc 14d1 d3bb 4e1b 0abd 073b b8bc
00000120: b4cb a9bd f313 913c 4591 ac3b 53a2 3abd
00000130: e9c6 84bc e5b4 f9bc 7911 8abc 2981 26bd
00000140: a425 b93c 5dd0 5a3d 0c37 4b3c 14f8 5b3d
00000150: b7dc dabc 61f9 3cbc dfdf 373d 9f45 623d
00000160: afd5 e9bd b43b 8ebd 3b0a 8c3c b10a 0f3d
00000170: 5c4f a0bd b1fb ce3c 56dd ccbc 12f0 903d
00000180: e633 8bbd ed6c ecbd 689e bfbd 72fe f8bd
00000190: f1a6 253b 48bb c8bd b821 7f3c c154 3c3d
000001a0: cd0f ee3c 5ffe 8ebd 879a 85bc a1ca c23c
000001b0: a41c 12be c628 fe3b 8f8e 2abc 01b9 6d3d
000001c0: bcf5 a53c 2669 4c3c be9a 803d aa72 1dbd
000001d0: fc6e 55bd 2e53 3a3d deb5 e63c 88f4 f7bd
000001e0: 9c28 2ebc 3925 3dbd 78ba 88bd 846c 63bc
000001f0: f4f3 2abd 4eb0 8bbc 2033 1e3c 6084 923b
00000200: 94d9 acba 8f14 043d 4e84 423d 97f7 8dbd
00000210: c054 6c3c 4125 12be df95 ab3c 692b cbbd
00000220: 20f9 e63c 7108 c4bd 92f4 e63c 6bc0 debd
00000230: 335d 12bb 2496 a53c ef5f 74bd 78c6 babd
00000240: f2ba dbbd 18d5 8bbd 483f 18be a51e 95bd
00000250: 7f94 8e3c f75c 303d 72c6 eebc 3425 593d
00000260: 19bd 2fbd f36b 053c c1fa 25bd 9d3a d5bd
00000270: 1969 69bb 4e2a 0e3d 59c0 52bd 5be9 bfbb
00000280: a66f 86bb 8ec9 063d 1c25 12bd 6084 743d
00000290: 5ce8 dd3c 3fec 563d 0295 0f3d 1df1 e7bd
000002a0: ce44 883d d133 82bb 4f14 763d 2eba f3bd
000002b0: 7ad7 bbbd 3558 10bd 4500 7a3d 2b20 8dbd
000002c0: 5100 583b 30c9 82bc 8b3c f2bd d9a0 4dbd
000002d0: c02b fcbd df08 e7bd 8f91 04bd 40ab 0bbe
000002e0: 1d42 90bc 117e e6bc 4142 3e3d fe35 36bd
000002f0: 5ae8 51bc 41a8 d8bd ddf7 94bb d9d2 b4bd
00000300: ed6f e23c d506 333d 46ea 843b 72ff d23b
00000310: 5ce6 56bd d78f 05be b07d 7e3c 3944 4ebd
00000320: 7557 9a3c 5593 66bd 2945 9e3b 3f87 453c
00000330: b7c1 ecbd c7a6 863d e532 f43c af78 febd
00000340: ac71 183d 821c 9b3c a8e0 883d 4beb 7e3d
00000350: 0699 c2bb 47c5 8d3d 5577 883c 9428 3d3b
00000360: 159a 613d 2f7a 193d b8bf 1e3d 9235 6e3d
00000370: 0135 58bd db66 8b3c f840 ebbd a7c4 70bc
00000380: 07c5 043d c45c 633d 0503 873c 1f49 08bd
00000390: 89dc c9bd e07a 78bc c9ac c4bd b0cb 04bd
000003a0: f97a 3bbc b998 f2bd 70d8 b6bd 1237 613d
000003b0: 079a 5b3a a480 57bd b8ff 8b3d aae9 fd3b
000003c0: fb6c edbd 5a11 2b3b fc85 70bd 20ce 08bd
000003d0: 8bad 913d ecf8 c73b 6ea0 8e3d ceaf 0a3c
000003e0: d8c4 7d3c 0e57 20bd f5e1 ac3b d4b0 07be
000003f0: 99c3 283d cc50 743d 8426 b43c 1b1f 513d

d1.5.weight f4 [3, 256]
-0.05507961 -0.16912675 0.033930007 -0.076180205 -0.10683431 -0.09522286 0.042653114 -0.04124109
0.057036728 -0.181427 0.11207669 0.1296224 0.077217065 -0.08956559 0.047906622 -0.14513545
0.18992203 -0.045307584 0.18182209 0.03889299 0.080256216 -0.1160164 0.025219508 -0.08579449
0.06898008 0.03290442 0.22706649 0.017046874 -0.092194974 0.034891423 0.04168677 0.0498562
0.099080645 -0.09960056 -0.10242297 -0.29336613 0.075154014 0.023487242 -0.046597578 0.031530563
0.018425424 -0.0716069 0.08873877 0.033485577 -0.031656954 -0.088185936 0.05178598 -0.19709982
-0.09142566 0.15905721 0.054411083 -0.19688888 0.0067004603 0.05998909 -0.081635766 -0.122612245
-0.1539489 0.051554203 -0.008852773 0.043782443 0.07175329 0.035616234 -0.03820342 0.040564343
0.23508549 0.081958726 -0.069143735 0.038660128 -0.17654115 0.1280839 0.2129038 -0.04110364
0.063041426 -0.088863805 -0.022166084 -0.0755378 -0.10768857 -0.033777244 -0.1776711 -0.074045755
0.07917774 0.03117106 -0.12758854 0.045381576 -0.3277732 -0.2091531 0.032544848 0.04021229
-0.100614525 -0.12259133 -0.13299723 0.027663385 -0.098402016 0.035018727 -0.18129401 0.037492197
0.08959816 -0.10033328 0.08063406 -0.1791246 0.16955554 -0.08652522 -0.052478492 0.042014357
-0.029911632 -0.21418802 -0.20721798 0.05640551 -0.117496334 -0.09180672 -0.121291794 0.039671525
0.088584915 -0.08045481 0.050748643 -0.007869026 -0.102262616 0.043193605 0.03770971 -0.06980068
-0.14171161 -0.06273524 -0.07123442 -0.33857292 0.21849984 0.16116008 -0.028521258 -0.11849517
0.11196249 0.05760536 0.058580413 -0.08297894 0.060202334 -0.1440706 -0.14518143 -0.06908677
0.09650534 -0.14929026 0.007615793 -0.12304411 0.11043307 -0.026737059 -0.08283576 -0.2348372
-0.3027726 -0.060731452 -0.09988967 -0.091760695 -0.06001133 0.053869426 0.18270588 0.046504237
-0.18412058 -0.12653905 0.19998732 -0.29736626 -0.19949079 0.04273243 -0.21411182 0.1529209
0.13046363 0.05028096 0.04121253 0.042598773 0.04742964 0.038668204 0.047603372 -0.26869652
-0.052129194 -0.089866 0.032107532 -0.12658931 -0.07225647 0.19529943 0.054998286 0.07373236
0.09266884 -0.13233723 -0.15559453 -0.07414456 -0.09865909 -0.21478513 -0.28001505 -0.06887088
-0.2726773 0.21305905 -0.079481296 -0.05361405 -0.23453672 -0.003667532 -0.053234942 0.08898837
0.049676105 0.041478187 -0.080559805 0.10218847 -0.2255557 -0.18064345 0.143704 -0.056926955
-0.060932655 0.2198509 -0.11272254 0.10349514 -0.12908223 0.036509912 0.05680741 -0.091251776
-0.07531512 -0.13450892 -0.046960607 0.043955084 -0.16337645 0.033260323 0.050689284 -0.052277207
0.03499548 0.037760083 0.043329127 0.04106783 -0.058886293 0.095085196 -0.1907744 0.14767325
0.064552896 0.03607689 0.06099758 0.060183857 -0.28549653 0.15579218 -0.060526267 -0.097038366
0.0472234 -0.16753143 -0.073125556 0.041426882 -0.026241535 0.18256414 0.04241964 0.14459735
-0.22010905 -0.08636669 0.0810538 -0.052340787 0.038992167 -0.09959439 0.048564583 -0.08436156
0.07674922 0.20896488 -0.037034877 -0.1764629 0.049650617 0.028273977 -0.023331238 0.032962088
00000000: 289b 61bd 902f 2dbe 31fa 0a3d 5e04 9cbd
00000010: f2cb dabd 3404 c3bd 08b5 2e3d 6bec 28bd
00000020: 589f 693d 00c8 39be 7788 e53d bcbb 043e
00000030: fb23 9e3d 2a6e b7bd bc39 443d 639e 14be
00000040: ec7a 423e 7294 39bd 922f 3a3e 424e 1f3d
00000050: 5f5d a43d 029a edbd 2499 ce3c 06b5 afbd
00000060: 6e45 8d3d c9c6 063d 1e84 683e e3a5 8b3c
00000070: b8d0 bcbd 4fea 0e3d bfbf 2a3d 0436 4c3d
00000080: cbea ca3d 61fb cbbd 22c3 d1bd 1634 96be
00000090: 59ea 993d 5168 c03c 1add 3ebd 3126 013d
000000a0: eaf0 963c a3a6 92bd acbc b53d 2c28 093d
000000b0: b9aa 01bd d49a b4bd 891d 543d 89d4 49be
000000c0: 603d bbbd e5df 223e 28de 5e3d 3d9d 49be
000000d0: 898f db3b 1fb7 753d a730 a7bd 211c fbbd
000000e0: c8a4 1dbe 802a 533d 390b 11bc 3855 333d
000000f0: 64f3 923d 54e2 113d 307b 1cbd cc26 263d
00000100: 40ba 703e fad9 a73d 3b9b 8dbd 155a 1e3d
00000110: 34c7 34be 6d28 033e 7403 5a3e 4a5c 28bd
00000120: dd1b 813d 3afe b5bd a695 b5bc 90b3 9abd
00000130: d38b dcbd 025a 0abd 6aef 35be 4da5 97bd
00000140: f027 a23d 735a ff3c 92a6 02be 08e2 393d
00000150: e4d1 a7be 3b2c 56be bf4d 053d a4b5 243d
00000160: fd0e cebd 2a11 fbbd 6d30 08be 539e e23c
00000170: ff86 c9bd cc6f 0f3d 23a5 39be 6b91 193d
00000180: 3d7f b73d 897b cdbd 7823 a53d 706c 37be
00000190: f89f 2d3e 2234 b1bd b0f3 56bd 3f17 2c3d
000001a0: 3d09 f5bc 1b54 5bbe f330 54be 7709 673d
000001b0: eba1 f0bd 2905 bcbd d567 f8bd 9c7e 223d
000001c0: 026c b53d 7ec5 a4bd cfdd 4f3d 16ed 00bc
000001d0: 106f d1bd c7eb 303d 7f75 1a3d a9f3 8ebd
000001e0: d91c 11be 557b 80bd 5ae3 91bd 6e59 adbe
000001f0: 6cbe 5f3e 2607 253e 6aa5 e9bc 98ad f2bd
00000200: 974c e53d 99f3 6b3d 04f2 6f3d ddf0 a9bd
00000210: b996 763d 3e87 13be 71aa 14be 5d7d 8dbd
00000220: 97a4 c53d 8cdf 18be e78d f93b 8dfe fbbd
00000230: bc2a e23d ad07 dbbc cca5 a9bd 2a79 70be
00000240: 0305 9bbe 8bc1 78bd f592 ccbd 08ed bbbd
00000250: 71ce 75bd 30a6 5c3d 4017 3b3e 3a7b 3e3d
00000260: 1b8a 3cbe 7493 01be 7ac9 4c3e 6440 98be
00000270: 5047 4cbe 3308 2f3d 2140 5bbe 4c97 1c3e
00000280: 4298 053e 68f3 4d3d 78ce 283d 0d7c 2e3d
00000290: 9545 423d 8d62 1e3d c1fb 423d 9792 89be
000002a0: 6c85 55bd aa0b b8bd 3083 033d a1a0 01be
000002b0: 33fb 93bd 93fc 473e e245 613d fe00 973d
000002c0: 29c9 bd3d 6983 07be 2c54 1fbe 1ad9 97bd
000002d0: c70d cabd a2f0 5bbe 225e 8fbe 2d0c 8dbd
000002e0: 5c9c 8bbe 272c 5a3e 17c7 a2bd 689a 5bbd
000002f0: 652a 70be fa5a 70bb e20c 5abd 893f b63d
00000300: 2c79 4b3d 08e5 293d 8afc a4bd 3048 d13d
00000310: 13f8 66be 99fa 38be 2427 133e 3d2c 69bd
00000320: 8594 79bd 9820 613e 13db e6bd 43f5 d33d
00000330: 222e 04be 6b8b 153d e3ae 683d 36e2 babd
00000340: d03e 9abd b5bc 09be c459 40bd 3f0a 343d
00000350: 284c 27be fa3b 083d 919f 4f3d a020 56bd
00000360: 6c57 0f3d 51aa 1a3d e279 313d be36 283d
00000370: c132 71bd 07bc c23d 5d5a 43be a837 173e
00000380: 4f34 843d 5cc5 133d 99d8 793d 5983 763d
00000390: 9a2c 92be fc87 1f3e 64ea 77bd 0dbc c6bd
000003a0: 536d 413d 5c8d 2bbe dac2 95bd 3caf 293d
000003b0: 7df8 d6bc 18f2 3a3e 37c0 2d3d 5411 143e
000003c0: 4464 61be 05e1 b0bd 89ff a53d 4b63 56bd
000003d0: 40b6 1f3d 25f8 cbbd a8eb 463d c1c5 acbd
000003e0: b22e 9d3d e4fa 553e e2b1 17bd b1b2 34be
000003f0: 725e 4b3d d49e e73c 2721 bfbc 4103 073d

d1.5.bias f4 [3]
0.48860767 0.5669203 0.49199054
00000000: c92a fa3e b021 113f 2fe6 fb3e
