netw.pt (torch, 797251 bytes, 14 tensors)

ch_adjuster.weight f4 [8, 3, 1, 1]
0	0xbe59b428	-0.2126013
1	0xbf06e8d1	-0.52699
2	0xbed81571	-0.42203858
3	0x3ec400b3	0.38281783
4	0x3f127493	0.5720913
5	0xbe04d0f1	-0.1297033
6	0xbe427c10	-0.18992639
7	0x3e90a277	0.2824895
8	0xbeefe44b	-0.4685386
9	0x3e059ce0	0.13048124
10	0x3ea8cd6c	0.32969224
11	0x3e020ce0	0.12700224
12	0x3e810145	0.2519628
13	0xbe63a6df	-0.22231625
14	0xbd92711d	-0.07150481
15	0xbe80bb48	-0.25142884
16	0x3edb4f7f	0.42834088
17	0xbe9167c3	-0.28399476
18	0xbe735ae2	-0.23765138
19	0x3f0b1e72	0.5434333
20	0xbd7eadc6	-0.062177442
21	0x3eaf1f2b	0.34203467
22	0x3e833206	0.25624102
23	0xbda5f9a4	-0.08104256

ffcs.0.c.weight f4 [8, 8, 3, 3]
0	0xbd24f79e	-0.04027521
1	0x3e43522c	0.19074315
2	0x3d1885c6	0.03723695
3	0xbe170e0d	-0.14751454
4	0xbe0d2885	-0.13784988
5	0xbe6f9e4c	-0.23400229
6	0xbdacc5f7	-0.08436196
7	0xbe040732	-0.1289337
8	0xbd1dc340	-0.038516283
9	0xbeb7a88c	-0.3587078
10	0xbe1fb675	-0.15596946
11	0xbbad1936	-0.0052825464
12	0x3caf7275	0.021416882
13	0xbc22f623	-0.009946379
14	0xbdca65da	-0.09882708
15	0xbeb2402a	-0.34814578
16	0x3e8e3d29	0.27781036
17	0xbee68699	-0.45024565
18	0xbe1804c1	-0.14845563
19	0x3e19300a	0.14959732
20	0xbda453f6	-0.08023827
21	0x3d9623d0	0.073310494
22	0x3dc4373e	0.09580849
23	0xbe00be9c	-0.12572712
24	0xbdbcf3af	-0.092261665
25	0x3df43297	0.11923712
26	0xbd32d8a2	-0.04366363
27	0x3e098c6b	0.13432471
28	0xbd720df3	-0.059095334
29	0x3e73be49	0.23803057
30	0x3e1bfa8a	0.15232292
31	0xbd2661a9	-0.04062048
32	0xbc1b23e6	-0.009469008
33	0x3d21bfc7	0.039489534
34	0x3e04ccbe	0.12968728
35	0xbde2ef1f	-0.11080765
36	0x3d1cad75	0.03825136
37	0xbd9120c1	-0.070863254
38	0xbd0d1727	-0.034445908
39	0x3dc4146c	0.09574208
40	0x3c8768f3	0.016529536
41	0x3e67118a	0.22565284
42	0xbd5139b0	-0.051080406
43	0x3de274b9	0.11057419
44	0xbe6ff205	-0.23432167
45	0x3ce75440	0.028238416
46	0x3d748ea4	0.059706345
47	0xbdc129d3	-0.094318055
48	0xbd87a9f6	-0.06624214
49	0x3d60a63c	0.054846033
50	0xbd12bb54	-0.03582318
51	0x3e5bda2e	0.21469948
52	0xbe01700a	-0.12640396
53	0x3d7424af	0.059605297
54	0x3e8af4d7	0.27139923
55	0x3e48896f	0.19583677
56	0xbe61dc70	-0.22056746
57	0xbd71f2c4	-0.05906941
58	0xbd05b7c3	-0.032645952
59	0xbd9c8ae4	-0.07643679
60	0x3e81c215	0.25343385
61	0xbca37642	-0.01995385
62	0x3e84cd43	0.25937852
63	0xbe96f965	-0.29487148
64	0xbee40657	-0.44536087
65	0x3e0ebb44	0.13938624
66	0x3e825906	0.25458544
67	0xbe14686c	-0.14492959
68	0xbd8b8482	-0.06812383
69	0xbe432153	-0.19055681
70	0x3eb288a4	0.34869874
71	0xbe9421f4	-0.28932154
72	0x3d737002	0.05943299
73	0xbe3db562	-0.18526223
74	0x3e17bcf3	0.14818172
75	0x3c670149	0.0140994275
76	0x3d4a26d5	0.04935344
77	0x3e94a75b	0.29033932
78	0xbd058304	-0.03259565
79	0x3e22660d	0.15859242
80	0x3bba95d1	0.005694129
81	0x3b5e9f66	0.003396952
82	0xbe7c03eb	-0.2461087
83	0xbd27c494	-0.040958956
84	0xbe573598	-0.21016538
85	0x3e0ca6e2	0.13735536
86	0xbc97bf84	-0.018523939
87	0x3e25276d	0.16128321
88	0x3d0643df	0.03277957
89	0xbe8a7fcd	-0.2705063
90	0xbe02a7c1	-0.12759306
91	0x3df4fd97	0.11962431
92	0x3de51842	0.111862674
93	0xbdae189b	-0.08500787
94	0x3da9af3b	0.08285376
95	0xbd27cf42	-0.04096914
96	0x3e858dc6	0.26084727
97	0x3e1154e4	0.1419254
98	0xbe4f655e	-0.20253512
99	0x3e131dbf	0.14366816
100	0x3e385af5	0.18003447
101	0x3d975bb0	0.07390535
102	0x3dd550fb	0.104158364
103	0x3d5903a4	0.052981988
104	0xbe7a13d0	-0.2442162
105	0xbe40c0b4	-0.1882351
106	0xbe001b38	-0.12510383
107	0xbe1e00ce	-0.15429994
108	0x3dcc263b	0.099682294
109	0xbe8a153a	-0.2696932
110	0x3e03368d	0.12813778
111	0xbe8c3ffe	-0.27392572
112	0xbb9ed53e	-0.004847198
113	0xbd6c9bb0	-0.057765663
114	0x3d350239	0.044191573
115	0x3c262c77	0.010142437
116	0x3dd6bd06	0.10485272
117	0xbcf53d4e	-0.029936459
118	0xbe2e1349	-0.16999544
119	0x3e400a06	0.18753824
120	0x3db30ada	0.08742304
121	0x3e413225	0.18866785
122	0x3d7ee4cb	0.062229913
123	0x3e3d7b97	0.18504177
124	0x3c637481	0.013882757
125	0xbe5250a3	-0.20538573
126	0xbc216474	-0.00985061
127	0xbb8188dd	-0.003953083
128	0x3e4ec04d	0.20190544
129	0x3e9690a9	0.29407242
130	0x3e193808	0.1496278
131	0x3e016d64	0.12639385
132	0x3e024d23	0.12724738
133	0xbe1ec42e	-0.15504524
134	0xbdf6c30f	-0.12048923
135	0xbd854817	-0.06507891
136	0x3da312c5	0.079625644
137	0x3db87eee	0.09008585
138	0xbeb3d0b2	-0.3512016
139	0xbdbc9ed0	-0.092099786
140	0xbb6f5c59	-0.003652355
141	0xbe028131	-0.12744595
142	0x3dfec91d	0.12440703
143	0xbe67483b	-0.22586147
144	0x3e1aa962	0.15103677
145	0xbdfe3c22	-0.12413813
146	0xbcc99961	-0.02460927
147	0x3d527913	0.051384997
148	0xbdd03178	-0.101656854
149	0xbd21f0f0	-0.039536417
150	0x3d82cf6c	0.06387219
151	0xbcb398b7	-0.021923406
152	0xbcc3d650	-0.023905903
153	0xbf2a6b2f	-0.665698
154	0x3da9d31c	0.08292219
155	0xbe7f49fb	-0.24930565
156	0x3e771242	0.24128059
157	0x3e18d96e	0.14926693
158	0x3e1a92d6	0.15095076
159	0xbe7b1d07	-0.24522792
160	0xbe88c739	-0.26714495
161	0x3e0b9875	0.13632376
162	0x3d867720	0.0656569
163	0xbd0ae7a7	-0.033912327
164	0x3dbb2cca	0.09139402
165	0xbe21f0f4	-0.15814573
166	0x3ddf6bad	0.109092094
167	0x3dd1cf61	0.102446325
168	0xbdff8ed5	-0.12478415
169	0xbdc33b4f	-0.095327966
170	0x3d18dffc	0.037322983
171	0xbe1e4d6d	-0.15459223
172	0x3be51864	0.006991433
173	0x3de617d6	0.11235015
174	0x3e261ca1	0.16221859
175	0xbd25db9c	-0.04049264
176	0xbd00b69b	-0.031424146
177	0xbd9388e0	-0.07203841
178	0x3db4cbf5	0.08827964
179	0xbe183f5d	-0.14867921
180	0xbed96f0c	-0.42467535
181	0x3da2481e	0.079239115
182	0x3dd1ea50	0.1024977
183	0x3e24c9bc	0.1609258
184	0xbe1a27d4	-0.15054256
185	0x3d862cf5	0.065515436
186	0x3d87a5b8	0.06623405
187	0xbd575a38	-0.052576274
188	0x3e32af8f	0.17449783
189	0x3e759545	0.23982723
190	0x3e04ccf1	0.12968804
191	0xbdd4eef8	-0.10397142
192	0xbe8b9688	-0.27263284
193	0x3b162d7b	0.0022915292
194	0x3e3f3cff	0.18675612
195	0x3cb84e63	0.022498315
196	0xbd16f2de	-0.03685271
197	0xbe4da5c2	-0.20082763
198	0x3e8f2c88	0.27963662
199	0x3e732f9c	0.2374863
200	0xbdebbaa3	-0.115102075
201	0xbd923f0e	-0.07140933
202	0x3dd37a75	0.10326091
203	0x3dc133d4	0.094337136
204	0xbd1b5d5e	-0.03793084
205	0x3cbc201d	0.022964532
206	0x3d795e8f	0.060881194
207	0xbeed0d25	-0.4629909
208	0x3cdf9dc9	0.027296918
209	0xbc74dd79	-0.014945381
210	0x3c2190f1	0.009861217
211	0x3e24d1af	0.16095613
212	0xbdc6dd17	-0.09710138
213	0xbdb02a1e	-0.08601783
214	0xbe767f9e	-0.2407212
215	0x3bfba1f1	0.007679217
216	0xbd0464de	-0.032322757
217	0x3d1eed8a	0.038800754
218	0xbd9b12c9	-0.07571942
219	0xbe127fc7	-0.14306556
220	0xbe2751bb	-0.16339771
221	0xbdd52579	-0.10407538
222	0x3e0d13aa	0.13777032
223	0xbd910ec4	-0.070828944
224	0xbe44f221	-0.1923299
225	0x3e1ad101	0.15118791
226	0xbd0d62dd	-0.03451811
227	0x3e4f5695	0.20247872
228	0xbdbb9e28	-0.09161025
229	0xbf250f87	-0.6447682
230	0xbeda37b0	-0.4262061
231	0xbed6e4da	-0.41971475
232	0x3d6e3d3f	0.058163878
233	0xbdf4178e	-0.11918555
234	0xbe17f38f	-0.14839004
235	0xbdac8b35	-0.08424989
236	0xbdc31e0f	-0.095272176
237	0x3e069cbb	0.13145725
238	0xbcf7d69a	-0.030253697
239	0xbc812130	-0.015762895
240	0xbdc51c6a	-0.0962456
241	0x3e18638b	0.14881723
242	0x3d5a095c	0.053231582
243	0x3e404c41	0.18779089
244	0xbe160700	-0.14651108
245	0xbd9c08ae	-0.07618843
246	0xbe5883cf	-0.21144031
247	0xbdceae2b	-0.10091814
248	0x3e25b2ca	0.16181484
249	0x3de956a6	0.1139348
250	0x3dd46b88	0.103720725
251	0xbde03ef4	-0.10949507
252	0x3e2c5103	0.16827779
253	0x3bc4a566	0.0060011623
254	0xbe4321a2	-0.19055799
255	0x3c99adb4	0.018759586

ffcs.1.c.weight f4 [8, 8, 3, 3]
0	0x3e0ebad8	0.13938463
1	0x3c9c4048	0.01907362
2	0xbe1a0484	-0.15040785
3	0x3d9d1576	0.07670109
4	0x3e5e3cfb	0.2170295
5	0xbe2649e9	-0.16239132
6	0x3f00d3f1	0.50323397
7	0x3e4a83e0	0.19776869
8	0x3d8e4305	0.06946377
9	0xbe128c10	-0.14311242
10	0xbe556682	-0.20839885
11	0x3db1ac57	0.08675449
12	0xbcc95564	-0.02457685
13	0x3da4f0a2	0.080537096
14	0xbe89dfc5	-0.26928535
15	0xbe0886c6	-0.13332662
16	0x3abbc13b	0.0014324555
17	0xbcc3fbc1	-0.023923757
18	0x3dc4b5a3	0.09604957
19	0x3e27de1a	0.16393319
20	0xbdfd8101	-0.12378121
21	0x3d1936c6	0.03740575
22	0x3dd79981	0.105273254
23	0x3de0f2b1	0.1098379
24	0x3bc7710e	0.006086475
25	0xbdfe5035	-0.12417642
26	0xbc9c2f01	-0.019065382
27	0x3e0e7004	0.13909918
28	0x3dc4086d	0.095719196
29	0x3e9c3255	0.3050715
30	0x3dd39569	0.10331232
31	0x3d6a9bec	0.057277605
32	0xbde9c11e	-0.11413787
33	0x3e13a60f	0.14418815
34	0x3dc12704	0.0943127
35	0xbd3e7bd5	-0.046504814
36	0xbc18a8e9	-0.009317615
37	0xbd6da86e	-0.058021955
38	0xbe21dcfb	-0.15806954
39	0x3ba5ee1a	0.0050637843
40	0xbd68eb4f	-0.056865033
41	0xbdde8c2f	-0.10866582
42	0x3e94d60f	0.29069564
43	0x3dcd72f5	0.10031692
44	0x3e20c2cd	0.1569931
45	0x3dcdbdcc	0.100459665
46	0x3ea2e656	0.31816357
47	0x3e3a160a	0.1817247
48	0x3e97bbfc	0.29635608
49	0xbdd78475	-0.10523311
50	0xbd31211b	-0.043244462
51	0xbdfbe5e6	-0.12299709
52	0xbe7d83af	-0.24757265
53	0x3ac98db5	0.0015377315
54	0x3d070b51	0.032969777
55	0x3dd4c3d7	0.10388916
56	0x3dfd4829	0.12367279
57	0xbe0648cd	-0.13113709
58	0xbc8c6f96	-0.017143052
59	0xbdad4e4e	-0.08462201
60	0x3d94dc00	0.07268524
61	0x3d59b573	0.05315156
62	0x3e8f53b0	0.27993536
63	0x3e3d8a1b	0.18509714
64	0xbd753cb2	-0.059872337
65	0x3e13c58e	0.1443083
66	0x3e2e00be	0.1699247
67	0x3e513261	0.20429374
68	0xbd0497ec	-0.032371446
69	0x3dcf2999	0.10115356
70	0x3dac9998	0.08427733
71	0xbd6cb040	-0.057785273
72	0x3e97bf1f	0.29638
73	0x3e060290	0.13086915
74	0xbbc78965	-0.0060893768
75	0xbdd64a1f	-0.10463356
76	0xbe743032	-0.2384651
77	0xbdd8b38e	-0.10581122
78	0xbc25b386	-0.0101136025
79	0x3c5d975d	0.013524857
80	0xbd5d706e	-0.0540623
81	0xbe908835	-0.28228918
82	0xbe6b040a	-0.2295076
83	0xbddc29bb	-0.10750147
84	0xbcf20a5d	-0.029545957
85	0xbdfabac8	-0.12242657
86	0x3db9d919	0.09074611
87	0xbe933f48	-0.28759217
88	0x3e5d86cf	0.21633457
89	0xbe2d1b12	-0.16904858
90	0x3e8deff0	0.2772212
91	0xbe453904	-0.19260031
92	0xbde92356	-0.11383693
93	0xbdda965f	-0.10673212
94	0xbddd3840	-0.108017445
95	0x3df0fef0	0.117673755
96	0x3e8d88fc	0.27643573
97	0x3dbfb7b6	0.09361212
98	0x3d957a66	0.07298736
99	0xbdaa86b8	-0.08326477
100	0xbd09aa47	-0.033609655
101	0xbd3b65a6	-0.045751236
102	0x3e000973	0.12503605
103	0xbd6682f4	-0.05627723
104	0x3e1f48e8	0.15555155
105	0xbed57c9e	-0.41696638
106	0x3e371306	0.1787835
107	0xbdd01309	-0.10159881
108	0xbe0534e4	-0.13008457
109	0xbd66de66	-0.05636444
110	0x3e40194a	0.18759647
111	0x3c18accf	0.0093185445
112	0xbd800b4d	-0.062521555
113	0x3e22dddb	0.15904944
114	0xbea516da	-0.32243997
115	0xbdd7917f	-0.10525798
116	0xbcc296db	-0.023753574
117	0x3e13000e	0.1435549
118	0xbdc4592c	-0.09587321
119	0x3d93a036	0.07208292
120	0xbe6f825e	-0.23389575
121	0x3e589067	0.21148835
122	0xbe7fdb27	-0.24985944
123	0x3eb0a30d	0.34499398
124	0xbe237487	-0.1596242
125	0xbe662d1e	-0.22478148
126	0x3da6450b	0.08118638
127	0xbe72c28b	-0.23707025
128	0xbd2372ae	-0.03990429
129	0x3bb26044	0.0054436047
130	0x3e93f597	0.28898308
131	0x3e2d7261	0.16938163
132	0x3c0c55bb	0.008565362
133	0x3cbfb2a4	0.023400612
134	0xbde064cd	-0.10956726
135	0x3dada43a	0.08478589
136	0xbe815a31	-0.25264123
137	0x3ddc97ae	0.10771118
138	0xbe662823	-0.22476248
139	0xbe10eed5	-0.14153607
140	0x3e94638f	0.28982207
141	0xbebe6567	-0.3718674
142	0xbe40dfbb	-0.18835346
143	0x3c5ba73a	0.013406569
144	0x3d930afe	0.07179831
145	0x3e0e9f79	0.13928021
146	0x3c9e7e38	0.019347295
147	0x3d39a90a	0.045327224
148	0xbdd0d258	-0.1019637
149	0x3ea6db2b	0.32589087
150	0x3df997fe	0.12187193
151	0xbda8dff3	-0.0824584
152	0x3dda9e8f	0.10674774
153	0xbe3d36ce	-0.18477938
154	0x3d8b5e6e	0.068051204
155	0x3dc52f1d	0.09628127
156	0x3e0d531b	0.13801233
157	0x3e464f41	0.1936617
158	0x3e2c981c	0.168549
159	0x3bddd6a6	0.006769973
160	0x3d6bd305	0.05757429
161	0x3db1c9b9	0.08681054
162	0xbda63d4d	-0.08117161
163	0x3e21f300	0.15815353
164	0x3cfbc746	0.03073467
165	0xbd4c062d	-0.049810577
166	0x3e527d9e	0.20555732
167	0x3eb4aa4b	0.35286173
168	0x3d5107cd	0.05103283
169	0xbd3bc36d	-0.04584067
170	0x3e2c1883	0.16806225
171	0xba96722d	-0.0011478119
172	0x3e232ade	0.15934321
173	0x3b99be8b	0.004691904
174	0x3e74764a	0.23873249
175	0x3dd2fac0	0.10301733
176	0x3d7c3579	0.061574433
177	0x3e77234c	0.24134558
178	0x3d845da4	0.06463173
179	0x3d907c4b	0.07054957
180	0x3de0cb4b	0.10976275
181	0x3e229bdf	0.15879773
182	0xbe37aa46	-0.17936048
183	0x3d6b768d	0.057486106
184	0xbe10428d	-0.14087887
185	0xbcf27db7	-0.029600961
186	0x3d7216d4	0.0591038
187	0x3d17d3d4	0.03706725
188	0xbe036ed7	-0.12835251
189	0x3e2ec336	0.17066655
190	0xbc83d7bf	-0.016094087
191	0xbcb11d4c	-0.021620415
192	0x3d40fb9d	0.047114957
193	0x3d46d3e0	0.048541903
194	0x3d01e2b3	0.031710338
195	0x3e73fdac	0.23827237
196	0x3e81c042	0.25341994
197	0x3e2588ab	0.16165416
198	0x3e8376f1	0.25676683
199	0xbdcd0bb1	-0.100119956
200	0xbe452459	-0.19252147
201	0xbdb94587	-0.090464644
202	0xbdbae3b2	-0.09125461
203	0x3e2c4001	0.1682129
204	0x3e5af4f2	0.21382502
205	0xbc0f9480	-0.0087634325
206	0xbdf44a8e	-0.11928283
207	0x3a6a4a86	0.00089374965
208	0xbd26bf8a	-0.04071001
209	0x3db5d4d1	0.08878482
210	0x3a3d2e7d	0.0007216705
211	0xbdef69a0	-0.11690068
212	0xbe89c914	-0.26911223
213	0xbda895dd	-0.08231709
214	0xbc9cce69	-0.019141393
215	0xbd2e8615	-0.04260834
216	0x3d197061	0.03746069
217	0xba51976e	-0.0007995282
218	0x3d9efaf8	0.07762712
219	0xbc3131f5	-0.010815133
220	0xbe741435	-0.23835833
221	0x3d904658	0.07044667
222	0xbdc36ac1	-0.09541846
223	0x3dda25b0	0.106517196
224	0xbe29a236	-0.16565785
225	0xbdc37ce3	-0.095453046
226	0x3d9f242b	0.0777057
227	0x3e7a01b4	0.24414712
228	0x3e82003e	0.2539081
229	0xbe0b1dec	-0.13585633
230	0xbdc16349	-0.09442765
231	0xbe15af20	-0.14617586
232	0xbc831ab8	-0.016003951
233	0x3dd6aa8c	0.10481748
234	0xbe3a66bd	-0.18203254
235	0x3e5a9bcd	0.21348496
236	0x3e7be47e	0.24598882
237	0x3e9c3f42	0.30517012
238	0xbc97e569	-0.018542008
239	0xbe0371b8	-0.12836349
240	0xbd8ce849	-0.068802424
241	0xbd68c777	-0.05683085
242	0xbd5fd8cf	-0.054650124
243	0x3e3765d2	0.17909935
244	0xbe72bfbb	-0.23705952
245	0x3e0fbf07	0.14037715
246	0x3c26fa3f	0.010191499
247	0x3e6e9294	0.23298103
248	0xbe1cd9e4	-0.15317494
249	0x3cf57e85	0.029967556
250	0x3e278145	0.16357906
251	0xbceddb20	-0.029035151
252	0xbc14bcbf	-0.009078204
253	0xbe07af48	-0.13250458
254	0x3e1f4b5f	0.15556096
255	0xbe29c461	-0.16578819

ffcs.2.c.weight f4 [8, 8, 3, 3]
0	0xbdb8039c	-0.089850634
1	0xbe128499	-0.14308394
2	0xbe8c3878	-0.27386832
3	0xbe05f51f	-0.13081788
4	0x3e2e7679	0.17037381
5	0xbd1b3177	-0.03788897
6	0xbb63f1da	-0.0034781606
7	0x3d9feeb7	0.07809203
8	0xbe06a94f	-0.13150524
9	0x3de3dd50	0.111261964
10	0x3cb9ee6c	0.022696696
11	0xbe40b95c	-0.18820709
12	0xbe0a4e18	-0.13506353
13	0x3d2a1db1	0.041532222
14	0xba483c1f	-0.0007638353
15	0x3e0d1529	0.13777603
16	0x3bcb75f9	0.006209132
17	0x3de2b404	0.110694915
18	0x3dcc186c	0.099655956
19	0xbc57ad55	-0.013163884
20	0xbe649d07	-0.22325526
21	0x3ca64255	0.020295301
22	0x3dbd6137	0.09247058
23	0xbe31e816	-0.1737369
24	0x3e981339	0.29702166
25	0x3e41b5a7	0.18916951
26	0x3d539c08	0.051662475
27	0x3d575f1d	0.05258094
28	0xb9fa7ad2	-0.00047775224
29	0x3e0d24d1	0.13783576
30	0x3ddd790c	0.108141035
31	0xbd0c4362	-0.03424395
32	0x3d93a06e	0.07208334
33	0xb9698f1d	-0.00022273925
34	0xbe352712	-0.17690685
35	0x3c16c134	0.009201337
36	0x3d846336	0.064642355
37	0xbd432248	-0.047640115
38	0x3d688187	0.056764152
39	0xbcb2b449	-0.021814482
40	0x3e55c8c3	0.20877366
41	0x3e07f00c	0.13275164
42	0x3d94aa5f	0.07259058
43	0x3c533731	0.012891577
44	0x3e3e970b	0.18612306
45	0xbe022c01	-0.12712099
46	0xbcb2ab99	-0.02181034
47	0x3d14a1ab	0.03628699
48	0xbd3e0632	-0.046392627
49	0xbd9775f6	-0.07395546
50	0x3dc683ad	0.09693084
51	0xbd417caf	-0.04723805
52	0xbd6f6e57	-0.058454838
53	0x3e2ff4b9	0.17183198
54	0x3e7df3f2	0.24800089
55	0x3ded225c	0.11578819
56	0x3e039897	0.12851177
57	0x3e354613	0.17702512
58	0x3bda7dae	0.006667814
59	0x3e3e598d	0.18588848
60	0xbdff7afa	-0.12474628
61	0x3e68af7e	0.22723195
62	0x3e221318	0.15827596
63	0xbd93e6d9	-0.07221765
64	0xbd8b1904	-0.06791881
65	0x3e3d006e	0.18457195
66	0x3e1f8c81	0.15580942
67	0xbe94c489	-0.29056194
68	0x3e294879	0.16531552
69	0xbe8c0189	-0.2734492
70	0x3d1db1fa	0.03849981
71	0xbdce565f	-0.10075068
72	0xbe585bf8	-0.21128833
73	0xbe833fc0	-0.25634575
74	0x3e16afda	0.1471552
75	0xbe809570	-0.25114012
76	0xbe6a80a8	-0.22900641
77	0xbda9b890	-0.08287156
78	0x3d4ae40b	0.049533885
79	0x3e0a2563	0.13490824
80	0x3c3e7ec5	0.011626904
81	0xbe5e158d	-0.21687908
82	0x3e2e1b0f	0.1700251
83	0x3e2cd7bc	0.16879171
84	0xbd76c46c	-0.060245916
85	0xbe337ef2	-0.17528895
86	0x3e201705	0.15633781
87	0xbd9f991a	-0.07792874
88	0x3dcf6e61	0.10128475
89	0x3daecd5c	0.08535263
90	0xbdcede51	-0.10100997
91	0x3d022102	0.03176976
92	0xbdc31cea	-0.09526999
93	0xbde3370d	-0.110944845
94	0x3cf0fc74	0.029417254
95	0xbea46536	-0.32108468
96	0x3d44b52b	0.048024338
97	0xbe22bbeb	-0.15891998
98	0xbe22dd02	-0.1590462
99	0x3d095a3a	0.033533312
100	0x3d79c60e	0.060979895
101	0xbdcb7cb6	-0.09935896
102	0xbde5b19c	-0.11215517
103	0x3db4502d	0.08804355
104	0xbe2006db	-0.15627615
105	0x3a04acc5	0.0005061145
106	0xbe5859d3	-0.21128015
107	0x3deec2c4	0.11658242
108	0xbe493203	-0.19647984
109	0x3e1c1375	0.15241797
110	0xbe36b421	-0.17842151
111	0xbe133e69	-0.14379276
112	0x3d1037ac	0.035209343
113	0x3e50993e	0.20370957
114	0x3e25d61d	0.16194959
115	0xbd6aed30	-0.057355106
116	0x3bf50231	0.007477068
117	0xbdb8ec7b	-0.0902948
118	0x3e310444	0.17286783
119	0x3e44276b	0.19155662
120	0x3e9a8629	0.3018048
121	0x3e853833	0.2601944
122	0x3e5f5d9c	0.21813053
123	0xbdc55ff3	-0.096374415
124	0xbe5c63c1	-0.21522428
125	0x3e043d76	0.1291407
126	0xbe833a5d	-0.25630465
127	0x3e466d3e	0.1937761
128	0xbda1989a	-0.078904346
129	0x3e2141a9	0.15747704
130	0x3e364730	0.17800593
131	0x3b2378a8	0.0024943743
132	0x3d9b063c	0.075695485
133	0x3dc23c36	0.094841406
134	0x3e5eb1d3	0.21747522
135	0x3dde4797	0.108534984
136	0xbde2691f	-0.110552065
137	0x3e126739	0.14297189
138	0xbe8c2800	-0.27374268
139	0x3c69d8db	0.014272894
140	0xbe869ea0	-0.26292896
141	0xbd09d713	-0.033652376
142	0xbe52c782	-0.20583919
143	0x3d22c3ae	0.039737396
144	0x3cea5983	0.028607136
145	0xbb604f78	-0.0034227055
146	0x3d6d5e0b	0.057951014
147	0x3d02bb20	0.031916738
148	0xbe5fde8d	-0.2186224
149	0x3e14868a	0.14504448
150	0xbde2524c	-0.11050853
151	0x3e640e0e	0.22270986
152	0x3e2d069e	0.16897056
153	0x3c53c696	0.012925765
154	0xbe049ab8	-0.12949646
155	0x3e0e909d	0.13922353
156	0xbde4af26	-0.111662194
157	0x3e533f71	0.2062967
158	0x3c0c844c	0.008576464
159	0xbe2615cf	-0.16219257
160	0xbc087467	-0.008328534
161	0xbe82c1ba	-0.25538427
162	0x3ccad0ed	0.024757827
163	0x3ce1479f	0.027499972
164	0x3dd8d36c	0.105872005
165	0xbd734501	-0.05939198
166	0xbdeb5367	-0.11490517
167	0xbe24a694	-0.1607917
168	0xbeb5e811	-0.35528615
169	0x3cff15c2	0.031138305
170	0x3c01b4d1	0.007916645
171	0x3d19645b	0.037449222
172	0xbe14ac38	-0.14518821
173	0x3e489fc0	0.1959219
174	0xbe702061	-0.23449852
175	0x3e4d39b1	0.20041539
176	0x3d1427fe	0.036170952
177	0x3e213d9c	0.15746158
178	0xbe933e28	-0.2875836
179	0xbd4d8642	-0.050176866
180	0x3cde797a	0.027157534
181	0xbe3fa37a	-0.18714705
182	0x3e6ffb73	0.23435764
183	0xbd216170	-0.039399564
184	0x3daf148c	0.08548841
185	0xbe09b561	-0.13448097
186	0x3c5b4f6f	0.013385638
187	0xbf02813c	-0.50978446
188	0xbd9bc77b	-0.07606407
189	0xbdd0b129	-0.101900406
190	0x3dc75573	0.09733095
191	0xbd697d44	-0.05700423
192	0x3b8b1d0d	0.0042454065
193	0x3cb086b9	0.021548616
194	0xbda97a66	-0.08275299
195	0x3b6b0059	0.0035858362
196	0x3e4200e2	0.1894565
197	0xbdcfbf6c	-0.10143933
198	0x3aac7988	0.0013158778
199	0xbe9a6f09	-0.30162838
200	0x3e1207fa	0.14260855
201	0x3e28e68c	0.16494197
202	0xbd2b13ad	-0.04176681
203	0x3dfed3ec	0.12442765
204	0xbd8312f8	-0.064001024
205	0xbe1daed4	-0.15398723
206	0xbb10ec6a	-0.002211357
207	0x3d9def2d	0.07711635
208	0xbe3ce301	-0.1844597
209	0x3e37d1e4	0.1795116
210	0xbe16a2a4	-0.1471048
211	0xbe524646	-0.2053462
212	0xbdadbcc4	-0.0848327
213	0x3ce438e9	0.027859168
214	0x3c352a40	0.0110574365
215	0x3e562b63	0.20914988
216	0xbe8248fb	-0.25446305
217	0xbd830218	-0.06396884
218	0xbd2f473f	-0.042792555
219	0xbe823432	-0.25430447
220	0xbc2e8d76	-0.010653844
221	0xbe02f46a	-0.12788549
222	0xbe9958b1	-0.2995048
223	0xbbb0360e	-0.0053775376
224	0xbd8f320a	-0.06991966
225	0x3dbdddb6	0.09270804
226	0x3e49d713	0.1971095
227	0xbd8f8e58	-0.07009572
228	0xbe1a51e0	-0.15070295
229	0x3dfa33d4	0.12216917
230	0xbe40d4dc	-0.188312
231	0xbe562b70	-0.20915008
232	0xbdd2def5	-0.10296432
233	0xbce7ad55	-0.028280893
234	0xbdefd0ca	-0.11709745
235	0xbdb297c7	-0.087203555
236	0x3c133ff8	0.008987419
237	0xbd44308e	-0.047897868
238	0xbe472fda	-0.19451848
239	0xbdcf75c1	-0.10129882
240	0x3d6bd8b2	0.057579704
241	0x3cf4966a	0.02985688
242	0xbdbca733	-0.09211578
243	0xbd8e620e	-0.06952296
244	0xbcd7799e	-0.026303109
245	0xbe1695ea	-0.14705625
246	0xbe466d08	-0.1937753
247	0xbccbb3f0	-0.024866074
248	0x3d280891	0.041023795
249	0xbd201a0f	-0.03908735
250	0xbd8d42b2	-0.06897487
251	0xbe23dfb8	-0.1600331
252	0xbdd89e85	-0.1057711
253	0x3e5c1774	0.21493322
254	0xbd1da410	-0.03848654
255	0x3df45378	0.11929983

ffcs.3.c.weight f4 [8, 8, 3, 3]
0	0xbdf793fc	-0.12088773
1	0xbe379f36	-0.17931828
2	0xbda071b3	-0.078341864
3	0x3de4943f	0.11161088
4	0xbdea9b6b	-0.11455425
5	0xbd121383	-0.03566314
6	0x3d93addb	0.07210895
7	0xbd42b6e5	-0.047537703
8	0xbd7e0d7a	-0.06202457
9	0x3e5a0016	0.21289095
10	0x3de6b75c	0.11265442
11	0xbda44c3c	-0.08022353
12	0x3e2d3ffc	0.1691894
13	0x3e0ef481	0.13960458
14	0x3e67cecc	0.2263748
15	0x3e7258c7	0.23666678
16	0xbd5ea51b	-0.054356676
17	0x3e7551a1	0.2395692
18	0x3dabba4d	0.083851434
19	0x3e17f489	0.14839377
20	0x3961e78a	0.00021543927
21	0x3e8b99b3	0.272657
22	0x3db1f1e9	0.08688719
23	0x3da2a523	0.079416536
24	0x3c5f2db3	0.013621735
25	0xbb7b78b6	-0.003837151
26	0xbcb7a896	-0.022419255
27	0x3c09c5d1	0.0084089795
28	0x3db0762f	0.08616292
29	0xbe29566b	-0.16536872
30	0x3d3fcdb2	0.046827026
31	0x3da7203f	0.08160447
32	0x3e1b7125	0.1517988
33	0xbbd11ed3	-0.0063818484
34	0x3e250bb8	0.16117752
35	0x3e244da3	0.16045241
36	0x3e565ab8	0.20933044
37	0xbe405932	-0.18784025
38	0xbe0eceeb	-0.1394612
39	0xbc8b67de	-0.017017301
40	0x3e01a515	0.1266063
41	0x3e29ea6b	0.1659333
42	0x3dbf39a0	0.09337163
43	0xbe44d62d	-0.19222327
44	0xbd4d080e	-0.05005651
45	0x3dba24c2	0.09089042
46	0xbd22d2d8	-0.039751858
47	0xbe39eeb6	-0.18157467
48	0x3e16aa76	0.14713463
49	0xbdd8f022	-0.10592677
50	0x3e35ad46	0.1774188
51	0xbd051305	-0.03248884
52	0x3e3515e5	0.17684133
53	0x3d60c5f1	0.05487627
54	0x3d098b01	0.03357983
55	0xbe64082f	-0.22268747
56	0xbe235d98	-0.15953672
57	0xbe33a04f	-0.17541622
58	0xbe3ca891	-0.18423678
59	0x3c90583b	0.017620197
60	0xbdf8149d	-0.12113307
61	0xbd0a0309	-0.0336943
62	0xbdbfe388	-0.0936957
63	0xbe0da988	-0.13834202
64	0xbc9c52bc	-0.01908242
65	0xbe8b80c9	-0.27246693
66	0x3e232440	0.15931797
67	0xbe43251f	-0.1905713
68	0x3de4568d	0.11149321
69	0xbe765c86	-0.24058732
70	0x3df577d7	0.11985748
71	0xbd5ea8d3	-0.054360222
72	0xbe42a571	-0.19008423
73	0xbc6955a9	-0.014241614
74	0xbe3a20d2	-0.18176582
75	0xbd7e4d35	-0.06208535
76	0xbe5eab11	-0.21744944
77	0xbe21a3e6	-0.15785179
78	0xbd55f050	-0.052231133
79	0xbe0c6cbc	-0.13713354
80	0xbde20c78	-0.110375345
81	0x3cdb54fa	0.026773918
82	0xbd24c972	-0.040231176
83	0xbc7b38cb	-0.015333365
84	0x3e358536	0.17726597
85	0xbe59aa50	-0.21256375
86	0x3e26e596	0.16298518
87	0x3e1d41a3	0.1535707
88	0xbe184c2a	-0.14872804
89	0xbc776f32	-0.015102195
90	0xbd3feae9	-0.046854887
91	0xbddc0100	-0.10742378
92	0xbd99ee71	-0.07516182
93	0x3e56858f	0.20949386
94	0x3e6fd85d	0.2342238
95	0xbe28e05f	-0.16491841
96	0xbda3f630	-0.08005941
97	0x3daa508b	0.083161436
98	0xbe0d0cac	-0.13774365
99	0x3dba0578	0.09083074
100	0xbe340989	-0.17581762
101	0x3dc038b0	0.09385812
102	0xbe116dab	-0.14201991
103	0xbd82f56f	-0.06394469
104	0xbd70f49a	-0.05882702
105	0xbe0db9c6	-0.13840398
106	0x3dc153a0	0.09439778
107	0xbaed03cc	-0.0018082797
108	0x3e58f9be	0.21189019
109	0xbd629fad	-0.05532806
110	0x3affaefa	0.0019507103
111	0x3e622edb	0.22088186
112	0xbe060bb5	-0.13090403
113	0x3d9a9f6f	0.07549941
114	0x3b3f3c38	0.002918018
115	0xbc8b548c	-0.017008089
116	0x3e0f18ea	0.13974348
117	0xbe6aef37	-0.22942816
118	0x3e50adca	0.20378795
119	0x3cc1f73e	0.023677465
120	0x3e64067a	0.22268096
121	0x3d9469d6	0.07246749
122	0xbe13c84d	-0.14431877
123	0x3e4296df	0.19002865
124	0x3e6c3638	0.23067558
125	0x3e4a3c09	0.19749464
126	0x3c887859	0.016658949
127	0x3d8f038d	0.06983099
128	0x3b0187ae	0.001976471
129	0xbdcee6d7	-0.10102623
130	0x3e57f0dd	0.21087976
131	0xbc46eca5	-0.012141381
132	0xbe361030	-0.17779613
133	0x3e1943dc	0.14967293
134	0xbd59dde0	-0.053190112
135	0xbdc77b12	-0.09740271
136	0x3d8675b5	0.065654196
137	0x3ab19227	0.0013547585
138	0xbd1c0042	-0.038086183
139	0x3ce0a99d	0.027424628
140	0x3ea8c52d	0.32962933
141	0xbe18ad3c	-0.14909834
142	0x3bf92d2a	0.007604261
143	0x3e7473a7	0.23872243
144	0xbd1ad895	-0.037804205
145	0x3e0d265e	0.13784167
146	0x3da5cbe6	0.08095531
147	0x3e81bebd	0.25340834
148	0x3dc73edf	0.097287886
149	0x3ceb9504	0.02875758
150	0x3e3202b8	0.1738385
151	0x3d435c3f	0.047695395
152	0x3e1fd241	0.15607549
153	0x3e410a81	0.18851663
154	0xbe3de83a	-0.18545619
155	0x3d603501	0.05473805
156	0x3e396fc0	0.18109035
157	0xbe1dcd91	-0.15410449
158	0x3de4f348	0.11179215
159	0x3db673ea	0.089088276
160	0xbca4c2af	-0.020112364
161	0x3df1398b	0.117785536
162	0xbe2210f4	-0.1582678
163	0xbcb6c968	-0.022312835
164	0x3d3f7708	0.046744376
165	0x3d96f45d	0.07370827
166	0xbeb36304	-0.3503648
167	0xbe0ec052	-0.13940552
168	0xbd0e1b9f	-0.03469431
169	0xbe28efc9	-0.16497721
170	0x3ca95d4d	0.020674372
171	0xbe139ded	-0.14415713
172	0x3bb813f2	0.005617612
173	0x3d1ef9ca	0.038812436
174	0xbe14ea00	-0.14542389
175	0x3c54b667	0.012982941
176	0xbdcd8239	-0.100346036
177	0x3d6b05bc	0.057378516
178	0xbb3aeda2	-0.0028522988
179	0x3e0aa4c4	0.13539416
180	0xbc244b0e	-0.01002766
181	0x3e3d7a4f	0.18503688
182	0x3e5591f7	0.20856462
183	0x3e43bba5	0.1911455
184	0xbc8616e0	-0.01636833
185	0x3dc5be5b	0.09655448
186	0x3e83fbce	0.2577805
187	0xbd2f2b5d	-0.042765964
188	0x3e5a4149	0.21313967
189	0xbe1fda44	-0.15610605
190	0x3c187607	0.009305484
191	0xbd4d14bc	-0.050068602
192	0xbdd2e410	-0.10297406
193	0xbd7b1d38	-0.061307162
194	0xbdfe020f	-0.124027364
195	0x3df4a51e	0.11945556
196	0xbe222530	-0.15834498
197	0xbd7064b5	-0.05868979
198	0x3c8b9b1a	0.017041732
199	0x3e84a28d	0.25905266
200	0xbcfd7265	-0.030938337
201	0x3d8ece43	0.06972935
202	0xbdb1ddd5	-0.08684889
203	0x3cc0e0a0	0.02354461
204	0xbd3ecc3a	-0.046581484
205	0x3df309f6	0.11867134
206	0x3e77261d	0.24135633
207	0xbddaf2df	-0.10690855
208	0x3d94ce82	0.07265951
209	0xbe462be0	-0.19352674
210	0x3db60d92	0.08889307
211	0x3dfa6719	0.122266956
212	0xbd46ab0c	-0.048502967
213	0xbe0813e5	-0.13288839
214	0xbd078d69	-0.033093844
215	0xbe254d4f	-0.16142772
216	0x3dde080c	0.108413786
217	0xbe023f27	-0.12719403
218	0x3b142921	0.0022607523
219	0x3c7d4034	0.015457202
220	0xbd5e81bf	-0.054322954
221	0x3d4f1371	0.05055565
222	0xbbaedbc8	-0.0053362586
223	0x3de28ce5	0.1106203
224	0xbc9d9be3	-0.019239372
225	0x3e38b47a	0.18037596
226	0x3cab65ec	0.020922624
227	0xbd05ba2b	-0.032648247
228	0x3de098a7	0.10966616
229	0xbd6f8b37	-0.058482375
230	0x3d9bd838	0.076096
231	0xbda2012e	-0.07910381
232	0xbda3ff3e	-0.08007668
233	0x3e9d8643	0.30766496
234	0xbe36d44c	-0.17854422
235	0xbe34c671	-0.17653824
236	0x3e33c5bb	0.17555897
237	0x3d2820ad	0.041046787
238	0xbe29175b	-0.16512816
239	0x3d9970ed	0.07492242
240	0xbe2433da	-0.16035405
241	0xbe5ed5b5	-0.2176121
242	0x3e8aa334	0.2707764
243	0x3e70e805	0.23526008
244	0x3dfd372a	0.12364037
245	0xbe090f3f	-0.13384722
246	0xbdfa6de6	-0.12227993
247	0x3e433852	0.19064453
248	0x3d827461	0.06369854
249	0x3dc10b72	0.09426011
250	0xbcde69a8	-0.02714999
251	0x3e1bfcf2	0.1523321
252	0xbd02eb41	-0.031962637
253	0x3dd0a8ab	0.10188421
254	0xbd5bfe39	-0.053709242
255	0x3dd8ee23	0.10592296

ffcs.4.c.weight f4 [8, 8, 3, 3]
0	0x3e9595eb	0.2921594
1	0x3d846124	0.064638406
2	0x3de958ef	0.11393916
3	0x3e970a60	0.29500103
4	0x3dc020f2	0.09381284
5	0xbe399825	-0.18124445
6	0x3e1de3ea	0.15418974
7	0x3ebbb981	0.36664966
8	0x3e6308f4	0.22171384
9	0xbd2bc807	-0.041938808
10	0xbe8a09f5	-0.26960722
11	0xbdff2b48	-0.12459427
12	0x3d37a740	0.044837236
13	0xbe690859	-0.2275709
14	0xbe73a355	-0.23792775
15	0x3d9ac8de	0.075578436
16	0xbe4b3e1e	-0.19847915
17	0xbc35d03e	-0.011097012
18	0x3cdffb71	0.027341576
19	0xbdc6a898	-0.097001255
20	0xbe601588	-0.21883214
21	0xbdb9c135	-0.090700544
22	0xbd7a38d7	-0.061089363
23	0xbe8c984d	-0.27459946
24	0x3e10c454	0.14137393
25	0x3d2920d8	0.041291088
26	0xbe0258d0	-0.12729192
27	0x3c83b07a	0.016075362
28	0x3e18c1a1	0.14917614
29	0x3d79ea34	0.06101437
30	0x3e51a576	0.20473275
31	0x3ea05d86	0.31321353
32	0xbe56ebdb	-0.20988409
33	0x3dc233d4	0.09482542
34	0x3d80ac12	0.0628282
35	0x3e21c821	0.15799
36	0x3c1b288c	0.009470116
37	0x3d9d2912	0.07673849
38	0x3e1e11e7	0.15436517
39	0x3e4bfe99	0.1992134
40	0xbd8d256b	-0.068919025
41	0x3e692f27	0.22771893
42	0x3befc878	0.007317599
43	0xbded2b1f	-0.1158049
44	0xbd5ba29b	-0.05362187
45	0x3e2ad424	0.16682488
46	0x3cc4e4ad	0.024034822
47	0xbd2e9729	-0.042624626
48	0xbdf1f0f0	-0.11813533
49	0xbdc1ada6	-0.09456949
50	0xbc8d6049	-0.017257826
51	0x3dec9580	0.11551952
52	0xbdf38ca5	-0.1189206
53	0xbd66664a	-0.056249894
54	0x3e3583e0	0.17726088
55	0xbe14b692	-0.1452277
56	0x3ce07588	0.027399793
57	0xbe35870d	-0.17727299
58	0xbc756a64	-0.014978979
59	0xbdf7acd3	-0.120935105
60	0x3d5c91a1	0.05384982
61	0x3e4f467b	0.2024173
62	0xbd8b34ff	-0.067972176
63	0xbd2e77a6	-0.042594574
64	0xbd5a3315	-0.053271372
65	0x3cd5adb5	0.026083807
66	0xbe6e0fa1	-0.2324815
67	0x3e5ad512	0.21370342
68	0x3caa48f8	0.020786747
69	0x3c9d7dcb	0.019225022
70	0xbdba14ae	-0.090859756
71	0xbdf6947b	-0.12040039
72	0x3d427eda	0.047484256
73	0xbd217f06	-0.03942778
74	0xbbd63377	-0.006536897
75	0xbca9893e	-0.020695325
76	0x3dcbe4db	0.0995576
77	0x3e4cb94c	0.1999256
78	0xbea023b3	-0.31277236
79	0xbe0a207b	-0.13488953
80	0x3e321093	0.17389135
81	0x3cfc0222	0.030762736
82	0xbdec7e33	-0.11547508
83	0x3e6fc0d8	0.23413408
84	0xbe04960f	-0.12947868
85	0xbda3ceb0	-0.07998407
86	0x3d503dde	0.05084025
87	0xbd83506c	-0.06411824
88	0xbdadda32	-0.08488883
89	0x3d42b8fb	0.047539692
90	0xbdedd5fe	-0.116130814
91	0xbe1d4ff6	-0.15362534
92	0xbdcce725	-0.10005025
93	0xbe25caf8	-0.16190708
94	0xbc53337d	-0.012890694
95	0x3dbb26c5	0.09138254
96	0xbe0337f0	-0.12814307
97	0x3d236431	0.03989047
98	0xbe9cc597	-0.306195
99	0xbd10d50a	-0.03535942
100	0x3d0d3d9d	0.034482587
101	0xbe546ace	-0.20743868
102	0x3dc1ab3f	0.09456491
103	0xbe3875cb	-0.18013684
104	0xbe051002	-0.12994388
105	0x3df772fb	0.12082478
106	0xbe3c771f	-0.18404816
107	0xbddf7976	-0.10911839
108	0xbdee057f	-0.11622142
109	0xbe6c695c	-0.23087066
110	0x3d00f848	0.03148678
111	0x3e0ff59b	0.14058535
112	0xbef6c1e4	-0.48194802
113	0xbe5f1e96	-0.21789011
114	0x3c8bb3f2	0.017053578
115	0xbd0b8a69	-0.034067545
116	0xbe78bb40	-0.2429018
117	0xbe259937	-0.16171728
118	0xbe418bd4	-0.18900996
119	0x3d52e6aa	0.05148951
120	0xbc2c5dd8	-0.010520421
121	0xbe82b2c4	-0.25527012
122	0xbd425472	-0.047443815
123	0x3e4ff493	0.20308141
124	0xbd74e862	-0.05979193
125	0xbe8d8b09	-0.27645138
126	0xbe635b50	-0.22202802
127	0x3e7344ab	0.23756664
128	0xbe3f5a20	-0.18686724
129	0x3e079e8a	0.13244072
130	0x3df74aa2	0.12074782
131	0x3d6951c2	0.056962736
132	0x3d408a86	0.047007106
133	0xbe22cfd1	-0.15899588
134	0xbe33c688	-0.17556202
135	0xbdd2bd91	-0.10290063
136	0x3ca07929	0.019589024
137	0x3e6e9478	0.23298824
138	0x3ccfca71	0.025365086
139	0xbea3f23e	-0.32020754
140	0x3db1a278	0.086735666
141	0xbe8009c1	-0.25007442
142	0x3e4ce0e7	0.20007668
143	0xbe35e139	-0.17761697
144	0x3d9bbd98	0.076045215
145	0x3dd8988c	0.10575971
146	0x3e8171ce	0.2528214
147	0x3d733eab	0.059385937
148	0x3df4c6ff	0.11952018
149	0x3ed4df4d	0.41576615
150	0x3e079b5d	0.1324286
151	0x3e883f79	0.26610926
152	0x3e3b445f	0.182878
153	0x3e4c199f	0.19931649
154	0xbd5e6be5	-0.054302115
155	0xbd7276ce	-0.059195332
156	0x3e957e66	0.29197997
157	0xbd5f639b	-0.05453835
158	0xbdc5fd18	-0.096674144
159	0xbd251dd9	-0.040311668
160	0xbd7e1170	-0.06202835
161	0x3d418059	0.047241542
162	0xbe0ae24b	-0.13562886
163	0x3bd3fe11	0.006469496
164	0x3d0e2acb	0.03470878
165	0xbdff6445	-0.12470297
166	0x3d80d451	0.06290496
167	0xbe4e40a9	-0.20141853
168	0xbe307121	-0.17230655
169	0xbde9aa40	-0.11409426
170	0xbe0183cf	-0.12647937
171	0xbea7bc52	-0.32760864
172	0xbe063e00	-0.13109589
173	0x3dd910a6	0.105988786
174	0xbe2e5e75	-0.1702822
175	0x3e90b9e0	0.2826681
176	0x3ca37238	0.019951925
177	0xbe64e64b	-0.22353475
178	0x3dbe16ec	0.09281716
179	0x3e0a7498	0.1352104
180	0xbd6e0f82	-0.05812026
181	0xbdc68e55	-0.096951164
182	0xbe1634d9	-0.14668597
183	0x3d08c02e	0.0333864
184	0xbcf8b4a5	-0.030359576
185	0x3e854d91	0.2603574
186	0xbe0e4080	-0.13891792
187	0x3cb00ad9	0.021489548
188	0x3c502761	0.012704701
189	0x3e8f5b33	0.27999267
190	0x3b920b65	0.0044569247
191	0xbdae46cc	-0.08509597
192	0xbd97a9f3	-0.07405462
193	0xbe1f5249	-0.15558733
194	0xbeb7539a	-0.3580597
195	0xbe4b8176	-0.19873604
196	0x3dc4635a	0.09589262
197	0xbde2403f	-0.1104741
198	0x3ded526a	0.11587985
199	0xbdf57593	-0.11985316
200	0xbe5c1f81	-0.21496393
201	0x3e096218	0.13416326
202	0x3d6e0f59	0.058120105
203	0x3d8b8bcb	0.06813773
204	0x3dc0d056	0.09414737
205	0xbceb282b	-0.028705677
206	0x3e0ac08f	0.13550018
207	0x3df56599	0.11982269
208	0xbbfb746c	-0.0076737907
209	0x3d834c6d	0.064110614
210	0x3d0f9908	0.03505805
211	0x3d3a3b64	0.045466796
212	0x3d5f544b	0.054523747
213	0x3db07dd3	0.08617749
214	0xbd92921e	-0.07156776
215	0x3d742868	0.059608847
216	0x3d83d6e9	0.06437475
217	0xbe05617a	-0.13025466
218	0x3da8640a	0.08222206
219	0xbea0a542	-0.31376082
220	0xbaf2817d	-0.0018501725
221	0x3dc1b155	0.094576515
222	0xbd8f4995	-0.069964565
223	0xbdf927c8	-0.12165791
224	0xbe499d0a	-0.19688812
225	0xbe2de137	-0.16980444
226	0x3d4d8264	0.05017318
227	0x3ce333b2	0.027734611
228	0xbe46fcbc	-0.19432348
229	0xbe8977f4	-0.2684933
230	0x3ddf44de	0.10901807
231	0xbdfc6b9d	-0.12325213
232	0x3e672abf	0.225749
233	0xb94c68a8	-0.00019493944
234	0x3e220cef	0.15825246
235	0xbe5349ab	-0.20633571
236	0x3db1411d	0.086549975
237	0xbda0d81b	-0.07853719
238	0xbd9a83c6	-0.07544665
239	0xbd766e44	-0.06016375
240	0xbd971edb	-0.07378932
241	0x3e110714	0.14162856
242	0xbdfc2180	-0.12311077
243	0x3db8b4a6	0.09018831
244	0xbe97501e	-0.29553312
245	0xbe0ddd60	-0.13853979
246	0xbe0e75c1	-0.13912107
247	0xbe96ce3c	-0.2945422
248	0x3e536107	0.20642482
249	0xbe013742	-0.12618735
250	0xbe239a75	-0.1597689
251	0xbe400527	-0.18751965
252	0xbe7d19c6	-0.24716863
253	0xbec5daa7	-0.3864338
254	0xbea4816e	-0.32129997
255	0x3df70852	0.12062134

dense.0.weight f4 [256, 616]
0	0xbd2bfacf	-0.041987237
1	0xbd96ebfd	-0.0736923
2	0x3e0efce9	0.13963665
3	0x3de034aa	0.10947545
4	0xbd8b1ed7	-0.067929916
5	0xbd0c40a5	-0.034241337
6	0x3d62d169	0.05537549
7	0xbbcd3c21	-0.0062632714
8	0xbdc08416	-0.094001934
9	0xbca5ebc0	-0.020254016
10	0x3d85f045	0.065399684
11	0xbb323863	-0.0027194254
12	0xbcb7bb53	-0.02242819
13	0x3d343784	0.043998256
14	0x3d9c962a	0.07645829
15	0xbcba465d	-0.02273863
16	0xbd0dad73	-0.034589242
17	0xbdc47e04	-0.09594348
18	0xbde74df7	-0.112941675
19	0xbe00d2d1	-0.1258042
20	0xbd9e7f3f	-0.07739114
21	0x3da9b93f	0.08287286
22	0x3c7b7b9b	0.015349294
23	0xbcdcd1bb	-0.026955476
24	0x3ccc3db7	0.024931772
25	0x3c99c770	0.018771857
26	0x3def2124	0.11676243
27	0xbc8bac6d	-0.017049992
28	0xbdce4aff	-0.10072898
29	0xbd8feaad	-0.07027183
30	0xbd76dcf2	-0.060269304
31	0xbd80e9d5	-0.062946
32	0xbce06633	-0.027392482
33	0x3d9a079d	0.07520983
34	0x3c4a07eb	0.012330989
35	0x3c742105	0.014900451
36	0x3d543ce9	0.0518159
37	0x3c0547e0	0.008134812
38	0xbce81845	-0.028331885
39	0xbc8f4155	-0.017487207
40	0xbd9a1d23	-0.07525089
41	0xbd596734	-0.053076938
42	0x3c16cde3	0.009204361
43	0xbdb61078	-0.0888986
44	0x3e080736	0.13284001
45	0x3d71d3ce	0.059039883
46	0x3d0f01f2	0.034913965
47	0x3d836fe8	0.06417829
48	0xbda18ed9	-0.07888574
49	0x3d4d14f4	0.05006881
50	0xbc6a49aa	-0.014299789
51	0xbd8e2434	-0.06940499
52	0xbd1c705f	-0.038193103
53	0xbdae99a6	-0.085254
54	0xbda997ed	-0.08280931
55	0xbca71c7a	-0.02039932
56	0x3d8721c3	0.065982364
57	0xbcf79062	-0.030220214
58	0x3c6c7d38	0.014434151
59	0x3d765b6c	0.06014578
60	0xbd5605d5	-0.052251656
61	0xbd8e3424	-0.06943539
62	0xbcdf1e06	-0.027235996
63	0xbe11210d	-0.14172764
64	0xbd946264	-0.07245329
65	0xbc5fbc1b	-0.013655688
66	0xbd814534	-0.063120276
67	0x3d825167	0.063631825
68	0x3ca283ff	0.019838331
69	0x3db6aedf	0.08920073
70	0x3cd46939	0.02592908
71	0xbd3fdbce	-0.04684048
72	0xbc2c59fd	-0.010519502
73	0x3b6efa15	0.0036464978
74	0xbd3bcd6b	-0.0458502
75	0x3cdb0f51	0.026740702
76	0xbddce923	-0.10786655
77	0xbdc5a339	-0.09650273
78	0xbccb295f	-0.0248
79	0x3dc00a40	0.09376955
80	0xbcd25570	-0.025675505
81	0x3d639505	0.055562038
82	0x3d47c58e	0.048772387
83	0xbd966821	-0.0734408
84	0xbd1c74bd	-0.038197268
85	0xbd887aaf	-0.06664025
86	0xbda4b307	-0.08041959
87	0x3c938d33	0.018011665
88	0x3cb5adec	0.022177659
89	0x3cbc9679	0.02302097
90	0x3df8e81e	0.12153648
91	0xbd0d587f	-0.034508225
92	0x3cc3013a	0.023804296
93	0xbd2af790	-0.04174
94	0xbd085618	-0.03328523
95	0xbdb173bf	-0.08664655
96	0x3cc20a2b	0.02368649
97	0x3d0068e6	0.03135004
98	0xbd843317	-0.06455057
99	0x3c717357	0.014736972
100	0x3d6e7ae4	0.058222666
101	0x3b640c1b	0.0034797254
102	0xba0dac3f	-0.000540439
103	0x3c86566c	0.016398631
104	0xbe1a39fc	-0.15061182
105	0xbcd8a07b	-0.02644371
106	0xbd69f04c	-0.05711393
107	0x3c09df3d	0.008415041
108	0xbdb07441	-0.08615924
109	0xbc8230ee	-0.015892472
110	0x3cb2373b	0.021754852
111	0xbe02f20a	-0.12787643
112	0xbd178422	-0.036991246
113	0x3db4e0ab	0.088319145
114	0x3cdf3428	0.02724655
115	0x3c66a995	0.014078517
116	0xbd4d3114	-0.050095633
117	0xbd2c3694	-0.042044237
118	0xbb9e25ef	-0.0048262994
119	0xbd961af7	-0.07329362
120	0x3d677ea6	0.056517266
121	0xbc870917	-0.016483827
122	0xbd930213	-0.0717813
123	0xbb7f0a85	-0.0038916182
124	0xbd3a8141	-0.045533422
125	0x3c86394d	0.016384745
126	0x3c57aa0c	0.013163101
127	0xbd0bb9d6	-0.034112774
128	0x3db463ff	0.08808135
129	0xbb03fd40	-0.0020139962
130	0x3d3b0aaf	0.045664486
131	0x3cf809f8	0.030278191
132	0x3dc93ae7	0.09825688
133	0x3db987b9	0.0905909
134	0x3d140253	0.03613503
135	0xbbbf4d63	-0.0058380826
136	0xbd6d1826	-0.057884358
137	0xbd8ef5a1	-0.06980444
138	0xbd28e0dd	-0.04123007
139	0x3cb2a074	0.021805026
140	0xbdbb117c	-0.09134194
141	0xbdaafed2	-0.08349384
142	0x3cf9cb40	0.030492425
143	0x3c14289a	0.009042883
144	0xbd4979a8	-0.049188286
145	0xbdc0fe85	-0.09423546
146	0x3d8b7d3c	0.06810996
147	0xbdcf901b	-0.10134908
148	0x3c19b9c9	0.009382674
149	0x3d048997	0.03235778
150	0xbc148dbe	-0.009066997
151	0xbcaa87e7	-0.020816756
152	0xbde7ed32	-0.11324538
153	0x3cfa36b8	0.03054367
154	0xbd5cf6cb	-0.053946298
155	0x3db2aa81	0.08723927
156	0xbd867158	-0.06564587
157	0xbcf868f8	-0.03032349
158	0x3d358097	0.044312086
159	0xbde61e1e	-0.11236213
160	0xbd0bd591	-0.03413922
161	0x3bae55ed	0.0053203017
162	0xbc0960dc	-0.0083849095
163	0xbe48c4e5	-0.1960636
164	0xbe24a2f3	-0.16077785
165	0xbdfd96af	-0.12382256
166	0x3bc8cfe2	0.006128297
167	0xbc09d9cf	-0.008413746
168	0xbda5f87d	-0.08104036
169	0xbddce4db	-0.10785838
170	0xbc291826	-0.010320699
171	0x3cb06126	0.021530699
172	0xbd431e34	-0.047636226
173	0xbe1d8033	-0.15380935
174	0xbde9b86e	-0.1141213
175	0x3c412a0a	0.011789808
176	0xbdc179f3	-0.09447088
177	0x3d0a1153	0.033707928
178	0x3dbe832f	0.09302365
179	0xbde85035	-0.11343423
180	0xbd3f4e02	-0.046705253
181	0xbbc7a01e	-0.0060920855
182	0xbcdf9cb5	-0.027296403
183	0xbdde3549	-0.10850007
184	0xbdc67ce8	-0.09691793
185	0xbe071ec0	-0.13195324
186	0xbe2d50c9	-0.16925348
187	0xbde1f040	-0.11032152
188	0xbcb3d7dc	-0.021953516
189	0xbcfcd26c	-0.030862056
190	0xbe2214cd	-0.15828247
191	0xbd0d60d5	-0.034516174
192	0x3d797ab2	0.060908027
193	0xbcc1d5cd	-0.023661518
194	0xbdd592fd	-0.104284264
195	0xbd80ca6f	-0.06288611
196	0xbd9c9fb2	-0.07647647
197	0xbdb3ff99	-0.08788986
198	0xbc743116	-0.014904281
199	0xbd27d59f	-0.04097521
200	0xbd87d47b	-0.06632324
201	0xbde224e3	-0.11042192
202	0xbce5f586	-0.028071176
203	0x3d461b19	0.048365686
204	0xbdade488	-0.084908545
205	0xbe1eb849	-0.15499987
206	0xbe33fd07	-0.17576991
207	0xbdf24299	-0.11829109
208	0xbd7dde5c	-0.061979637
209	0xbcba0405	-0.022706995
210	0xbd80745b	-0.06272193
211	0xbcb1f069	-0.021721082
212	0xbda18273	-0.07886209
213	0x3d8274f6	0.06369965
214	0xbe1a5f99	-0.1507553
215	0x3ba26ee0	0.004957065
216	0xbd9d6a3f	-0.076862805
217	0xbd379a81	-0.04482508
218	0xbcf7b6a8	-0.030238464
219	0x3d256071	0.040375177
220	0xbe1093db	-0.14118902
221	0x3c481be9	0.012213686
222	0xbdec25f0	-0.115306735
223	0x3cf0f607	0.02941419
224	0xbd2e855a	-0.042607643
225	0xbd0b6ab9	-0.034037326
226	0xbcc08817	-0.023502393
227	0xbd55fb78	-0.052241772
228	0x3c8abf3a	0.016936887
229	0xbdf035dc	-0.11729023
230	0xbe00a816	-0.1256412
231	0x3d43f87f	0.047844406
232	0xbc9abc88	-0.018888727
233	0x3c677383	0.014126661
234	0xbd54778a	-0.051871814
235	0xbda395a5	-0.07987527
236	0xbd556e79	-0.052107308
237	0xbd19e684	-0.037573352
238	0x3e02fefa	0.12792578
239	0xbd8186e2	-0.06324555
240	0x3d3f977c	0.046775326
241	0xbcaa2b33	-0.020772552
242	0xbd43e669	-0.047827158
243	0xba61c07f	-0.0008611753
244	0xbb4e6c30	-0.003149759
245	0xbcfb0440	-0.030641675
246	0xbae9d3af	-0.0017839576
247	0xbd607444	-0.05479838
248	0xbc77b98c	-0.015119921
249	0x3c1c4579	0.009538048
250	0x3cca3d12	0.024687324
251	0x3dd7d23d	0.10538147
252	0x3c95b913	0.018276727
253	0x3d6d0f1f	0.05787575
254	0xbde9e568	-0.11420709
255	0xbd3121a0	-0.043244958

dense.0.bias f4 [256]
0	0x3d292401	0.0412941
1	0xbc8798d5	-0.016552368
2	0x3d544e91	0.05183274
3	0x3dbde450	0.09272063
4	0x3d2d369e	0.042288415
5	0x3dbdd5a0	0.09269261
6	0x3dd590e5	0.10428027
7	0xbe0f8fec	-0.14019746
8	0x3d7431dd	0.059617866
9	0x3d30779c	0.04308282
10	0x3c9df790	0.019283086
11	0x3c1c20d4	0.009529311
12	0xbc239cfa	-0.009986157
13	0x3d9df344	0.07712415
14	0x3d6d290b	0.05790047
15	0x3d86effd	0.06588743
16	0x3c88f1a1	0.01671678
17	0x3dc0ccba	0.094140485
18	0xbcc0581c	-0.023479514
19	0x3d8a3c72	0.0674981
20	0x3d3b51ff	0.045732494
21	0x3c12de96	0.008964201
22	0x3dd607d1	0.104507096
23	0x3dabf7a3	0.08396842
24	0x3c30359c	0.010754969
25	0x3d66a510	0.05630976
26	0xbdacf0f6	-0.08444397
27	0x3dc6d2b9	0.09708161
28	0x3d8a6157	0.06756847
29	0x39c0269a	0.00036649854
30	0xbb481a1a	-0.0030533136
31	0x3d89dab2	0.06731166
32	0x3d99e241	0.07513858
33	0x3be9cb9d	0.0071348683
34	0x3d56180e	0.052269034
35	0x3d8983a8	0.067145646
36	0x3d7bb564	0.061452284
37	0x3d851870	0.06498802
38	0x3d83788c	0.06419477
39	0x3d8f3312	0.06992163
40	0x3b1d3d7a	0.0023992942
41	0x3d9b76fd	0.075910546
42	0x3d043afb	0.03228281
43	0x3d7fced5	0.06245311
44	0x3d1fa938	0.03897974
45	0xbd03cc6d	-0.032177377
46	0x3d833774	0.06407061
47	0x3d24170f	0.040061053
48	0x3d08bfa6	0.033385895
49	0x3d220456	0.039554916
50	0x3d4bdc08	0.049770385
51	0x3d3a9a4a	0.045557298
52	0xbba5a647	-0.005055222
53	0xbda0c595	-0.07850186
54	0xba2f9b35	-0.0006698848
55	0xbb00c562	-0.00196489
56	0x3d903c73	0.0704278
57	0x3d2909c6	0.041269086
58	0x3cf0f904	0.029415615
59	0x3c5b5516	0.013386985
60	0xbc898c7d	-0.016790623
61	0x3c2042a1	0.009781511
62	0xbe0d11f5	-0.13776381
63	0x3caa2681	0.020770313
64	0x3d9c965b	0.076458655
65	0x3d9b8611	0.075939305
66	0x3dc7691e	0.097368464
67	0x3d910d53	0.070826195
68	0xbaac3252	-0.0013137555
69	0x3d1ac846	0.037788652
70	0xbcecb290	-0.028893739
71	0x3d20831c	0.039187536
72	0x3d386809	0.04502109
73	0x3d57c1c1	0.052675012
74	0x3d3ec843	0.046577703
75	0x3d0ac746	0.03388145
76	0x3dc58ac5	0.09645609
77	0xbe21ab4d	-0.15788002
78	0x3d873394	0.066016346
79	0x3d7f5f2f	0.062346634
80	0x3da6bc75	0.08141414
81	0x3d24690e	0.04013925
82	0x3ce56ec0	0.028006911
83	0x3d28a7c6	0.041175626
84	0x3df4880a	0.1194001
85	0x3d451a71	0.04812092
86	0x3dcc9a4f	0.099903695
87	0xbd02c1f2	-0.031923242
88	0x3d3c01c8	0.045900136
89	0x3d4d11eb	0.050065916
90	0xbdca9729	-0.09892113
91	0x3d26bdee	0.040708475
92	0xbdb6e1e3	-0.08929803
93	0x3d108b39	0.035289023
94	0xbd0af525	-0.033925194
95	0xbbabd1f0	-0.0052435324
96	0x3d8a6e8e	0.06759368
97	0x3d9b8665	0.07593993
98	0x3de44425	0.1114581
99	0xbc2b9b46	-0.010474032
100	0x3cd46324	0.02592618
101	0x3cd26001	0.025680544
102	0x3d7f50b2	0.062332816
103	0x3d961a43	0.07329228
104	0xbd90f6d8	-0.07078332
105	0x3c734797	0.014848611
106	0x3da5e4b8	0.08100265
107	0x3ca66605	0.020312319
108	0x3d9ac0d4	0.0755631
109	0xbdc00b50	-0.09377158
110	0xbc830a52	-0.015996132
111	0x3cc54a2e	0.024083223
112	0x3de92972	0.11384858
113	0x3ba28177	0.004959281
114	0x3c632e92	0.013866084
115	0x3ade26f7	0.0016948868
116	0xbda71555	-0.08158366
117	0x3daaa78c	0.08332738
118	0x3d603f35	0.05474778
119	0x3cd51611	0.026011499
120	0xbe0c9ca2	-0.13731626
121	0x3ced2ed2	0.02895299
122	0x3d5194b0	0.05116719
123	0x3dabb8e8	0.083848774
124	0x3d666f48	0.05625847
125	0x3dae2f29	0.08505089
126	0xbc605c77	-0.01369392
127	0x3d4d666e	0.050146513
128	0x3d810005	0.06298832
129	0x3cb9b815	0.022670785
130	0x3d1d1cf5	0.038357694
131	0xbd6107b9	-0.054939006
132	0xbb3fd556	-0.0029271445
133	0x3d8df839	0.0693211
134	0xba6b5f64	-0.0008978753
135	0x3d084354	0.033267334
136	0x3ca122a4	0.019669838
137	0x3d791548	0.06081131
138	0x3cab8bc3	0.020940667
139	0x3d0aae2f	0.03385752
140	0x3b7e9ce5	0.003885084
141	0x3d1f9287	0.0389581
142	0x3d26105c	0.040542945
143	0x3d93a413	0.07209029
144	0x3d3c154a	0.04591874
145	0xbdf6a6a2	-0.120435014
146	0x3c4618fc	0.012090918
147	0x3c4e5726	0.01259402
148	0x3cce54da	0.025186945
149	0x3d2902d8	0.041262478
150	0x3ce1b650	0.027552754
151	0x3d34a28a	0.04410032
152	0x3d002189	0.03128198
153	0x3d9760e1	0.07391525
154	0x3d8c95df	0.06864523
155	0x3d1f0a45	0.038828153
156	0x3dbc4f9d	0.091948725
157	0x3d7a61ba	0.061128356
158	0x3db1d0c7	0.08682399
159	0xbd306ad2	-0.04307062
160	0x3dc0f9fb	0.0942268
161	0x3d09d8b6	0.033653937
162	0x3d8c536a	0.068518475
163	0x3d36c4ab	0.04462115
164	0x3cf15865	0.029461095
165	0x3d4b2b3a	0.04960177
166	0x3d8a5d0e	0.0675603
167	0x3d2fa5f1	0.042882863
168	0x3c545311	0.012959258
169	0x3d8fa17f	0.07013225
170	0x3d218d73	0.039441537
171	0x3d71c84a	0.0590289
172	0x3d43bc99	0.047787283
173	0x3cc9f416	0.024652522
174	0x3d8dae35	0.06917993
175	0x3cbdb3ab	0.023156961
176	0x3da1337d	0.07871149
177	0x3d8167fa	0.0631866
178	0x3cd8f036	0.026481729
179	0x3c993dc1	0.018706204
180	0x3d90b236	0.07065241
181	0x3c0ceef1	0.00860189
182	0x3dda06da	0.10645838
183	0x3d62822a	0.055299915
184	0x3c902b62	0.017598812
185	0x3d7321f5	0.059358556
186	0x3d092b3e	0.033488505
187	0xba807485	-0.000980035
188	0xbd8cc11f	-0.068727724
189	0xbb3c8ceb	-0.0028770517
190	0x3cf40af0	0.029790372
191	0x3da89278	0.08231062
192	0x3cd97918	0.026547
193	0x3d80b588	0.06284624
194	0xbbe3a3d3	-0.0069470196
195	0x3d474e52	0.048658676
196	0x3d045714	0.032309607
197	0x3cf4fed1	0.029906662
198	0x3c9086f0	0.017642468
199	0xbdfa1e14	-0.12212768
200	0xbc8c3c5e	-0.017118629
201	0x3d874e84	0.066067725
202	0x3d230667	0.039801028
203	0x3d85be0b	0.065303884
204	0x3cf91ae4	0.03040833
205	0x3d86c331	0.065801986
206	0x3cc37ad5	0.023862282
207	0x3cfc07fa	0.030765522
208	0x3d17fc5b	0.0371059
209	0x3d49cb7d	0.049266327
210	0x3d9139b8	0.07091087
211	0x3da74993	0.0816833
212	0x3dda494c	0.106585115
213	0xbd3422c1	-0.043978456
214	0x3c6b6326	0.014366901
215	0x3da07adf	0.07835936
216	0x3d8fa467	0.07013779
217	0x3c8d178b	0.01722314
218	0x3d27106d	0.04078715
219	0x3c6771de	0.014126269
220	0xbd3d86f4	-0.04627128
221	0x3da388bf	0.079850666
222	0x3c78bb7f	0.015181421
223	0x3d920993	0.071307324
224	0x3d52aae8	0.05143252
225	0x3d7eb80d	0.062187243
226	0x3d3bc178	0.045838803
227	0x3d0a47b8	0.033759803
228	0x3d1f1960	0.03884256
229	0x3c9ccf6d	0.019141877
230	0x3d2e9522	0.042622693
231	0x3db24614	0.087047726
232	0x3aa8f1f0	0.0012889486
233	0xbe0658e9	-0.13119854
234	0x3d7a64e9	0.06113139
235	0xbd028eff	-0.031874653
236	0xbded5c98	-0.115899265
237	0x3d37288c	0.044716403
238	0x3daeb650	0.08530867
239	0x3d1eaab6	0.03873702
240	0x3d72ed67	0.059308436
241	0xbc6519f9	-0.013983243
242	0x3d8f231c	0.069891185
243	0x3d8d32a1	0.06894422
244	0x3d5f49d2	0.05451376
245	0x3c15ff52	0.009155111
246	0x3da69f62	0.081358686
247	0x3d8dce70	0.069241405
248	0x3bf49640	0.0074642003
249	0xbb8eaba8	-0.004353959
250	0x3d983810	0.07432568
251	0xbd2c660f	-0.04208952
252	0x3daa86f6	0.08326523
253	0x3d941ca3	0.072320245
254	0x3d88374f	0.06651174
255	0x3d353571	0.04424042
