gym_snake/netw.pt (torch, 335565 bytes, 10 tensors)

c1.0.weight f4 [4, 2, 3, 3]
00000000: 1b59 9b3e 5dc1 efbc 563f da3c f216 f53e
00000010: abc6 71be 9f40 73be 5df5 d8bd c2f8 e7be
00000020: 8d4a 4a3c 3951 9b3e c7b1 f53e 2cdd de3e
00000030: 2dba 333d ada4 c1bc 4f14 43be 84c2 ecbb
00000040: f37d 1e3e af53 013f c0fa 1dbf ce25 46bf
00000050: c423 e7be a762 b7bd e3fd 073d 8c78 af3d
00000060: ef99 78be 1af7 523e 9b69 2d3c adb1 38be
00000070: 75f4 1f3e 7f5e a03e e387 ad3e 1a1a f53e
00000080: 619d cd3e ee6f 833d c241 893e 2c53 87bd
00000090: f088 f13d 44b8 a13e dabb f9be fc94 b9bd
000000a0: 9104 b0bd 7493 eebb 7656 5fbe b7ab b8be
000000b0: 1d93 e2bc 5567 133e dc55 42bd 7e83 ed3e
000000c0: c3b2 0fbe e871 07be caab 843d 8478 863b
000000d0: 0765 de3d 1713 0dbe e58e d6be fea5 013e
000000e0: 68e3 74be 6f95 983e cd98 8fbd b47a 34be
000000f0: f073 d43d 3ac4 793d 3b30 94be da56 bb3e
00000100: 607a 4c3e 06fd 413e 2f53 53bd 9c08 bd3e
00000110: 039a ff3d a63a 31be 56e9 443e 3a68 443e
0.3034142 -0.029267007 0.026641529 0.47869068 -0.23610942 -0.2375512 -0.10593674 -0.45306975
0.012346876 0.30335405 0.47987196 0.43528116 0.043878723 -0.023638094 -0.19050716 -0.0072253365
0.15477733 0.50518316 -0.6171074 -0.77401435 -0.45144475 -0.08954363 0.03320111 0.08567914
-0.24277471 0.20602074 0.01058426 -0.18036528 0.15620597 0.31322095 0.33892736 0.47871476
0.40159133 0.06417833 0.26807982 -0.06607661 0.11793697 0.31585896 -0.48776132 -0.0906162
-0.08594621 -0.0072807614 -0.21810326 -0.36068508 -0.02765804 0.14394887 -0.047445163 0.46389383
-0.14033036 -0.13227046 0.06478079 0.004103722 0.10859113 -0.13776813 -0.41905895 0.12660977
-0.23914874 0.2980151 -0.07011566 -0.17624933 0.10373676 0.06097815 -0.28943047 0.365897
0.19968557 0.18944177 -0.051593002 0.3692063 0.12480547 -0.17307529 0.19229636 0.19180384

c1.0.bias f4 [4]
00000000: 280f 433e 00cf d13e 6463 0d3e 913b 42be
0.1904875 0.4097824 0.13807446 -0.18968035

c1.3.weight f4 [3, 4, 3, 3]
00000000: b555 f0bd 038f 2b3e 5483 25be 78e3 743d
00000010: 63b0 043e 7ed0 2e3d 3f0a 8eb9 7b42 003c
00000020: ee17 e3bd 056b 4bbc 39e6 193e 1627 7b3e
00000030: 30e1 80be f0be 083d 7feb 85bd 60b1 18be
00000040: a559 08b8 166c 993d c00f abbd 7286 f2bc
00000050: 1442 19be 284c 543d a212 763e 69b7 a63d
00000060: 016e c63c 30fd c5bd 99e2 a83c ffb3 443e
00000070: 15e1 833d b543 6f3e c41f d73c 533d 923a
00000080: c82a 0abe 6f30 5fbe 63d2 a0be fc94 04be
00000090: 3bda 033e 15c4 b93d 989c 03bc faf7 463d
000000a0: 672f 8a3e 92a9 99bd 823a a5bb df18 48be
000000b0: 4b78 74be 0f29 d0bd 9856 59bd 04b2 9a3e
000000c0: 31e7 783d b103 39be a59d 48bd 861d e4bd
000000d0: 232a cd3d ca82 313d f0f6 38be cd56 a53e
000000e0: d405 8dbe f673 c73d c691 a0bd f507 233e
000000f0: 060a 303c bf4a c2bd bb53 9c3d b803 b3bd
00000100: a610 eb3e 37ea 4cbe faaa 1a3e 6234 80be
00000110: 7111 263d a74d 4abe ad14 4ebe eb87 46bd
00000120: cc24 8b3e 820e dcba 1059 713e 1d42 f83c
00000130: 2250 aebd a500 23be 3895 01be 7d0e ddbd
00000140: be33 48bd 9850 583d b379 14be aa97 0c3c
00000150: 7070 1ebd 4315 9bbc 2f33 383d 656c f63d
00000160: dcd1 0dbd c1fa 33bc 5bd0 34be 0905 de3e
00000170: d1a4 e3bc 0a8f d0bd 9e02 91bd 09cb 073d
00000180: 91ef 833d c0ef 6ebe 3122 693d 411f 20be
00000190: 31a1 0f3e 4840 613d 8d6e 6dbd f0a5 18be
000001a0: 635d 67be 79bd 23be 22f5 cfbd 2a0d ddbd
-0.11735097 0.16753773 -0.16163379 0.059787244 0.12957911 0.042679302 -0.00027091985 0.00782835
-0.110885486 -0.012415652 0.15029229 0.24526629 -0.25171804 0.033385217 -0.06539058 -0.14911413
-3.2508415e-05 0.07491319 -0.083526134 -0.029605124 -0.14966613 0.05183044 0.24030545 0.081404515
0.024222376 -0.09667432 0.020615863 0.19209288 0.06439415 0.23365672 0.026260264 0.0011157192
-0.13492882 -0.2179582 -0.31410512 -0.12947458 0.12876217 0.09070603 -0.00803294 0.048576333
0.2698929 -0.07503046 -0.005042375 -0.19540738 -0.23874013 -0.10164081 -0.053061098 0.3021394
0.060767356 -0.18067814 -0.048978467 -0.11138444 0.100178026 0.04333762 -0.18062949 0.32292786
-0.2754351 0.09738915 -0.07840304 0.15921004 0.010744577 -0.09486913 0.07633158 -0.08740944
0.4591114 -0.20011221 0.15104285 -0.25039965 0.040543977 -0.19756185 -0.20125075 -0.048469465
0.2717651 -0.0016788992 0.23569131 0.030304963 -0.08511378 -0.15918215 -0.12654579 -0.10793779
-0.04887747 0.052811235 -0.1449955 0.008581081 -0.038681448 -0.018931037 0.044970687 0.12032393
-0.034623966 -0.010985077 -0.17657606 0.43363217 -0.027788552 -0.101835325 -0.07080577 0.033152614
0.06442178 -0.23333645 0.056917373 -0.15636922 0.14026333 0.054992944 -0.057966758 -0.1490705
-0.22594218 -0.15990247 -0.10154177 -0.107935265

c1.3.bias f4 [3]
00000000: bfaa 90bc 52f8 55bc 0917 bfbc
-0.017659543 -0.013059692 -0.023326414

d1.0.weight f4 [256, 192]
00000000: a685 9cbd 4003 b43c 2ebc 9dbd 8881 61bd
00000010: 89d0 5dbc 4cc0 ccbc 1906 c0bd ff00 e3bc
00000020: fd85 97bd b108 33bd 3b90 69bd 309a 1f3d
00000030: 2b4d 873d 1fde e63c 8aaa 99bc c033 87bd
00000040: b6ae 67bd e998 b1bd 1bc5 3bbb 6c0b 30bd
00000050: 6749 4e3d 5f22 90bc fffd b6bd 1e14 75bd
00000060: e796 afbc 0ffd 59bc 8cf0 36bd 4ebb c83d
00000070: 8006 673d d30f 1cbc d3bb 4b3d eed4 663c
00000080: 3219 9ebd a60e c9bd a9e5 463d d484 63bd
00000090: 54ac cdbc 1fc0 8ebd d957 3ebd 370b 29bb
000000a0: 5867 873d 5466 c63c 302b cc3c be2b f03b
000000b0: 1a69 193d a494 343d 6e5b a03b 4621 18bc
000000c0: 3d18 5f3d c2f3 0d3c 2c47 733d 9e96 34bd
000000d0: 73a3 2fbd 82a5 02bd 0bb9 d7bd 2258 37bc
000000e0: ecc8 50bc 593b 34bd 7aff acba 835b 20bd
000000f0: 5353 853c 1a49 a43d 6eb5 bdbc 9094 873d
00000100: 652a 0cbe eb18 d03c 5bef 7fbd 5b67 933c
00000110: 82a8 46bd 77d9 d03b b9e7 de3a 29d8 8bbd
00000120: a788 64bc cc22 33bd 192c 24bc 67b6 993c
00000130: 5dff e6bb a3b2 943d ad07 12be 8d07 adbc
00000140: bf40 c53c ff5e 133d 09dd 09bd 55d6 c73c
00000150: f408 a5bc 3bb7 a23c 4558 d03c 0d40 5cbd
00000160: 57a5 093d 22db 44bc 47a3 463d 5944 cc3c
00000170: f9e7 e6bc 6c09 a5bc 2137 4bbd d2a8 0f3d
00000180: a09e 9b3d a6a3 703d 1604 9c3d eab4 b73b
00000190: b1ce 543c e44e 9ebd 6338 3a3d 340b ffbd
000001a0: 11c4 0abd da9b a5bc 07bf 8e3d 6c46 41bc
000001b0: 2006 fe3a 753a 0dbd 2c99 e73b 248a 023d
000001c0: 27fd 2d3d 9255 33bb 5435 e53c 5bdd 37bd
000001d0: 9606 93bd f17e f73c a47f af3d 2ed2 08bb
000001e0: f8c6 10bd 07b3 443d 3891 b93b 0456 cbbc
000001f0: f35c adbd 4580 70bd 75a7 e2bc 8e36 f23c
00000200: 18c2 dbbd de4b f4bd a25a 53bb 8759 62bb
00000210: 4e25 093d 05e2 983d 48be 11bd 820f edbc
00000220: 1ea9 0bbd 822b c0bd 045b 253d 7ac9 e73d
00000230: e1cc 1ebc 4ef0 7c3d 7e49 103d ad72 a1bd
00000240: 6529 7abc 84b1 293d 1b21 563d 22ee e83d
00000250: 7c7c 293b 7ede 433d fa7c 5dbd 5546 f8bd
00000260: f603 983c 21c7 9f3d 3c17 c43d 6912 873d
00000270: f322 d3bc 0edd 3f3c ab7c 0dbd 2741 62bd
00000280: f66f 1f3d 3eab 8d3d b84f 143c f8ea 503c
00000290: 80bd 93bd 6f4c b9bd b7a6 aebd ad01 6d3c
000002a0: 83a7 b33c e697 56bc b203 313d c17c ecbd
000002b0: cf87 a6bd dec4 1bbe 5321 763c 8241 393c
000002c0: 0465 dcbc c1cd 493d efa2 febd 757b e63c
000002d0: 7d6b 87bd 30db 14bc 1541 8e3d ca7e 873d
000002e0: 3406 a6bd 0b10 4dbd 6227 32be d20e a9bd
000002f0: dcf2 05be e2a9 a3bd 219b c03d 4f14 1bbc
00000300: a237 88bd 2b34 efbd 3773 7abd 14f9 a83c
00000310: b618 cdbd d870 09bd b396 10bd 8091 13bd
00000320: f888 9dbd 52ba 70bd 2bec 8ebd 229d 53bd
00000330: 81b8 e0bd 51a8 fbbd 69ae 95bc d277 38bd
00000340: 3cad 7bbd 7d41 5bbc 02b7 78bd 065a 9abd
00000350: c744 a1bd e694 a7bd 9fa2 87bd 9046 39bd
00000360: 3cd3 60bd 8e65 a7bc 52e1 49bd c0c3 c5bc
00000370: df73 8ebd 3637 4dbd d959 1fbd ac46 33bd
00000380: 6303 58bb 725a f8bb 8040 52bd b492 aabd
00000390: 06d2 8dbc 914f 44bc 1e8c 4abd 4716 18bd
000003a0: 0397 05bc cf30 b2bd 70d3 1fbc 93ab 49bd
000003b0: 325d 58bd 07bb 56bd dddf 50bc 3865 3abd
000003c0: 0dd2 99bd 1ecc 4abd cabe 79bd e01a ecb9
000003d0: ca2a acbc 0b6c f3bc 20b9 bfbd 040c 45bd
000003e0: 36f3 99bd ba63 afbb 7c9a 88bb 9796 31bd
000003f0: b802 dcbd cb9e 24bd c18f 09bd 74b9 adbb
-0.07642679 0.021974206 -0.07701908 -0.05505517 -0.013538488 -0.024994038 -0.09376163 -0.027710436
-0.07398603 -0.04370946 -0.057022315 0.038965404 0.066065155 0.028182087 -0.018758077 -0.066016674
-0.0565631 -0.086717434 -0.002865142 -0.042979643 0.05036297 -0.017594514 -0.08935165 -0.05983364
-0.02143426 -0.013304963 -0.044662997 0.098013505 0.056402683 -0.009525257 0.04973967 0.014088852
-0.077196494 -0.09817247 0.048558865 -0.055546597 -0.025106587 -0.06970238 -0.046470497 -0.0025794038
0.06611508 0.024218716 0.024922937 0.007329433 0.03745375 0.044087067 0.004893712 -0.009285277
0.054466475 0.008664073 0.059394047 -0.044088952 -0.042880487 -0.03189612 -0.10533341 -0.011190446
-0.012743216 -0.04400191 -0.0013198697 -0.039149772 0.016275084 0.080217555 -0.023157801 0.06620133
-0.13688047 0.025402507 -0.062484127 0.01799362 -0.048500545 0.00637358 0.0017006315 -0.06828339
-0.013948596 -0.043734357 -0.010020279 0.018763734 -0.0070494846 0.07260635 -0.1426074 -0.021121765
0.024078725 0.035979267 -0.03365806 0.024394194 -0.02014587 0.019862762 0.025432715 -0.05377202
0.033604946 -0.012015136 0.048495557 0.024934934 -0.028186785 -0.020146094 -0.049613122 0.03507311
0.07598615 0.058749817 0.07617967 0.0056062834 0.012988732 -0.07729891 0.04546393 -0.12453309
-0.03387839 -0.020215917 0.06970029 -0.011796575 0.0019380488 -0.034479577 0.00706782 0.031870022
0.042477753 -0.0027364236 0.02797953 -0.044888835 -0.071789905 0.030211898 0.085692674 -0.002087723
-0.035346 0.048022296 0.0056630634 -0.024821289 -0.08464994 -0.058716077 -0.02766774 0.02956703
-0.1073038 -0.11928533 -0.0032250066 -0.0034538226 0.033482842 0.07464985 -0.035581857 -0.028938059
-0.03409683 -0.093832985 0.040370002 0.113177255 -0.009692402 0.06175261 0.035226338 -0.07883201
-0.015268658 0.041429058 0.052277666 0.11373545 0.0025861552 0.047819607 -0.054074265 -0.1212279
0.018556576 0.07801653 0.09574744 0.06595308 -0.025773501 0.011710418 -0.03454272 -0.055237915
0.038925134 0.069174275 0.00905221 0.012751333 -0.07213879 -0.09047782 -0.08527892 0.014465732
0.021930462 -0.013097739 0.043216415 -0.115472324 -0.08131372 -0.15211818 0.015022594 0.011307122
-0.026903637 0.049268488 -0.12433421 0.02813504 -0.06612299 -0.0090854615 0.06946007 0.0661598
-0.08106652 -0.050064128 -0.17397836 -0.0825478 -0.13080925 -0.07991387 0.094045885 -0.009465291
-0.06651236 -0.11679872 -0.061145034 0.020626582 -0.10014479 -0.03355488 -0.035299968 -0.03602743
-0.0769214 -0.05877144 -0.06978639 -0.051663525 -0.10972691 -0.12287963 -0.018271642 -0.045036145
-0.061444506 -0.013382313 -0.060721405 -0.07536702 -0.07874446 -0.08182697 -0.066228144 -0.04523331
-0.05488895 -0.020434167 -0.049287148 -0.024141192 -0.069556944 -0.05010148 -0.038904045 -0.04376857
-0.0032961003 -0.0075791413 -0.051331043 -0.08328763 -0.017312061 -0.011981861 -0.049450032 -0.03713062
-0.00815368 -0.08700716 -0.0097550005 -0.04923589 -0.052823253 -0.052424457 -0.012748686 -0.045506686
-0.07510767 -0.049511068 -0.060972966 -0.0004503345 -0.021016497 -0.029714605 -0.09361482 -0.048107162
-0.07517092 -0.0053524645 -0.0041688066 -0.043356504 -0.10742706 -0.0401905 -0.03358436 -0.0053016488

d1.0.bias f4 [256]
00000000: 10a6 9fbb 1405 0a3d 2775 d2bb e234 8b3b
00000010: a1ad f53b 113a cfbb 7290 e03c a9b4 373c
00000020: ac78 1ebb 89ae 7d3c 4337 e3bb 1dc7 1fbc
00000030: 8d36 e7bb b6ef 93bb fd32 a9bb a537 6c3c
00000040: eb2f 073c f6c8 793c 5225 bdbb fe52 c1bb
00000050: ed32 0e3c 1c75 e0bb 9bf3 c73c 5472 563b
00000060: 9722 ddbb 991a f2bb 37ee 783c 132e 9bbb
00000070: c6d9 f3bb 3454 553c 1eed bfbb 393c 023d
00000080: 1a07 eebb ec98 993c 687e 09bc ecd9 4ebe
00000090: 5321 2cbe 3046 6a3c ba0d f5bb 2eb9 293d
000000a0: 3e44 1cbc 7815 85bd ae0e a63b 15d3 07bc
000000b0: a364 d8bb 8e1b 0e3d cb2a ba3b 2421 fabb
000000c0: e204 b0bb f8f1 cd3b 45ee 9cbd 582b f73c
000000d0: cfb0 d93c f077 1abc b59a 013d 07bb dd3c
000000e0: dbe0 8abd 991b ab3b e96f 373c 4ece debb
000000f0: c6d7 3c3c 374c cfbb 4e15 bdbb a157 f5bb
00000100: 58f1 06bc 0ece 18bc 3b52 593c 62d3 0f3c
00000110: 81ba 743b ebfc 8dbb edb4 64bb 1c97 0fbc
00000120: 894a 44bc abce 1dbc 0d19 213c 6b28 e3bb
00000130: 8d84 6d3c 961c 86bb 9b58 2bb9 c5ee 0ebc
00000140: 8316 05bc 8d6f 02bc a0a0 1ebb 29db 0f3d
00000150: d3b9 8b3c 3df4 d7bb 4cbd 81bb 21ee 11bc
00000160: 1eaf 433c 12b5 efbb e4e5 293c 332c c6bb
00000170: d5a2 b63b 9224 03bc 51ea 9abb 8c51 21bc
00000180: 6e8e d7bb de1e d83b f8f8 f53c 996d 123c
00000190: c4a8 bc3b bbaf 0d3c eb57 4f3c 1000 c3bb
000001a0: 3982 623c 2a0f 403a 0704 32bc c11d 10bc
000001b0: a8f5 c5bb 0aa2 9abb 40f9 af3c e06f f3bb
000001c0: 39e2 603c 53fa 11bc 8a30 c7bb f8ec e93c
000001d0: ba3d 183b ce04 edbb 0853 c43c a003 b3bb
000001e0: 61ad 343c c9de 883c 2d40 e4bb 66df 343d
000001f0: 979f 213c 0715 4e3c 61bd b53b 4532 13bc
00000200: a96f e3bb d712 1d3c 9497 923c 30e9 b7bb
00000210: 7754 0bbc d0b4 67bc 35e3 b9bb ce5a 253c
00000220: bad0 04b9 8838 513c 6dba 32bc 47fe c4bb
00000230: cb08 a13c a105 a7bb 7476 1a3c 3513 96bb
00000240: d05a e53c a216 913c 3165 09bc 62b6 773c
00000250: 3abc a8bd 539c 9f3c 7a3e 303d e3c2 d0bb
00000260: 6c6b c5bb c5c3 0f3c 376e fa3c 0f7f 8b3b
00000270: 513f abbb 4c15 4d3d 4437 fbbb 2998 ddbb
00000280: 6a46 563c 901f bcbb 3350 aa3b 07da 03bc
00000290: b486 adbb 85ec d53c 2502 2dbc 22e7 ffbb
000002a0: bf6a 923b edf8 15bc 2d91 303c 0c97 f5bb
000002b0: fc0e 8d3c 14e9 c5bb 5dc4 443c 3134 d3bb
000002c0: c912 f4bb f5a4 0cbe dff6 9b3c 0908 b4bb
000002d0: 969d 913c 39bd 273c 3ca1 29bc 3657 b5bb
000002e0: ce17 a93c 9f3e e0bb 5b57 8c3c 8bc9 e8bd
000002f0: 88e3 743d 8055 6c3c 6fc6 443c 4fbc 953c
00000300: faec bb3c ff4b d63b 0f2b c4bb 46b0 da3b
00000310: 7316 f93b 032e 1cbc 7728 b4bb 925b 123c
00000320: ca40 963b b7c5 ecbb ef6e f1bb 468f dfbb
00000330: 604a 2ebe 0548 57bb 2ef3 293d 368e e9bb
00000340: 837f c23c bada 3f3c 9b2c 0cbc bc0f 82bd
00000350: d226 95bb 72d6 af3c d9f4 323c 5700 a93c
00000360: 72c3 d43a 60a1 8dbb 406c 693c 0158 c7bb
00000370: 0b44 c5bb 6e6b 813c 3f39 b6bb c4b5 753c
00000380: 73d5 453c 3cb6 513c 2b99 cfbb 6024 bcbb
00000390: 3efc 99bb 5c5e aebb 47b8 dfbb ac0c a13c
000003a0: 600b 473c 7f40 3b3d 41f4 dd3c cb4e 16bc
000003b0: 8294 14bc cf02 2abc a786 81bb 4bf6 183c
000003c0: f559 9f3c 98b4 813c 9d89 d9bb 38de 0cbc
000003d0: 66a6 8bbc 6925 4a3c 4a0d 5bbb 0d37 723d
000003e0: 1c28 46be 9576 ddbb 826a e5bb 85af 03bc
000003f0: b68d 70bb a865 32bc 7c73 91bb 95db 82bb
-0.004872091 0.03369625 -0.006422657 0.0042482475 0.007497505 -0.0063240607 0.027412627 0.011212506
-0.0024180813 0.015483507 -0.006934078 -0.009752062 -0.0070560635 -0.0045146598 -0.005163549 0.014417564
0.008251171 0.015245667 -0.005772271 -0.005899786 0.008679134 -0.006849898 0.024408152 0.0032721953
-0.006748508 -0.0073884246 0.015193514 -0.004735717 -0.007441732 0.013020564 -0.005857124 0.031795714
-0.00726403 0.018749677 -0.008391954 -0.20200318 -0.16809587 0.014298961 -0.007478443 0.041436367
-0.009537755 -0.064982355 0.005067668 -0.008290072 -0.0066037937 0.034694247 0.005681371 -0.007633345
-0.005371676 0.0062849484 -0.07662634 0.030172035 0.026573567 -0.009428009 0.03164168 0.02706672
-0.06781169 0.0052217958 0.011196115 -0.006799496 0.011526054 -0.006326224 -0.005770362 -0.007487253
-0.008236252 -0.009326471 0.013264234 0.008778425 0.003734261 -0.0043331287 -0.003489788 -0.008764055
-0.011980661 -0.009631793 0.009832633 -0.0069323084 0.014496935 -0.004092763 -0.00016340839 -0.008723919
-0.008123043 -0.007961166 -0.0024204627 0.035121117 0.017056381 -0.006590395 -0.0039593335 -0.008906872
0.011943607 -0.0073152864 0.010369752 -0.0060477494 0.0055736103 -0.0080043245 -0.0047276397 -0.009846102
-0.0065782582 0.0065954765 0.030025944 0.008937263 0.005757423 0.008647854 0.012655239 -0.005950935
0.013824993 0.00073264784 -0.010865218 -0.008796156 -0.0060412474 -0.0047190236 0.021481156 -0.007429108
0.013725811 -0.00890978 -0.0060787844 0.028555378 0.0023230151 -0.007233239 0.023965374 -0.0054630786
0.011027665 0.016707795 -0.006965658 0.04415836 0.009864709 0.0125782555 0.0055462574 -0.008984153
-0.006940801 0.009587011 0.017894544 -0.005612515 -0.008504025 -0.01414223 -0.005672837 0.01009245
-0.00012666258 0.012769826 -0.010908705 -0.0060117575 0.019657513 -0.0050971066 0.0094276555 -0.0045799264
0.027997404 0.017710987 -0.008385942 0.015119167 -0.08239026 0.01948372 0.043028332 -0.0063708886
-0.0060247686 0.008774702 0.030570133 0.00425709 -0.0052260538 0.05006914 -0.0076665003 -0.0067625237
0.013078311 -0.005741067 0.005197549 -0.008047587 -0.005295599 0.026113758 -0.010559593 -0.0078095356
0.0044682915 -0.009153587 0.0107768 -0.007494813 0.01721906 -0.006039748 0.012009707 -0.0064454307
-0.0074485284 -0.13734801 0.019038616 -0.005494122 0.017775338 0.010237985 -0.010353383 -0.005534078
0.020641234 -0.0068434025 0.017131498 -0.11366566 0.059787303 0.014424682 0.012010201 0.01827827
0.022940148 0.006539821 -0.0059865783 0.0066738455 0.007601553 -0.009532454 -0.005497988 0.008932965
0.00458536 -0.007225718 -0.0073679606 -0.0068224994 -0.1702056 -0.0032849323 0.04149168 -0.0071275486
0.023742443 0.011709863 -0.008555557 -0.06350657 -0.004551747 0.02146456 0.010922634 0.020630045
0.0016232564 -0.004322216 0.014247 -0.006083489 -0.0060200742 0.015798297 -0.0055610235 0.01499695
0.012074816 0.012799796 -0.0063353977 -0.005741641 -0.004699259 -0.005321307 -0.0068273875 0.019659363
0.012148708 0.045715805 0.027094008 -0.009174059 -0.00906861 -0.010376646 -0.0039528194 0.009336065
0.019452075 0.015833184 -0.0066387192 -0.008597903 -0.017047118 0.012338021 -0.003342467 0.05913453
-0.19351238 -0.006758521 -0.007001222 -0.008037453 -0.003670556 -0.010888495 -0.0044388156 -0.0039934614

d1.3.weight f4 [128, 256]
00000000: 5382 8ebb 60dc 533c 1177 c9bc eaa3 153e
00000010: b6ee 8f3d 8137 2abd 3361 7ebd 9412 0f3d
00000020: 536b 703d f8e3 cd3b b5be 063d 861e 363d
00000030: 7f6c 143b e6f1 3f3c 65f1 35bd 3448 b83d
00000040: 1774 a93d 1847 aebd c6f4 913d b622 b1bc
00000050: a82d 4739 622b 383d 1d96 14bc 6e16 c7bc
00000060: 3dac d03d fd43 f83c 6acb b83d 54ec 5f3d
00000070: d9e6 8d3d c6c8 883d 1445 253d c4f4 3f3d
00000080: 835d 3f3c 335e 823d c4ae d83d 7056 5a3d
00000090: 3a51 63bc 85a1 8a3d 9f1d 9d3d c29a 24bc
000000a0: ec3c 923c d42d 47bb 4ca7 bf3c 3eaa 8bbd
000000b0: 1ddf a83d 95e0 f53c 740a eb3b d533 2b3d
000000c0: 9456 4abd 2fe9 543d 2268 1c3d e8a8 abbd
000000d0: 4305 3ebc 8e2f 943d 5a8c e53c b683 cabc
000000e0: 7551 efba 58be f63d e860 d4bc 4565 b03c
000000f0: 14ae a23d 0a52 353d 3370 1ebd 9a17 433d
00000100: b91a 273d 894c 8c3d d4ed ac3d da63 8c3d
00000110: 3a02 c03c 7507 c73a 4ac7 413d 0fc8 04bd
00000120: 247b 16bd 55e6 a13d 0279 9fbc 1baa 6a39
00000130: 1100 533d 3e24 cf3d 4532 243d 60c0 ce3c
00000140: 962b 893c 4a58 cebc 3dce 843d 0f9e bbbd
00000150: 0d0c e03d b913 fe3d 446d eebb 6744 493c
00000160: edcc 8b3c efae 283d f349 813d a29c 4f3b
00000170: a577 153d ca31 9cbb 7dd6 b2bc 4be4 c13d
00000180: 1b9e 69bc d4da c9bc 7937 d23b 9103 37bc
00000190: 2862 3f3d 1a17 033d a352 ee3b 9a32 4dba
000001a0: dd8e dfbb 0ea3 7bbd ce81 fcbc a15f 833d
000001b0: 3bbb c3bd 1ba7 853d 8e45 9e3d 0a12 28bd
000001c0: 7f32 5e3d 301d 573c b09f 683c d3ee 45bd
000001d0: da2b df3c ef29 0a3c 3739 5d3d 1db2 f0ba
000001e0: 18f7 ea3c 4499 5dbd b4e2 13bd 1ae9 48bd
000001f0: f99d 9dbc 0ebc af3d 5d95 8a3b ea6b 263d
00000200: 4c48 1e3d f4dd 0b3d dbcc a33d 66ee ec3c
00000210: ac64 24bc aafb a1bb 8c9e 023c 7551 113c
00000220: fe70 843d 6eea c93d 2dd7 bb3d 0fdd c8bc
00000230: e1cc 7dbd f226 303d 8faf ca3d b903 123d
00000240: 8b53 163e cc0d 7e3c 6f02 173d f8dd 953d
00000250: 12e2 5a3d bb7b 813d e11b 35bc f25a 2cbd
00000260: bd3d e9bd 45ae 8bbc e506 a43d 2fca f2bc
00000270: 7f7b d63c 3d86 d3bb bcaa 863d c0c1 183b
00000280: 0385 b93d 3315 693d a97a 313d aa36 40bc
00000290: 7596 5b3d 5db6 edbc 4def e9ba c1a0 ee3c
000002a0: 1517 1c3d e011 9e3c 1e76 073d 12cc 063b
000002b0: e799 253d bbaa de3d fe9e 953c be4a ecbb
000002c0: dd2e 7e3d 4d75 5dbb 5bdf f33d 16da cfbc
000002d0: 7414 a33d a892 0e3d 8bb0 003d 717b 8fbc
000002e0: cd88 fa3c aa5b cc3b 31ee ddbc ad92 19bc
000002f0: 58ec 14be 5f3c 003e ae6c 8f3d b948 893d
00000300: 664a c4bb 3f75 823d 8984 d53d ba21 ad3d
00000310: a341 3c3c 648a 223d 5fa0 ecbc d07c ab3d
00000320: 4be7 b33d c4b0 ec3b 4596 5fbd d4e3 88bc
00000330: 5b8b 3e3c 4aac 98bd 63fe 9e3c 5b38 74bd
00000340: a7f2 533d 4de0 daba 5457 6e3a 7e23 46bd
00000350: 92d6 2cbd d14b 493d 98ec 843d f0eb 50bd
00000360: 896b 903c f148 9b3d ee4e 943d 5aad 983d
00000370: b2a5 803b 2c5f 883d 961f d4bc 7079 8c3c
00000380: 778c 213d bcc6 173d 4281 703d 52e6 0d3d
00000390: f97e 49bd 2007 643d 4d54 0b3d 9ba2 9d3d
000003a0: dd9c cb3c b568 1fbe 62fe a43d 17f4 303d
000003b0: 098b 1c3d a153 7f3d 7acc 8abd 055d 1cbc
000003c0: f809 cc3c b37f 113d 6003 033e 14fe 913d
000003d0: 0cc0 6f3d d117 423c 4657 bebc aabf 88bd
000003e0: 7109 cebc a53d ac3d d2bf 81bc 8712 4fbc
000003f0: 72e2 3dbd 72e1 453b b358 633c 6f8c 8ebd
-0.004349032 0.012930959 -0.024592908 0.1461331 0.070279524 -0.04155684 -0.062104415 0.034929827
0.058696102 0.0062832795 0.032896716 0.044462703 0.0022647677 0.011715388 -0.044419665 0.08998147
0.082740955 -0.08509654 0.07126765 -0.021622997 0.00018995127 0.044963248 -0.009068993 -0.024302687
0.10189102 0.030305857 0.09023173 0.05466874 0.06928796 0.066789195 0.04034908 0.046864286
0.01168001 0.06365623 0.10580209 0.05330509 -0.013874346 0.06769089 0.076716654 -0.010046663
0.017851315 -0.0030392306 0.023395203 -0.068195805 0.082456805 0.030014316 0.007172877 0.041797478
-0.049398974 0.051980194 0.038185246 -0.08381826 -0.011597934 0.07235633 0.028021026 -0.024721008
-0.0018258529 0.12048024 -0.025925115 0.021532664 0.07943359 0.04426769 -0.03868122 0.04762993
0.04079697 0.068505354 0.084437996 0.06854983 0.023438562 0.0015184717 0.047309197 -0.032417353
-0.03673853 0.079052605 -0.01946688 0.00022379348 0.051513735 0.101143345 0.040087003 0.025238216
0.016744416 -0.025188584 0.06484649 -0.09161007 0.109397985 0.124061055 -0.007276209 0.012284375
0.01706549 0.041182455 0.06312933 0.0031679054 0.036491055 -0.0047666775 -0.021830792 0.094673716
-0.014258887 -0.024640478 0.0064153043 -0.011170284 0.04672447 0.032004453 0.0072730347 -0.00078276696
-0.0068224506 -0.061434798 -0.030823614 0.06414724 -0.09557196 0.065260135 0.0772811 -0.04103283
0.054247376 0.013129517 0.014198229 -0.048323464 0.02724259 0.008432849 0.054009642 -0.0018363629
0.028682277 -0.054101244 -0.036104873 -0.049050428 -0.019240366 0.085807905 0.0042292313 0.04063026
0.038643166 0.034147218 0.079980575 0.028922271 -0.010033768 -0.004943331 0.007972371 0.0088695185
0.06466864 0.09859167 0.09171901 -0.024519471 -0.061962966 0.04300589 0.098967664 0.03564808
0.14680307 0.015506219 0.036867555 0.07317728 0.053438254 0.06322428 -0.01105401 -0.04207892
-0.11388729 -0.017050872 0.080091275 -0.029637424 0.026181934 -0.0064552114 0.06575534 0.0023308843
0.09058573 0.056904983 0.04332987 -0.011731783 0.053610284 -0.029017622 -0.0017847806 0.029129388
0.03810795 0.019295633 0.03307163 0.0020568413 0.040429976 0.10872408 0.01826429 -0.0072110584
0.06205641 -0.003379184 0.11907836 -0.025372546 0.079628855 0.03480783 0.031418364 -0.017514916
0.03058281 0.006236513 -0.027091118 -0.009373349 -0.14543283 0.1252303 0.07003151 0.06703324
-0.0059903143 0.06370019 0.1042567 0.084536985 0.011490258 0.03968276 -0.028885065 0.083734155
0.0878435 0.0072232205 -0.054586668 -0.0167102 0.011629905 -0.074547365 0.01940841 -0.059624057
0.051745083 -0.0016698927 0.00090919924 -0.04837369 -0.042196818 0.04914457 0.06490439 -0.051006258
0.017629402 0.07582272 0.07241617 0.07454939 0.0039260024 0.066587776 -0.025893968 0.01714775
0.0394406 0.037054762 0.05871702 0.03464348 -0.049193356 0.055670857 0.034015942 0.0769703
0.024855072 -0.15567286 0.08056332 0.043201532 0.03821853 0.062335614 -0.06777282 -0.009543662
0.024907097 0.035522174 0.12794256 0.0712854 0.05853276 0.011846499 -0.023234975 -0.06677182
-0.025150986 0.08410195 -0.015838537 -0.012638695 -0.046358533 0.003019419 0.013876128 -0.06960379

d1.3.bias f4 [128]
00000000: 6355 bc3d a0e0 843d b90b c9bd 3f05 cf3d
00000010: de6e f3bd 29c0 013d 807d 03be ab6c 303d
00000020: 6f32 8e3c 4845 9c3d 3912 3e3d 2a38 3c3d
00000030: ea99 a03d b230 d7bd 5e80 993b 411b d13c
00000040: 8470 8e3d dc15 66bb b355 ea3c 86a2 f43c
00000050: eb52 fdbd 6f21 04be 6023 db3d 116c ed3c
00000060: 5037 5b3c b868 7d3d 8e75 28be 85be 593d
00000070: f8c3 8e3d 53a1 c9bd e3d8 1db7 851d c6bd
00000080: 140a e63c d09f 98bb 5af4 e5bd c925 3b3c
00000090: da26 ca3c e270 06be e142 b83d 78d8 f4bd
000000a0: b04f fbbd 568c 2cbe f3b0 8f3c 3008 5e3c
000000b0: efb4 153d 347c 00be 91da f1bd a7c7 d63d
000000c0: 4c3e 66be 754c 9f3b 41b9 183c ed87 14be
000000d0: 3a85 c43d 476c 8a3d d5a4 b63c 3b22 ae3d
000000e0: d631 1dbe 54cb d5bd f7c4 933d e372 02be
000000f0: 5bd2 983d 4e3b c0bd 1124 f73c a940 4a3d
00000100: 4149 18be d55c c73d 80eb ad3c 8dc0 163d
00000110: 254f 083d 3ded 833c 6cbb 553d 4660 4b3c
00000120: 1756 583d df16 8e3c f313 1abe 8ace 96bd
00000130: f711 b7bd a9a3 453d 53ba 11bc f49e dc3c
00000140: dd9d 663c 1da4 a23c 1a48 5e3d 32e1 f03d
00000150: 696a 383d 0ad5 c23c 05a4 d439 83ac 4c3d
00000160: 5cb4 3a3d b4be 31bb 2f60 143d 93c3 13be
00000170: e3e2 b43c 1bba b6bc c10a 793d 16d9 24be
00000180: de1c a13d 33d2 12be 71ab c23c 0e28 0e3d
00000190: ff9f 803d d73c 143d 4840 b03d 697d 963d
000001a0: 2e61 17be 15f4 9d3c 2aed d9bd 384e e0bd
000001b0: 3e2d 003d eeb6 f93c febf 993d dc73 4e3d
000001c0: 2082 8c3c 7f71 763c af25 8f3c 2c99 8e3c
000001d0: 569b 273d 8ecf 04be 0fd0 343d 1a0a 2f3d
000001e0: f0c9 b63c eb5c b23b 7627 5f3d 661a 243d
000001f0: af08 4e3d 5640 873c 59fc 833d eb47 673d
0.09195974 0.06488156 -0.09816689 0.101084225 -0.118863806 0.0316774 -0.12840843 0.043072384
0.017358033 0.07630402 0.046404097 0.045952 0.07841857 -0.10507335 0.004684492 0.025525691
0.069550544 -0.0035108244 0.028605318 0.029862653 -0.12369331 -0.12903379 0.107001066 0.028982194
0.013379887 0.061867446 -0.16451094 0.05316021 0.06970972 -0.09845223 -9.408427e-06 -0.09673599
0.028080977 -0.004657723 -0.11228247 0.011422583 0.024676729 -0.13128999 0.08997131 -0.11955351
-0.122710586 -0.16850409 0.01754043 0.013551757 0.036549505 -0.1254738 -0.11809266 0.104872994
-0.22484702 0.0048614093 0.009321512 -0.14504977 0.095957235 0.067589335 0.022295395 0.08502623
-0.15351042 -0.104391724 0.072153024 -0.12739138 0.07461997 -0.093863115 0.030168565 0.04937807
-0.14871694 0.09734503 0.02123046 0.036804724 0.033278603 0.016104335 0.052180693 0.01241309
0.052816477 0.01734489 -0.15046673 -0.07363613 -0.089389734 0.04825178 -0.008894521 0.026931264
0.0140757235 0.019853646 0.05426798 0.117617026 0.045023356 0.023783226 0.00040557995 0.049969207
0.04558216 -0.0027121725 0.03622454 -0.14430074 0.022080844 -0.022305539 0.06080127 -0.16098437
0.07866834 -0.14337997 0.02376339 0.034706168 0.06280517 0.036190834 0.08606011 0.07348139
-0.14783165 0.019281426 -0.106409386 -0.10952419 0.031293146 0.030482735 0.07507323 0.05040346
0.017151892 0.015041708 0.017474024 0.017407022 0.040919624 -0.12969801 0.044143733 0.042734243
0.022313088 0.0054432056 0.054480992 0.040064238 0.05030125 0.01651017 0.06444616 0.05646507

d1.6.weight f4 [4, 128]
00000000: 9515 133d 1cb7 8abd 63b6 0abe f268 073d
00000010: 1661 16be 1a77 013e f636 9fbd 45b7 833d
00000020: 9df9 263e c193 0bbd 5e07 733c 0947 a13d
00000030: 4029 1ebd c3f4 aebd 2419 4f3e 7cdc 0c3c
00000040: e34b 913d 309d 1f3e 0c0e 03be ce86 583c
00000050: bdb7 bebd 31e0 17be 025b 3d3d 5ebb 083e
00000060: e4cf 0d3e 3d43 233d 82fe a4bd f904 1a3d
00000070: f85f 773c 3100 c1bd 3105 423e 905b 04be
00000080: 9a58 ba3d f84d 47be cae2 71bd 0cfc 0e3e
00000090: f880 d33d e876 d8bd 8d13 7a3d da6a 91bd
000000a0: a748 8fbd b3a1 febd 43ab 41be 1a3a 46be
000000b0: fa71 bf3b c8b4 66be e795 96bd 23b0 583d
000000c0: e700 d2bd b888 323e 7fa6 103e c4ec aebd
000000d0: 30b8 5c3d c1f2 a7bc 95bc 16bd 9adb eb3c
000000e0: 6adc fdbd d4ad 03be 792b 28bc 6777 dcbd
000000f0: 84d1 683d 8799 fdbd b8d7 f63d d98c 3b3d
00000100: 6d5b 6fbd f6a0 803d facc 04be 3264 123d
00000110: a31d 123d 6b64 1c3d 48b0 b7bd fcf7 e53d
00000120: 80bc 143d 61ff 29bd f187 d3bd 150d 7fbd
00000130: a9a1 a6bd f3cf e43d 1b41 753e 340d 8c3b
00000140: 432d 063e 5025 e73d 7e8e a7bd de5b f33c
00000150: b22b 983d a57e d63b 8116 1d3e c46f d03d
00000160: bbd7 493d 5737 7f3c c9be b93c 9b75 5cbe
00000170: 3f41 afbd c9a0 413e 0d2a 993d 59c6 c6bd
00000180: de21 ed3c 2405 4abe 34d9 983b f13f d73d
00000190: 60ad 103d 06ef bf3d 01df ea3c f92c b3bc
000001a0: 309f c6bd 55c9 a83d 6421 e0bd 7c77 6cbd
000001b0: 30ff 283d 66a6 dc3d 055d 7d3d 577d 343d
000001c0: bf1b 653c f20a 443e ae48 80bd 0976 963d
000001d0: 4e84 cb3d 9812 7bbe 7bc1 2e3d 4235 b13d
000001e0: 1f31 21bd 9050 b23d b64e a2bd 0935 cebd
000001f0: 9ca8 4a3d de26 8d3d 1038 713c 61de 96bd
00000200: 051c 8c3d ce1a 2bbe f9d3 d4bd 203e 01be
00000210: 6f42 2dbd aad8 c0bd cc58 abbd e065 343e
00000220: 29db 3b3e 7237 5ebe c421 dfbd af30 a63c
00000230: 8acb 7cbe 4d9e 293d 0a12 9c3d 503a acbb
00000240: 8ccf d3bc a6e2 9d3d a2b4 ddbd ceaa 693e
00000250: 830a 23bd b936 41bd cd71 c6bd a919 9c3d
00000260: 33d6 553d 946b 983d 505a 02bd f2b3 d03d
00000270: 2520 4fbe 64ee 693d f0d7 f33d ec3f 763d
00000280: 8c18 ed3d e28a ab3d 16d7 b1bc b2b2 023e
00000290: 9b2f 553d 04f4 b3bc 1a79 51be a22e 2dbe
000002a0: 080f 94bd 2c1d 3d3d 5771 e5bd 5cee f13d
000002b0: e252 c63d b20b a7bd e297 4fbd b084 c9bd
000002c0: 7b56 c03d ed9e 193e b239 bb3d 854a 35be
000002d0: dfda 41be 47b7 6abd b484 3a3e f697 983d
000002e0: 735e 17bd c3b7 efbd d5b3 623d 94a9 de3d
000002f0: 6f9f c23d 3ee2 2cbd f4d0 4f3d 194a 183d
00000300: 84e2 513d 45bb 6cbe 2b85 a2bd 64bc 35be
00000310: 2f8a babd 3da4 57be d162 00be bd6d e23a
00000320: d409 e03d 0682 493e 2bb8 6abd c1df eb3c
00000330: 70a5 863d 78a0 e9ba 6de9 9e3d 6ffd 8fbd
00000340: 18ce 45be 5438 c23d 1e37 0ebe 08fd a23c
00000350: 3716 a0bd d2aa 87be 11b0 cb3d faa5 823d
00000360: 76fe 0a3d 1d48 55be 2136 5d3e 1acb 3a3b
00000370: f2f6 563e 061b 87bc 5600 95bd 4dec 51bd
00000380: c3e8 37be 1ed9 bbbd 0685 f13c 6cda 0f3d
00000390: 5d6c 82be aa7f a03d 54c9 76be e95d c9bd
000003a0: 7ebc c7bd bdce e03b bb39 803d a9a6 90bc
000003b0: ceb1 35be 265c f53d a0e2 9f3c 6f00 5b3d
000003c0: 7135 583e 3d3a bd3d 7b37 623e e04b 2bbd
000003d0: 3313 c43c c3c8 8a3b 1cd9 103d 617b c5bd
000003e0: 07b2 c83d f56d ccbd 2c88 26be b2c0 dcbd
000003f0: 5593 583b 25ad d53d 5b8b a5be e466 20be
0.035909254 -0.067732066 -0.13546138 0.033059068 -0.14685473 0.1264309 -0.07774155 0.0643144
0.16306157 -0.034076456 0.014833299 0.07874877 -0.038613558 -0.08542778 0.20224434 0.008597489
0.07094552 0.15587306 -0.12798327 0.013215734 -0.09312389 -0.14831616 0.04622937 0.13352725
0.13848835 0.039859045 -0.08056356 0.0376024 0.015098564 -0.09423865 0.18947293 -0.12925553
0.09098931 -0.19463336 -0.059054174 0.13963336 0.10327333 -0.105695546 0.0610538 -0.071004584
-0.06996279 -0.124331854 -0.18912987 -0.19358101 0.0058424445 -0.225299 -0.0735281 0.052902352
-0.10254078 0.17434967 0.14126013 -0.08541253 0.053886592 -0.020501496 -0.03680094 0.028791238
-0.12395556 -0.12859279 -0.010264271 -0.10764962 0.056840435 -0.12382799 0.12052864 0.04578862
-0.0584368 0.06280701 -0.12968817 0.035740085 0.035672795 0.038181704 -0.0896917 0.1122894
0.03631258 -0.041503314 -0.10328663 -0.062268335 -0.08136303 0.11172476 0.23950617 0.004274035
0.13103203 0.11286414 -0.08181475 0.029706892 0.07430209 0.006545859 0.15340616 0.101775676
0.049278002 0.015577159 0.022673981 -0.21529238 -0.085573666 0.18908991 0.07478724 -0.097058006
0.028946813 -0.19728523 0.0046645645 0.10510243 0.035321593 0.09371762 0.02867079 -0.02187203
-0.09698331 0.08241526 -0.10943869 -0.057731137 0.04125899 0.107739255 0.06185629 0.044064846
0.013983666 0.191448 -0.062638626 0.07346732 0.099373445 -0.24518812 0.042664986 0.08652736
-0.039353486 0.08706772 -0.07925169 -0.100687094 0.049477205 0.06892179 0.014722839 -0.07366634
0.06841282 -0.16709444 -0.10391993 -0.12621355 -0.042299684 -0.094163254 -0.08366546 0.17616987
0.18345322 -0.21700838 -0.10895112 0.020286886 -0.24687019 0.041410733 0.07620628 -0.005255975
-0.025855802 0.077092454 -0.108254686 0.22819063 -0.039804947 -0.04717133 -0.096896745 0.07622082
0.05220623 0.07442394 -0.03182441 0.10190572 -0.20227106 0.057112113 0.11906421 0.060119554
0.115769476 0.08376099 -0.021709006 0.1276348 0.052047353 -0.021966942 -0.20456353 -0.1691232
-0.072294295 0.0461704 -0.112032585 0.118130416 0.096837774 -0.081565276 -0.050681956 -0.09839761
0.09391495 0.15002032 0.09141864 -0.17704208 -0.18931149 -0.057303693 0.18214685 0.07450859
-0.03695531 -0.11704972 0.055347282 0.10872188 0.09503066 -0.04220795 0.050736383 0.03718004
0.051241413 -0.23118313 -0.07935556 -0.17747647 -0.09108388 -0.21058746 -0.12537695 0.0017275136
0.109393746 0.19678506 -0.057304543 0.028793218 0.065745234 -0.0017824313 0.07759366 -0.070307605
-0.193169 0.094834 -0.13888213 0.019896045 -0.07816737 -0.26497513 0.099456914 0.06379314
0.03393408 -0.2082829 0.2160268 0.0028502406 0.2099264 -0.016492378 -0.07275455 -0.051250745
-0.17959885 -0.09172271 0.029482376 0.035120413 -0.254733 0.0783685 -0.24100238 -0.09832365
-0.09752749 0.0068605826 0.06261011 -0.017657595 -0.17743608 0.119804665 0.019517243 0.05346721
0.21114136 0.09239624 0.22091477 -0.041820407 0.023934936 0.0042353584 0.0353633 -0.09642673
0.09799581 -0.0998191 -0.16262883 -0.10778941 0.00330468 0.10433415 -0.32332882 -0.1566425

d1.6.bias f4 [4]
00000000: 2407 963e ed57 bebd 02a2 983e e794 bcbd
0.29302323 -0.09294114 0.29811102 -0.09208088
