gym_snake/netw.pt (torch, 268260 bytes, 6 tensors)

d1.0.weight f4 [256, 128]
00000000: 9982 b83d 39fe 873d 5380 d1bd 862c 013d
00000010: 435c 7c3d 6815 6cbd 2de4 c1bd 8687 523d
00000020: 7936 0dbe dca9 00bd e585 d93d 1996 be3d
00000030: 5758 a9bc 6a76 0bbd debd 8cbb a432 0ebe
00000040: bf9f 57bd 907e f93c b27b de3a b93a 013e
00000050: 6aa1 3cbd 61ee 4cbd aa67 13be 50ea c2bc
00000060: 0610 e93d 30a6 8ebd a110 c1bb 9158 84bc
00000070: 5cca 8e3d 5dca d6bd e5cd 59bd 4f87 36be
00000080: 78a4 fabb 4225 00be 1189 2b3d 34a4 33bd
00000090: aa28 a3bd dec4 803d 1a75 323c 5952 83bc
000000a0: c567 6cbd 55c4 4b3d 6dd0 d7bd 1a59 633d
000000b0: d27f cbbc 9f4f 963d 0645 5d3d 1f9c a73d
000000c0: bdd5 0b3d d20c 0cbd 2d32 f9bd 8d60 233d
000000d0: 2e7d 4e3c 9d66 c8bc 2216 fabb 5dea cf3c
000000e0: c809 633c 4cdc 633d 925a a8bd 8260 d2bd
000000f0: f325 fb3d 92d6 bfbd ba00 9abd 6621 1a3d
00000100: 14ea 9f3d 0ca9 713d e1ab 253d 007a 60bd
00000110: e32f 1e3d 8ea2 d13c fb0f f9bc 4b72 8dba
00000120: 98a5 54bd 7742 cbbb 0afa 653d 11ca b23d
00000130: a020 283d c3ed cbbc 58f6 163d 71a4 d33b
00000140: f20f cebb aecb 783d 1e91 1a3d dff0 0a3d
00000150: ed43 0dbd 0af8 ce3d b275 9cbc fc74 753d
00000160: ad14 5fbd e814 56bd 9455 f33b 4b6a 37bd
00000170: a8a2 bcbc 7add 2e3d 2007 80bd 10a5 bc3c
00000180: 1d76 1b3c e68e 24bd a74a 6b3c 7b77 adbc
00000190: b938 87bd 577b 62bd 7228 81bd 63ac 9cbd
000001a0: 1594 2dbc 32fc 24bd 71ee 8abd 80d5 193d
000001b0: bb22 6d3d 1cc9 82bc 8e00 d43c 0517 9b3d
000001c0: dd26 b7ba 4593 93bd 68ec 573d 5128 b9bd
000001d0: c3ea f0bc 0095 2cbd 3b0b a4bd 9158 873d
000001e0: 5970 283d 4678 a1bc d813 a13c 21d9 823c
000001f0: bc9e 0ebd cdb2 0a3c b1a9 a83c bee6 ecba
00000200: 529f 1b3d 6387 383c 359b d13c 7d7f 613d
00000210: 98b7 713d ca8a 29bd b99e c93d 6e2a 47bd
00000220: 41ad f83c 4ead 0abe ed70 003d 79e0 18bd
00000230: 1846 0fbb 7115 133d 0fbd 9d3d 79d8 8f3d
00000240: 6527 46bd e279 f039 9a38 963c c463 1f3d
00000250: 2205 92bd e437 d03d ac3e 383d d70b 30bd
00000260: 92ff 763d ec58 c8bc 5903 cfbd 44da c1bd
00000270: ba90 973c 45fb 313d 077c 0cbd 4ae0 873d
00000280: 3e9a 3abd 106d f9bb 4e59 bfbd 7b1a bebd
00000290: 900c c93c 274f abbd c4a9 383d 1db7 03bd
000002a0: 7ca9 98bc 0e25 79bd 7497 83bd 6b07 bcbd
000002b0: 7951 fdbc 6e9c 19bd 226b 433d 3590 9cbb
000002c0: 0e7e 763d 27ce 7abd d09f 203d 4c8e 223d
000002d0: fa54 35bd 4473 973d f271 fabc 0805 263d
000002e0: 1104 b03d 399f 6fbc fb5d 823a 0a2d bebd
000002f0: fe41 993d 1000 773c 1b49 5bbd e16a 30bd
00000300: 4f0f 543d 17d7 64bc 07e5 03bd 1b0f 4ebd
00000310: 144b 07bd c76b 9e3d 816b 43bd 64bb 37bd
00000320: 4676 a83d 58dd 5fbd 8fd3 923d 9de1 493d
00000330: 57a0 ec3c 2f04 5d3b d878 8f3d f7c7 553d
00000340: 48b8 dd3d 216e d13d 6400 203d 2a35 4ebc
00000350: 4438 94bd b2f7 ccba da6e 683d e35c cabc
00000360: 5aad aa3d 02f9 0cbd 4005 bf3c b7f8 4f3d
00000370: 9cd2 ba3d 4755 d73d 5110 bcbb c856 373d
00000380: 92f6 fcbc e0cb 5a3d efb2 9d3c db98 c33c
00000390: ba9d 663d 9723 243d bb0b 993d 3847 e3bb
000003a0: 1f0b 9ebc d8a0 bd3a ab96 bf3d d2aa 8bbd
000003b0: 7f42 823d f4f0 6f3d 2e24 15bd 0f73 9e3d
000003c0: 178c eb3d ed7c b63d 0f2b d23c d6b7 973d
000003d0: 2e54 9abd 9d16 81bd 49bf a43d 32ec 14bd
000003e0: 5375 673d b908 88bb 1f30 2e3d 0bd0 1f3d
000003f0: 511e 523d 96f6 2b3b 823c ca3d b86d ef3c
0.090092845 0.06640286 -0.10229554 0.0315366 0.061611425 -0.057637602 -0.09467349 0.051398776
-0.13790311 -0.03141199 0.106212415 0.093059726 -0.020672007 -0.034048475 -0.004295095 -0.13886505
-0.05264258 0.030455858 0.001697412 0.12620057 -0.046052374 -0.050032023 -0.14395013 -0.02379337
0.11380009 -0.069652915 -0.005891875 -0.016155513 0.06972191 -0.104878165 -0.053174872 -0.17825054
-0.0076490007 -0.12514213 0.041878764 -0.04385777 -0.079667404 0.062875494 0.010892177 -0.016030477
-0.05771615 0.049747784 -0.10537801 0.055504896 -0.024841223 0.07339405 0.054020904 0.081840746
0.034139384 -0.034191914 -0.121677734 0.039887 0.012603087 -0.024462992 -0.007632033 0.025380308
0.0138573125 0.055630013 -0.082204 -0.10272314 0.122630976 -0.09367098 -0.0751967 0.037629507
0.07808319 0.058999106 0.04044712 -0.05480385 0.038619887 0.025590207 -0.030403128 -0.0010791508
-0.051915735 -0.0062029916 0.05614666 0.08729947 0.04104674 -0.024893647 0.036856025 0.006458812
-0.006288522 0.06074112 0.03773605 0.03392112 -0.034488607 0.101059034 -0.01909909 0.059926018
-0.054463077 -0.05226603 0.007425973 -0.044779103 -0.02302678 0.042691685 -0.06251359 0.023027927
0.00948861 -0.04017534 0.01436106 -0.021175137 -0.06602616 -0.055293407 -0.063065425 -0.07650068
-0.010594388 -0.040279575 -0.0678376 0.037557125 0.05789445 -0.015965037 0.02587917 0.0757275
-0.0013973374 -0.07205824 0.05271569 -0.09040893 -0.029408818 -0.042134285 -0.080099545 0.066086896
0.041122768 -0.019710671 0.019662783 0.015972676 -0.03481935 0.008465481 0.020588728 -0.0018074138
0.037993737 0.011262747 0.025586704 0.055053223 0.05901298 -0.041392125 0.09844727 -0.04862445
0.030356051 -0.13542673 0.031357694 -0.03732345 -0.0021861847 0.03590912 0.07702076 0.07023711
-0.048377413 0.00045867177 0.018337537 0.038913503 -0.07129885 0.1016691 0.044981644 -0.04298004
0.060302325 -0.024456464 -0.101080604 -0.09465459 0.018501628 0.04345252 -0.03429797 0.066345766
-0.045557253 -0.007611878 -0.093432054 -0.092823945 0.024542123 -0.083647065 0.045083776 -0.032157052
-0.018635504 -0.060826354 -0.06425372 -0.09181102 -0.030922638 -0.0375027 0.04770959 -0.004777933
0.06017881 -0.06123176 0.03921491 0.039686486 -0.044270493 0.07395032 -0.030571911 0.040532142
0.085945256 -0.014625364 0.0009946221 -0.09285934 0.0748329 0.0150756985 -0.053536516 -0.043070678
0.051772412 -0.013967297 -0.03220084 -0.050307374 -0.033030584 0.07735401 -0.047709946 -0.044856444
0.08225684 -0.05465445 0.07169258 0.049287427 0.02888505 0.0033724417 0.07005471 0.052192654
0.108261645 0.102260835 0.039062873 -0.0125859175 -0.07237294 -0.0015637784 0.05674634 -0.024702495
0.083338454 -0.03441716 0.023317933 0.050774302 0.09122202 0.10514312 -0.0057392498 0.044760495
-0.030879293 0.053417087 0.019250361 0.023876598 0.056302764 0.040073004 0.074729405 -0.00693598
-0.019292412 0.0014467491 0.093549095 -0.06819691 0.063603394 0.0585794 -0.036411457 0.077367894
0.115013294 0.089105465 0.025655298 0.07408111 -0.07535587 -0.06303141 0.08044297 -0.036358066
0.056508373 -0.0041514304 0.04252636 0.039016765 0.051298443 0.0026239506 0.09874822 0.029227123

d1.0.bias f4 [256]
00000000: 0902 eb3c 1a1c 873d 05b8 253d 5c16 913d
00000010: 648b 15bb 1f9e d5bc 5be6 20bd b7e5 84bd
00000020: c6fc 243d 6190 f93b f6f6 9c3d a9d8 ca3d
00000030: 61e2 95bd 197a c03d 9793 c83d abe7 0f3d
00000040: a8a0 a8bd 6c3b 523d a2de 243d 98f4 223d
00000050: 5104 623c e6ac a43d 1d20 38bd f723 203d
00000060: 0ddc 02bb e119 53ba 77be c73c a397 203d
00000070: a6d6 85bc b881 d23c 8808 353d bebd e43d
00000080: 3dc0 a73d 69d9 4dbb 97fa 983d b77a ee3b
00000090: 2d28 383d b4a4 0f3d db02 93bb 197c 693d
000000a0: da96 b6bc 2b25 883d 85a9 8d3d 3967 8a3d
000000b0: e83a 093d 41d9 3ebd d05e 783d 071e e43d
000000c0: 9cd1 0cbd 4e43 ea3d 67ab 113d 941e 8bbd
000000d0: 69b3 ffbb 56d6 83bd 04ad 0b3d d2b3 9d3d
000000e0: 2c8c 1c3d 64bd ad3a 5da2 28bd 5733 3e3d
000000f0: 11a3 aa3d 0808 073e b222 9b3c e203 593d
00000100: 39d1 883d 907a 0c3d 62d2 adbd 815b 8f3d
00000110: b337 293d 4c78 aa3d 6843 aabd a949 753d
00000120: b2a4 853c eddc 263c bcb8 a5bc 48e3 163d
00000130: e3c4 db3c 1a27 7d3d faac cfb7 a7f8 ec3d
00000140: e893 853d 68a0 bd3d dade 1c3c 8fe6 b53d
00000150: 8b54 b63c f5f6 af3d d951 7f3c a2e2 14bd
00000160: 9b80 f63d 3440 c43d 4471 45bc 9fbd 703d
00000170: 91c1 9d3d 5875 d33d 4383 993b b912 263a
00000180: 62e8 863d c8a6 b13d 4d50 563d fc8b 523c
00000190: 62b2 debc d012 b33d 4d41 d63d 81f7 84bd
000001a0: 4246 333d 8b9f ee3d 5a52 6cbc 1dcb b83d
000001b0: 5b9e 973c a7cf a53c c5d8 633d 5ba1 353d
000001c0: c3b4 7abd 4334 9e3d f923 e33d 0493 013d
000001d0: 5d55 bd3d 504e 23bc b5ed 65bd 1d42 cdbc
000001e0: a478 95bd d613 af3d 1689 933c 23eb 4e3d
000001f0: 890f f73d fca6 a13d 130f 5e3d b4f8 df3d
00000200: d0b4 c13d e88b 1b3c c476 b2bd e4ae 293d
00000210: e182 f23c 3098 813d 95fe 3c3d 55c8 8e3d
00000220: 75fa 4c3d 9971 88bc 4cbc d43d 200f 333d
00000230: 8542 473d c98e c73c c3ef ae3d 29b8 393d
00000240: c463 b03d 85e6 283b 20f4 a3bb 6ad6 d73d
00000250: 996b 513d 81de c23d 1217 eabc d4b8 8e3d
00000260: 365e 8b3d d8cb 69bc 93fc 793c e707 543d
00000270: 0b14 1cbd 078b 723d 3124 d23d e5fc 3dbd
00000280: 8027 0c3d 891b 913d ae45 d5ba ac5d 373c
00000290: 9390 de3d bfcf d43d 4dd4 c1bd d2de 6c3d
000002a0: 256d c73c 98c3 0b3d b29c 8f3c 26a3 22bd
000002b0: 7e43 843d f707 df3b 8a23 133d 8fbb b23d
000002c0: a0d9 773d dedd 833d 5da3 54bd bc53 b83d
000002d0: 7a10 e6bc 4248 0c3d a163 cbbc 5a13 ea3d
000002e0: ca1b b13d 8c9b ab3d 1e55 fd3d 1b37 5d3d
000002f0: b840 98bd 978c a93a 0d5e d53c 0459 d23d
00000300: 83f3 263d 2fad 7a3d 762d c13d 6976 41bd
00000310: 1522 ba3d c539 753b ae09 c5bb 1463 4b3d
00000320: 2991 1d3d e727 173d 66b5 673d 3d08 bf3b
00000330: d999 4dbc 470f b93c 148e 983d 1719 a0bc
00000340: e76e d03c ca79 79bd bbf9 d23d a810 2fbd
00000350: b1db e1bd e139 9c3d 0877 193d afc9 833d
00000360: 8e01 8f3d 72cf 9a3d e06d 86bc b382 64bd
00000370: 819e ebbc 2b50 a7bd 65c4 f33d 23fd 463d
00000380: 6d6c bc3d 08b1 dd3d 6fa1 b23d 84ed ce3d
00000390: 21b5 9f3d fbe1 f43c c345 b33c 34fc 1f3d
000003a0: 4a9d b93d 4cde 9d3d d96a 86bd 0d1b 453c
000003b0: 1770 a23d ea4f d6bb 7068 a83d ac1d 753d
000003c0: bda6 b83b bfd6 983d f0d7 a9bb bcb4 cebc
000003d0: 636e 3d3d 4601 9cbd 1546 b0bb 1f4f 653c
000003e0: 6fd2 e83b 3fb9 bc3d 8273 c13c d476 34bc
000003f0: cc53 b53d 0ef0 9ebd 1715 423d 8deb 503b
0.028687494 0.06597157 0.040458698 0.07084343 -0.002281868 -0.026076375 -0.039282184 -0.06489127
0.040280126 0.0076160883 0.076642916 0.09904606 -0.07318569 0.09398288 0.097937755 0.035133045
-0.08233768 0.0513262 0.04025138 0.039784044 0.013794974 0.0804079 -0.0449525 0.0390968
-0.0019967586 -0.00080528675 0.024382813 0.039207112 -0.016337704 0.02569662 0.04419759 0.11169003
0.081909634 -0.0031410104 0.07469671 0.0072778123 0.04496019 0.035069183 -0.0044864244 0.057003114
-0.022288729 0.06647714 0.06917099 0.067579694 0.033503443 -0.04659391 0.060637295 0.1113854
-0.034379587 0.114386186 0.035563853 -0.06792942 -0.00780337 -0.06437366 0.034100547 0.07700314
0.038219616 0.0013255295 -0.041170467 0.04643568 0.08331884 0.13186657 0.018937442 0.05298222
0.06680531 0.034296572 -0.08487393 0.06999875 0.041312885 0.08323726 -0.08313638 0.0598847
0.016313884 0.010184509 -0.02022969 0.036837846 0.026827281 0.06180487 -2.4756871e-05 0.11570864
0.065223515 0.09259111 0.009574616 0.08881866 0.02225711 0.08592025 0.015583479 -0.036348946
0.12036248 0.09582558 -0.01205093 0.058774587 0.077029355 0.10325116 0.004684837 0.00063351874
0.06587292 0.08674389 0.052322675 0.012850758 -0.027184669 0.087438226 0.10461674 -0.0649252
0.043768175 0.11651524 -0.014423931 0.09023116 0.018508127 0.020240618 0.05562665 0.044343334
-0.061207544 0.07724812 0.110908456 0.031634346 0.092447974 -0.009967402 -0.0561349 -0.02505594
-0.07298401 0.08548705 0.018009704 0.050517213 0.1206351 0.07893178 0.054213595 0.10936108
0.09458315 0.0094938055 -0.08714059 0.041426554 0.029603424 0.063278556 0.046141226 0.06971804
0.050043542 -0.01665573 0.10387477 0.043715596 0.048647422 0.024360077 0.08541825 0.045341644
0.08612779 0.0025772166 -0.005003467 0.10538943 0.051128004 0.095150955 -0.028575454 0.06968847
0.06805079 -0.014269792 0.015257972 0.05176535 -0.038105052 0.059214618 0.10260809 -0.046383757
0.034217358 0.0708533 -0.0016271377 0.011191767 0.10867419 0.10391187 -0.09464321 0.057829686
0.024344036 0.03412208 0.017530773 -0.03970637 0.064581856 0.0068063694 0.035922565 0.0872718
0.060510278 0.06438802 -0.051913608 0.09000346 -0.028084029 0.034248598 -0.02482778 0.11429472
0.086478785 0.083792776 0.123697504 0.05400763 -0.07434219 0.0012935576 0.026045823 0.10270885
0.040759575 0.061200317 0.09432499 -0.047232065 0.09088532 0.0037418467 -0.006013117 0.049655035
0.038468514 0.03690329 0.05656948 0.0058298395 -0.012548887 0.022590293 0.07448974 -0.019543214
0.025443507 -0.060907163 0.103015386 -0.042740494 -0.11028231 0.07628227 0.037467033 0.064349525
0.069827184 0.07559098 -0.016409814 -0.055788707 -0.028762104 -0.08169588 0.11902694 0.048581254
0.09200368 0.10824782 0.08722197 0.10103896 0.077982195 0.029892912 0.02188385 0.03905888
0.09063204 0.077084154 -0.06563348 0.012030375 0.07931536 -0.006540288 0.08223045 0.05984275
0.005635111 0.074628346 -0.0051832125 -0.025232665 0.04624785 -0.076174304 -0.005379448 0.013995915
0.0071051638 0.092150204 0.023614649 -0.011014659 0.088538736 -0.077606305 0.047383394 0.003187868

d1.3.weight f4 [128, 256]
00000000: 8701 70bd 6ea5 ef3c 9ee2 e23c b7c5 a23d
00000010: 2554 5cbd e99f dbbd 3aef b33d 642a a9bb
00000020: 4a55 523d 6dd7 423d b7b3 31bd 0183 e7bc
00000030: ddae d0bc 46b3 613b 9ccd 46bd f7ba 7dba
00000040: aac7 bebd d8bd a93d d3b7 133d c326 843c
00000050: 909e b5bc 0c83 3f3d 73a1 d3bc 3ce2 693d
00000060: c9ce 64bc c422 8fbd de01 a33d 2921 43bc
00000070: 941a 99bc e501 8abb 8225 773b 68da fe3c
00000080: 3b03 1fbd f4a8 a23d f625 18bc 5adb 7a3c
00000090: 82e4 0b3d 975d cdba d3d1 0ebe 1fb6 0fbd
000000a0: 047f db3d 2127 0c3b fbbe 96bc 4849 dd3c
000000b0: e304 7ebd 3884 c3bb 8ffb 63bc 335c 643d
000000c0: 1d34 86bb ab8f 213d cde9 683c 87d4 05be
000000d0: da4a 243c 6f69 a8bd c130 f0bc 1bb2 a03d
000000e0: 991b 4bbc 9a79 bd3d 035e a6bd 5d83 a0bb
000000f0: 62e2 2f3d d569 babc e8e4 9c3d 93ab 343d
00000100: 9463 64bd da07 d23d 2557 aabd c569 eebc
00000110: 68af 943c a8a2 42bc d919 50bd 86b0 b93b
00000120: a92c 7dbc 4ea5 f93a a961 0c3d 36e3 8cbc
00000130: 6c7c 983d e7bc 52bd 20f5 283d 0b70 6c3d
00000140: c79b 543c 1baa 15bd b8c8 3d3d 2272 953d
00000150: d1e5 c8bd f111 adbc a284 d73d f2a2 61bc
00000160: 75fe d439 f144 eebc 01f1 303d d64a 823c
00000170: 8f3e 573d 404c 973d 1dca c4bd 936d e7bd
00000180: 5b25 a83b 72f7 2ebd 4716 6a3d 1299 10bd
00000190: 4649 f43c 89c2 cbbb 1a7a 44bd 23de 86bd
000001a0: f6a3 90bb a042 c9bc 5972 d63d 65b2 acbd
000001b0: faf3 8b3d 5f93 9b3c eff6 833b becb 03bb
000001c0: 2307 99bd b5ca 8fbd fc88 d13c bf1d e73c
000001d0: 1a60 bf3c b039 8e3d a7be a5bb 1f78 2d3c
000001e0: 0efc 08bd 347a 30bd 65b3 06bd 906b ae3c
000001f0: 88e7 4dbd 02a4 853c 790f efbb 03ca dfbc
00000200: 9f1f d93c ee9f d83c d5c6 9d3c 3c0b babc
00000210: 5649 01bc 6edb 39bb db6e 843d d39a f9bb
00000220: e0a6 763d 3dfa ffbc ddf6 c73b 424a 4cbd
00000230: 509c cc3c 70b7 20bc 45a2 0abd 2870 f1bd
00000240: a6b8 fcbc fdef a33d c070 7abd c77f f2bc
00000250: ae09 4f3d 1a88 763d 02b4 843d d641 e0bc
00000260: cc6b aebb 8a9c 9cbc 9537 f5bc 38c6 323d
00000270: fbfa 02bc a4fb 85bc ef2d f33c 28c7 033d
00000280: df28 c53d ca7f 353c 5daf 5b3d 6eba 293d
00000290: 6d7c 9d3d 0182 483d fa1f 633d 07ec 933d
000002a0: c7bb 263d c731 b5bd 6c4d 6bbc 29aa dab9
000002b0: 5241 213d 40a5 5a3d 1d08 2dbd 714a 65bc
000002c0: e655 ac3d 656a 643d f0ae 9bbc 9fcb 4abd
000002d0: aa52 bdbc 8b44 773d 844d a0bd 46d9 e9bb
000002e0: 5819 6a3d 3765 cdbc 9996 dbbc 2900 973d
000002f0: a966 3c3d 5233 06bd 7f19 d33d faaf f53c
00000300: 6386 cf3b 8095 3c3d 39a3 ddbc 8360 82bc
00000310: 2c3f 823c 0755 b73d 8525 04bd e18e b23c
00000320: b090 88bc 9698 b43b 9b7b 763c 4baa 363c
00000330: 625e 453d 05e5 e13c a612 8e3d 235d b0bc
00000340: ae2b 14bc e651 a3bd c93f 523d d367 a8bd
00000350: bfc6 7bbc 7335 413d 67ae 9dbc f6c2 f73c
00000360: e615 a03c 9f8b 6eba 238f cb3d 6bb9 5bbd
00000370: b359 4cbc c7de 6abd d61a b03c 8774 333d
00000380: 0be1 1d3c 6a91 6f3d a5ea f4bc e861 953d
00000390: 0adc 06bd 7693 253d d9ae 903d e586 98bc
000003a0: 0d57 85ba de74 763d 39a0 013d 73b1 843c
000003b0: d634 7c3d 1b64 993d c2eb 833c a083 a43d
000003c0: ce61 a1bd 6d39 f23c 1eff 75bd 51f6 44bd
000003d0: 7258 053d adc7 c7bc 7da2 823c f426 48bc
000003e0: ec1b b13c eca4 223d 4077 91bc 9a88 da3c
000003f0: b4c5 503d 0ac4 eabc 6f46 143d adf5 653d
-0.058595207 0.029253688 0.02769595 0.07947867 -0.053791184 -0.1072386 0.08785863 -0.005162524
0.05135087 0.047568727 -0.04338428 -0.02826071 -0.025474006 0.003443913 -0.048535928 -0.0009679044
-0.09315427 0.08288163 0.03606398 0.016131764 -0.022170335 0.046755835 -0.02583382 0.05710052
-0.013965317 -0.06989053 0.079593405 -0.0119097615 -0.018689431 -0.0042116516 0.0037711565 0.031110004
-0.03882144 0.079423815 -0.009286394 0.015311087 0.03415347 -0.0015668151 -0.13947229 -0.035085794
0.10717586 0.0021385627 -0.018401613 0.027012482 -0.06201638 -0.0059666894 -0.013914957 0.05575199
-0.004095568 0.039443653 0.014215899 -0.13069354 0.010027612 -0.08223235 -0.029320123 0.07846471
-0.0123967165 0.09251709 -0.081234 -0.004898472 0.042940505 -0.022755543 0.07660848 0.04410894
-0.055759028 0.10255404 -0.08317403 -0.02910317 0.018150046 -0.011879601 -0.0508059 0.005666795
-0.015452542 0.0019046457 0.034272823 -0.017198186 0.074456066 -0.051449683 0.041249394 0.05772404
0.012976593 -0.03653918 0.046334 0.0729716 -0.09809459 -0.02112672 0.105233446 -0.013771759
0.00040625376 -0.029085608 0.04319859 0.015904825 0.052549895 0.073875904 -0.096088625 -0.113001965
0.0051314062 -0.04271645 0.05715015 -0.03530223 0.029820096 -0.0062182588 -0.047968008 -0.06585338
-0.004414077 -0.024567902 0.10471029 -0.084324636 0.06833644 0.01899117 0.0040272395 -0.0020110453
-0.07472064 -0.07021085 0.025578015 0.028212426 0.023361254 0.06944597 -0.005058128 0.010587721
-0.033443503 -0.043085292 -0.032885928 0.021291524 -0.050269634 0.016313557 -0.0072955457 -0.027318006
0.026504336 0.026443448 0.01925985 -0.022710435 -0.00789102 -0.002835955 0.064664565 -0.0076173334
0.06021774 -0.031247253 0.0061024264 -0.049875505 0.02497688 -0.00980936 -0.03384616 -0.1178897
-0.030849766 0.080047585 -0.061142683 -0.029601945 0.05054634 0.06018839 0.06479646 -0.027375143
-0.005322909 -0.019117612 -0.02993373 0.043646067 -0.007994409 -0.016355343 0.029684989 0.032172352
0.09626936 0.011077831 0.053634036 0.04143756 0.07689748 0.048952106 0.055450417 0.07222753
0.040706422 -0.08847385 -0.0143617205 -0.0004170698 0.039368935 0.05338025 -0.042244066 -0.013994799
0.08414821 0.05576553 -0.019004315 -0.049510594 -0.023110706 0.060368102 -0.07827285 -0.0071364967
0.057153076 -0.025072677 -0.026805209 0.073730774 0.04599634 -0.032763787 0.10307597 0.029991139
0.006333159 0.04604101 -0.02705537 -0.015915161 0.015899263 0.089517646 -0.032262344 0.021796646
-0.016670555 0.0055113537 0.015044118 0.011148999 0.048185714 0.027575025 0.06937151 -0.021528786
-0.009043617 -0.07974605 0.05133036 -0.08222928 -0.015367209 0.047170114 -0.0192482 0.030244332
0.019541692 -0.00090997847 0.099394105 -0.053643625 -0.012472558 -0.057341363 0.021497171 0.0438123
0.009636174 0.058488287 -0.029897043 0.07294065 -0.03292469 0.040423833 0.070645995 -0.01861901
-0.0010173038 0.060170047 0.03164694 0.016197896 0.061573826 0.07489797 0.016103629 0.08032918
-0.07879983 0.029568398 -0.06005775 -0.048086468 0.03255505 -0.024387205 0.015946621 -0.012216318
0.02161976 0.039708063 -0.017757058 0.026676465 0.050969794 -0.028657932 0.036199983 0.056142498

d1.3.bias f4 [128]
00000000: ac57 6fbd bdf3 523d 8fbb 403d c75d a83d
00000010: f2d5 903d 8a59 f53c c223 bd3c c4fd 963d
00000020: 3ec6 9e3b 7274 373d 06c8 613d 65dc 81bd
00000030: 47ee 13be 35b1 03bd e35d 753d 4d1c 3fbd
00000040: 2317 b93d 0596 bd3b 6807 d6bd bbd7 233d
00000050: fb79 4d3b 6f42 e73c 394d 513d 5d94 03bd
00000060: 4815 853b ab6a c53d 42fb 963b 3c79 4f3d
00000070: b1ef c63d 0613 52bc 64bd a63d d548 413d
00000080: 7533 a43c 7af5 c93d fddf c9bd eb10 cd3d
00000090: a1e0 993d d24b f13c 931c 9ebd d6be 59bd
000000a0: 5ed1 473b ceb8 8f3d fadb 683c 583f aa3d
000000b0: aab4 08be 3a27 f1bd cddd 7abc f99c 133d
000000c0: eb9b 3dbd 561b e53d 093d 77bc 0471 4a3d
000000d0: 2162 40bd 6ce0 683d 45f2 04be bdfc a6bd
000000e0: a492 683d 0c0e c23d 208d 233d 5847 ad3a
000000f0: fa90 9cbc 444e 8e3d 3943 3f3d 3631 343c
00000100: 68a0 e5bd 8428 2eba c450 f53c 0fe1 1a3d
00000110: 87ed c6bb a198 16be 0397 803d 278e eebd
00000120: e30c 993d 768c 6cbd 93a4 093c 333f 603d
00000130: aad8 fdbb 8a02 473d 8d7c 963d 3f86 2ebe
00000140: 3d62 7b3d 64c5 bb3d 611b 4b3d 65df febd
00000150: 60fb b13d 2faf 333d 0952 84bd 66a4 f3bd
00000160: 864c 5f3d e8a1 933d b1a2 343c aadc 563d
00000170: c0a3 463d ab95 1f3d a977 ca3c e110 e93d
00000180: 1a37 013c 4c5f 14bd 2686 af3d 2e76 97bd
00000190: 2bbc cc3d 131f a3bd b958 1abe 3a2f 363d
000001a0: c5f8 ad3d 418b a53a 6299 9d3d 5a0e 133d
000001b0: a4f6 62bd 58a2 4f3d 56b5 af3d e4d0 523d
000001c0: 9898 52bc 6be3 0bbe 250f 2d3d 996a 483d
000001d0: 2718 8e3d 68c7 33be f835 1cbe 62e7 bc3d
000001e0: b72a f13d 2173 783d e3c1 743d 670b 163d
000001f0: 1958 613d 20e6 11be 36f5 883d 488e 203d
-0.05843322 0.05150198 0.04705387 0.082210116 0.07072057 0.029949922 0.02308834 0.07372621
0.0048454097 0.044788785 0.055122398 -0.06340865 -0.14446364 -0.03215142 0.05990399 -0.04665785
0.09037616 0.005785706 -0.104506314 0.04000066 0.0031353224 0.02822992 0.051099036 -0.032123912
0.004061375 0.09639486 0.004607589 0.050652727 0.09713686 -0.012821918 0.08141592 0.0471886
0.020044068 0.09861274 -0.098571755 0.100129925 0.07513548 0.0294551 -0.07720294 -0.05316051
0.0030489783 0.070176706 0.014212603 0.08312863 -0.13350168 -0.1177506 -0.0153116705 0.036038373
-0.046291273 0.111868545 -0.0150902355 0.049424186 -0.046968583 0.05685465 -0.12983043 -0.08153675
0.056780472 0.094753355 0.03992951 0.0013220115 -0.019112099 0.06948522 0.046694968 0.010998061
-0.11212236 -0.00066436105 0.029945739 0.03781229 -0.006070796 -0.14706661 0.06278803 -0.11648207
0.07473161 -0.05775114 0.008401054 0.05474777 -0.0077467756 0.048586406 0.07347975 -0.17043398
0.061372984 0.09168509 0.049586657 -0.12444953 0.08690524 0.04386824 -0.064609595 -0.11896591
0.054516338 0.072086155 0.011025117 0.052456535 0.048496008 0.038961094 0.024715262 0.113801725
0.007886672 -0.036223695 0.08570509 -0.07395588 0.09996828 -0.07964911 -0.15072908 0.044478633
0.08494715 0.0012630002 0.07695271 0.03590236 -0.055410996 0.050691932 0.08579509 0.051468745
-0.012853764 -0.13660972 0.04225077 0.048929784 0.069382004 -0.17556536 -0.15254962 0.0922382
0.11775725 0.06065667 0.059755217 0.036631968 0.055015657 -0.14247942 0.06687395 0.03919819

d1.6.weight f4 [4, 128]
00000000: b500 0e3d bfb0 51b9 9a87 41bc 9677 46bc
00000010: be35 14be 8c7f 123d db6f 77bb c94b 91bc
00000020: 2de6 753d 2688 18bd c2e4 8dbd e99b 823d
00000030: 9b89 823d 118e 4c3d 2ac4 1bbe 69f5 f03d
00000040: 559c bcbc 4f52 17bd 8ad0 e13d 1957 d4bd
00000050: 847d d0bc 5b09 60bc 863d bb3c 2907 d33c
00000060: 3a47 8d3d cf06 8cbd 87f1 ef3c c1fe c73b
00000070: 7c9a 7f39 f553 a83c 59e9 db3c fc8d 3dbc
00000080: 90e2 923c 33d6 63bc b6ff b13d 71a6 41bc
00000090: 79b5 d3bd 9cd6 a0bb 0c0b f0bb b9e7 76bc
000000a0: eabf c13d 943d a13b c90a 8c3d 562a 16bd
000000b0: 5447 f03d 7ac3 603d a0b0 813d bfcb 973b
000000c0: f51f 803d b4cc 31bb 95d4 f0bd 4837 0dbe
000000d0: de11 703d 4932 f2bd 6871 a43b 2ab8 813c
000000e0: c8f7 d2bd 2983 7dbb 0732 c9bb 1a49 b1bd
000000f0: da31 29bd 34bc 5e3a 0f73 aebd 738b 17be
00000100: 9c7d 5b3d b08c e6bb 8dda 05bc c06a d8bc
00000110: eabc 583d c16e b23d de0e 1bbc 4dcf 42bb
00000120: a4a7 bdbb 440e 3c3d 7ca1 7ebd cdfd 88bb
00000130: aa14 1cbc 44c7 193c 07aa a5bb f2db a03c
00000140: ce96 bfbc 25a8 27bc da6f 0cbd 8aec 0c39
00000150: b43f 44bc e46d afbc 481e 883c f914 b13d
00000160: 10b6 f3bc 46c7 05bc 7f34 f8bd 192c 923c
00000170: b3aa 243d c1f4 79bb bbfb 56bb 9542 2dbb
00000180: 02ad 82bc 9078 c5bc f5d8 61bc 0892 993d
00000190: f7cd 8cbd 52ce a03c 0c2a 873d 6c72 c3b7
000001a0: 7fcb d1bc 0857 c0bc 0e21 e8bc 787c 43b8
000001b0: b7fc 963c 4539 1ebc fc55 c2bb f013 e8bb
000001c0: 1b2b 60bc 6b56 543d 4351 a4ba c1d5 57bd
000001d0: 325d 8bbc 0dd2 133c 13d4 7e3d 1fa1 30bd
000001e0: 4ef1 a3ba a53b bd3c 2d1e fc3c 1b8b 14be
000001f0: 54f1 c5bd 2b11 563d 3559 0f3d 27a4 e7bc
00000200: 6fd7 4a3d e1ee 26be d5e2 43bb db91 1ebd
00000210: a9a7 8c3b 0941 db3c 6dee c7bd c169 7abe
00000220: dcd8 50bc 2c64 b0bd 6346 b0bd 4ff2 043e
00000230: 2891 1d3e f39b a53d 3450 5dbc 5813 3bbd
00000240: 3932 043d d39c 4cbc 98d0 9e3d a985 093d
00000250: a5fe 9dbc 748c bcbd 28ad 6ebe a9fb c93a
00000260: 7aaf 133d c8da 87bc 3a83 af3d cd24 ffbd
00000270: aa45 01be 2421 e43c 04e2 1abe 3874 dbbd
00000280: bbdb e73c 14c4 2fbd 97f0 4ebc c93a bc3d
00000290: c252 883d dbc7 2abd fdd2 1f3e 900c d33d
000002a0: 0175 dd3d 5d98 0dbd aed8 19be d4e8 63bd
000002b0: 89b2 ca3d 43de d23d da6a 123d c4e1 ccbd
000002c0: 41f1 9b3d a747 d4bc 80a7 8f3a 7ef7 6d3c
000002d0: b969 fc3d 8a65 bb3d d123 ebbc a8c7 4d3d
000002e0: 323d 693c c661 48bd 2dad a5bd e37f e73d
000002f0: 3d2b bf3d bc5b 72be f190 bc3d 9ec3 253d
00000300: 6bc0 173d 5eb2 8ebd f15c 70be ce72 0fbe
00000310: 3045 b53d 7da4 9c3d e438 9dbd 6187 113e
00000320: e210 a4bd 5997 96bc dc45 d83d 01d8 e9bd
00000330: 251c a8bc 2c2f 13bd b048 b1bc 23af 4a3d
00000340: 2390 203b 25d3 b9bd bdeb 61bc 0b68 3e3e
00000350: 5cd8 183d ac23 da3c f9e7 923d 83bf c53d
00000360: 0686 2fbe 9770 a1bd bffa 853d dd0a 943d
00000370: 2121 3bbe 6aa0 b7bd 5e1d 993d 58fc 58bd
00000380: a06c 0cbe e7d4 9e3d f7f0 b5bd 3ace 023e
00000390: 3687 97bd 8967 093e 78aa 1d3e 2a1c 0cbe
000003a0: b9c4 d93c 8cc2 49bb 48a9 453d 6ea2 b3bd
000003b0: efe3 9b3d 77e3 863d 677c acbd d4c9 be3d
000003c0: 1a96 adba 3011 ff3d 142d ffbd 91fd a53d
000003d0: c7de 3d3c 238e 053e 3be7 ec3d ed72 9ebb
000003e0: 05b9 fdbd f44e 933d da6b 18be fd16 aa3d
000003f0: da5c 88bd 219f a03d e774 cdbb c7f8 64bd
0.034668643 -0.00019997636 -0.011812115 -0.012113472 -0.14473626 0.03576617 -0.003775588 -0.017736332
0.060033966 -0.037239216 -0.06928398 0.06377394 0.063739024 0.049940173 -0.1521155 0.11765558
-0.023023764 -0.03694373 0.11026104 -0.10368175 -0.025450476 -0.0136741055 0.022856485 0.02576025
0.06898351 -0.06837236 0.029289974 0.006103367 0.00024376245 0.020547846 0.026844667 -0.011569496
0.017930299 -0.01390605 0.08691351 -0.011819468 -0.103373475 -0.004908396 -0.0073255356 -0.015069895
0.09460433 0.0049206708 0.068379946 -0.03666147 0.11732355 0.05487392 0.06332517 0.0046324427
0.06256095 -0.002713007 -0.11759297 -0.1379062 0.05861079 -0.118259974 0.005018402 0.015834887
-0.10301167 -0.0038682914 -0.006139997 -0.08656521 -0.041307308 0.00084966724 -0.085180394 -0.1479929
0.053586587 -0.007035814 -0.008169782 -0.02641809 0.052914537 0.08712531 -0.009463994 -0.0029725612
-0.0057878066 0.045912042 -0.062165722 -0.004180646 -0.009526411 0.0093858875 -0.005055669 0.019636128
-0.023387339 -0.01023296 -0.034286357 0.00013439558 -0.011978079 -0.021414705 0.016616002 0.08646578
-0.0297499 -0.008165186 -0.12119388 0.017843293 0.040201854 -0.003814027 -0.0032803852 -0.002643739
-0.015951637 -0.02410534 -0.013784637 0.074985564 -0.06875222 0.019629631 0.06599817 -2.3299093e-05
-0.02560973 -0.023479 -0.028336074 -4.6607543e-05 0.01843105 -0.009657209 -0.0059306603 -0.007082455
-0.013682152 0.051840227 -0.0012536425 -0.052694086 -0.017012212 0.009022248 0.06221397 -0.043122407
-0.0012507827 0.02309973 0.030776108 -0.1450619 -0.0966517 0.052262466 0.034997184 -0.028276516
0.04952186 -0.16302063 -0.002988984 -0.038713317 0.0042924476 0.02676441 -0.09762273 -0.24454404
-0.012747016 -0.08612856 -0.08607175 0.12983058 0.15387404 0.080863856 -0.013507891 -0.045672745
0.03227446 -0.012488562 0.0775463 0.033574734 -0.019286463 -0.09206477 -0.23308241 0.0015410084
0.03605602 -0.016583815 0.08569951 -0.12458191 -0.12624231 0.027847834 -0.1512528 -0.10715526
0.028303018 -0.042911604 -0.012630603 0.091909 0.0665641 -0.041694503 0.1560783 0.103051305
0.10813332 -0.034569133 -0.15024063 -0.055641964 0.09897334 0.10296299 0.035746433 -0.10003999
0.07614375 -0.025913073 0.0010959953 0.014524339 0.123248525 0.091502264 -0.028703602 0.050239235
0.0142357815 -0.04892137 -0.08089671 0.11303689 0.09334419 -0.23667806 0.09207333 0.04046976
0.03704874 -0.069676146 -0.23472954 -0.14008638 0.08851087 0.07648561 -0.07676867 0.14211799
-0.08011033 -0.018382715 0.105601996 -0.114181526 -0.020521233 -0.03593366 -0.021641105 0.04948343
0.0024499975 -0.09073476 -0.013789115 0.18594377 0.03731571 0.026628338 0.071731515 0.096556686
-0.1714097 -0.07882803 0.06541967 0.072286345 -0.18274356 -0.089661434 0.074763045 -0.05297503
-0.13713312 0.07755452 -0.08883851 0.12773982 -0.07398836 0.13418402 0.1539706 -0.13682619
0.026583062 -0.0030786125 0.048257142 -0.087712154 0.07611834 0.06586354 -0.08422165 0.093158394
-0.0013243586 0.1245445 -0.1245977 0.081050046 0.011588759 0.13042502 0.11567541 -0.0048354776
-0.12388805 0.071927935 -0.14884892 0.08305166 -0.06658335 0.078428514 -0.0062700394 -0.055901315

d1.6.bias f4 [4]
00000000: ccf9 4cbd 41f5 47bd d2fb 45be 75e8 cdbc
-0.050042912 -0.048817877 -0.19334343 -0.025135258
